Learning Models/GNN/results/accuracy/gcn/predictor_SLAppV.pt (torch, 10238 bytes, 13 tensors)

gc.0.weight f8 [17, 17]
00000000: 6bca 11a2 2884 a03f 6e58 4a5c 46e2 a43f
00000010: 16e6 b88d ef08 833f fe24 5640 8575 c23f
00000020: dcd0 881b e51c c23f f1c5 b858 da7f 9abf
00000030: 797d fdae af4b d4bf becb fc6c 1be2 d23f
00000040: ff0c 5aaa 6f78 a53f ac05 5a4b 95df b83f
00000050: 6246 6b6f 5aa2 cdbf 3358 3135 225f 983f
00000060: 69a3 a23f 9157 c7bf 666e 39c9 89a1 ac3f
00000070: 2924 18a1 1118 9b3f 2be1 f47f 0630 d13f
00000080: 213f 771e c8e7 b73f d69e e38b b8fd c33f
00000090: 9118 0230 b9aa b33f c448 2471 4792 ce3f
000000a0: c2dc 917d 18ce c63f 0651 f76f c3fe b63f
000000b0: 80ad e118 7944 97bf 545b 5ee8 355b ba3f
000000c0: 3f7f 3f2a 3f60 74bf 2a34 58e2 000e c23f
000000d0: 3da4 5acd 1099 c23f b327 bf91 555f c63f
000000e0: e44e 4498 a9fe c03f ee5d 5730 f777 c03f
000000f0: 3a46 a7d9 58fb b13f 1b57 3eaf 34b1 c43f
00000100: aa78 dc7c 03a3 b63f 8721 fcfa 4ee8 9cbf
00000110: 4aac 6991 405e cf3f 9a62 bf57 b216 90bf
00000120: 1bbe f461 6f64 b03f 390f 644e 6313 ae3f
00000130: 49ad 3ffc 5876 c83f 23b9 b117 4b10 b13f
00000140: 7a4f 91dc de93 73bf 9fb0 e544 d462 883f
00000150: 47dd c4ce 401f a43f d279 abda c9b7 ba3f
00000160: f892 14d2 7441 c2bf d7de 9ffe 34ee bc3f
00000170: 619d aa3f f95c 94bf d2bf fc06 58ed bc3f
00000180: 6630 080e 9235 cb3f cc72 b928 6d06 ca3f
00000190: 5012 f016 1a80 c53f 6dca d54b 1354 9bbf
000001a0: 47b9 fd1f 16d1 c73f b55a 52d6 66a7 b03f
000001b0: e74f c5a5 d7cf c4bf 9b94 e0d3 a2a6 603f
000001c0: a6d2 326a fb9a ba3f fb56 c902 2bea a73f
000001d0: 600a dbf4 2fcc cc3f 4597 67a2 9f5b a1bf
000001e0: 70cc ddff 4a21 44bf 22ec 7fa2 9e8a be3f
000001f0: a802 7220 99d1 9ebf dc37 4d1a b50b c53f
00000200: 64c5 b0e3 c19f c13f 289f b3f8 81e6 85bf
00000210: 58f8 390f 1cea bbbf ea83 2171 970d b2bf
00000220: d92d 85ad 1839 da3f 32b5 677c f617 bebf
00000230: eaf3 f732 058e aabf f5f8 49d2 7511 cdbf
00000240: 6883 b3c8 bda8 b63f 0f11 dc42 a0e8 d03f
00000250: e4c7 a797 7b66 903f bbd7 ef60 8250 bdbf
00000260: aa02 8646 7a4e cabf b764 e675 29ea b23f
00000270: 44c2 02c1 f5b6 be3f 7b44 30e1 e5b3 cebf
00000280: 98d7 b28d 02a4 ca3f 8d5e d5f6 a7c6 c3bf
00000290: bef1 808d 5edc c73f 6ede cb8a 8d4b ba3f
000002a0: dbaf 768e 94eb af3f cd29 5b87 4052 cc3f
000002b0: f9ca dba9 18a5 e73f d019 2990 62a4 b53f
000002c0: 51c4 724a 3196 ef3f 0947 6340 2b86 a43f
000002d0: 6789 e8c8 57e3 92bf 4925 8620 790a e83f
000002e0: 01a1 269d 8053 c3bf 8880 1a3a 3b26 e53f
000002f0: ed3d 6b4e d027 ccbf 5478 54f7 6368 bcbf
00000300: d1b4 28e1 fab4 cabf 8455 5c0d 613a dabf
00000310: f709 231e daea da3f d94f d21d dfce b2bf
00000320: 1377 ae18 8bc8 d33f 7faf f3b7 b466 bf3f
00000330: d577 7ab0 0a6e 863f d18f c1d7 061e 80bf
00000340: e626 33be 3f56 b5bf 5df7 26b6 c6c8 d2bf
00000350: c815 99da a875 c6bf 82cc 071c 361a 9f3f
00000360: 70ed 9b57 dd80 bf3f 873b d869 f053 ccbf
00000370: 9ab4 f23d 363c c53f 06c5 1d53 31c9 d03f
00000380: 800b 3cee cc2a aebf 6707 3cdf 83db d73f
00000390: 3cd7 047e b22c b23f 05f0 aff3 25d8 c9bf
000003a0: 2191 45ec 2249 a93f a811 967c 783a 6b3f
000003b0: 44c1 059d f517 c63f d054 270a baf7 c93f
000003c0: f1e5 28bf 4a67 b73f a075 cc8a 4417 cdbf
000003d0: d5ad ea52 af5b c8bf ee4c 5cd9 5054 b8bf
000003e0: 412a 26ad 5093 ddbf bee7 720b 4c5b d93f
000003f0: b80d 170e 48e0 b13f c0ac ea58 e4de e13f
00000400: 7a13 d297 6679 ac3f 7e61 fe81 b241 96bf
00000410: 8e67 5af7 ad46 b13f 653a d284 368a 953f
00000420: 96a5 cb5c 4015 8f3f dca1 646a f41f b23f
00000430: 81d2 c700 6ee8 ca3f b752 95ed 7848 d53f
00000440: 6109 041b 3ce1 c63f 2f7d a5d4 bd7d b53f
00000450: 0f80 8378 0106 c6bf e0f5 cded 388a c13f
00000460: ebe4 f8f9 72c1 d43f 81c7 979e 6a31 dfbf
00000470: 4714 ef65 4fca d33f 15eb fb64 5d3a a2bf
00000480: a751 b415 2970 be3f f369 17a6 def0 c83f
00000490: 9972 90f0 a141 98bf a0d6 9954 38e7 9f3f
000004a0: e1dc eaf8 f2a6 b4bf 8169 7363 9b6e 683f
000004b0: 5009 a688 7ba9 aa3f 35f3 403c 40d1 b0bf
000004c0: d8e5 3cce ce8b d13f d0f4 8379 ce43 b53f
000004d0: ea29 0841 5ba8 afbf ca5b 45fa 5b9d c13f
000004e0: ed53 0a79 831b de3f b236 b584 c29c e03f
000004f0: 8faf 3497 1e29 e1bf 8634 2512 d3de cfbf
00000500: a41e cb81 0125 c3bf c524 c799 d715 ed3f
00000510: a8b7 76e7 239d b03f 8b70 ae99 4e31 e4bf
00000520: 0f00 7c4d d035 d63f 9126 48e1 1325 eabf
00000530: 2e1d ea20 289f c13f 955b 117b 28a3 e13f
00000540: 8ff5 a920 1e36 be3f 8f0d ca97 0928 b6bf
00000550: 41e6 6224 b13b c43f eefb 1581 d7c6 babf
00000560: 69ef 8408 423a babf 8350 1dcb af73 c03f
00000570: 6534 c9e2 85ac b23f f4ad bccf 89f7 debf
00000580: d0d9 a472 94f9 70bf e38c c4ec 9918 8dbf
00000590: 7a73 9dd4 193d cb3f 7398 9a58 dc46 bcbf
000005a0: d834 f2ee e75e c1bf ee01 ebff 227f d03f
000005b0: 549c 4983 7cb6 e3bf 0673 a93c 83cf b0bf
000005c0: 606b 8da2 25e1 c63f 73b8 ac6c 9656 7cbf
000005d0: 097a bdc8 3e64 a2bf f62e 54f2 a1df 973f
000005e0: 8a22 43e6 290d c03f 3761 c2f4 9dcd e2bf
000005f0: f497 ecba 7ae3 d93f 7b83 a528 d8bb c13f
00000600: fc01 5e6e 06c6 d03f c789 3064 f253 d93f
00000610: d40f 844a c7a4 a5bf 171e 0078 e84b b6bf
00000620: 7489 7671 c145 bcbf 3a68 8f2d 704d d23f
00000630: 3f30 ef27 c280 b73f 2f4c 476e 0bea d33f
00000640: a6a3 c965 ed0d bb3f 71db a07d 6b06 c3bf
00000650: 968a 62c7 519f a1bf 6fd3 bd8d b6c8 d13f
00000660: 1d68 d987 1f26 c0bf f53f ab69 d001 763f
00000670: 66e7 2e13 f5e8 dbbf cef5 f498 5655 d5bf
00000680: 8f5a 8a73 4666 c9bf b18b 1162 8f7b d63f
00000690: d2b0 7156 f610 d33f 7d50 d668 4241 d03f
000006a0: e379 0c1a f32d dabf 0588 1b11 534a cc3f
000006b0: 615a c7d8 2195 b83f 1b9d 055a 1006 cb3f
000006c0: 16cc 3b3e 0567 a83f 6c74 bfd3 585e c53f
000006d0: 0a6f cf93 def1 b43f e5fd b0cb 642e a03f
000006e0: a6a8 5542 e737 d33f d1fd 0268 9028 fd3f
000006f0: 3fcf 1171 9703 c53f 8227 12d4 4f9b 0340
00000700: 17b7 ed90 7e8e f03f 6699 2365 1068 f03f
00000710: 245a 3465 b2a6 e13f 1210 4a47 2baf fc3f
00000720: c80d 0bc9 13ab e33f 799d 8ea2 e272 ea3f
00000730: 7cf8 a989 9e5c f03f 8b86 6799 127c bfbf
00000740: fa2c f221 2d2b 00c0 c53c 7b60 3f48 fc3f
00000750: af1b eff1 6648 f23f bf98 581e 3299 f33f
00000760: f387 c07e 1d51 fd3f 8d8b 6aaf 0d00 e83f
00000770: 1ae9 f6bc 87f1 cebf 847a c3c3 51bc b13f
00000780: 6b9a ed3d 4f0f b1bf cc77 0e15 580b 93bf
00000790: fd0f 8e46 b318 9cbf ad57 0b8f 8439 ab3f
000007a0: 9f2f c25e 20dc a6bf 37a9 c4e9 58aa aabf
000007b0: 1275 48dd 717e b4bf 1d3e 4c47 dd97 c6bf
000007c0: 7b2b e76b dc49 9dbf 0426 11ed 4d48 64bf
000007d0: 2636 01f7 10dd b5bf 4302 7ec4 d64f b83f
000007e0: 60f9 bd1c d190 d1bf 4435 e64e 8841 b0bf
000007f0: f8e0 fdf1 5b7e 87bf 594c 5f29 d7a4 c0bf
0.032258291038392915 0.04078884007064763 0.009294387352485816 0.14421144143515358 0.14150680393652848 -0.025878345170161358 -0.31711952294241247 0.2950504841166398
0.04193448023309009 0.09716160859718198 -0.23151712837584443 0.02380040597594064 -0.18235984427635835 0.05591993886329476 0.026459002931037787 0.26855623718030824
0.09338045829576604 0.15618044691586047 0.07682378217768561 0.23883908295153422 0.17816454058968217 0.08982488139674069 -0.022722141402863993 0.10295426295338689
-0.004974600542453632 0.14105235149364265 0.14529619242719774 0.17478437058008253 0.13277168211845158 0.12866105900205532 0.07024150193981252 0.16165789181530318
0.08842489050263916 -0.028229936665441293 0.24506384945138598 -0.015711580854118702 0.0640325178289846 0.05874166805190701 0.19111168209870247 0.06665486649010126
-0.004779692223639271 0.011907251694275365 0.03930094265018141 0.10436688984507406 -0.1426225686820073 0.11300975052278815 -0.01988591624345071 0.11299657984341074
0.21257234273105324 0.20332111824509125 0.16797186012276422 -0.026687909606560135 0.18606831132951582 0.06505434734786315 -0.16259284586214948 0.002032583258385912
0.10392733900773496 0.04670843514456454 0.2249813027938954 -0.033902157377993215 -0.0006143203934087082 0.11930266825940852 -0.03009642849474639 0.16441978248843625
0.1376879083414152 -0.010693564798614455 -0.10904097911586186 -0.0705198908995183 0.40973488755545656 -0.11755314385637375 -0.051864778968571404 -0.22709534423842795
0.08851228856975768 0.26419836549054393 0.016015940791426334 -0.11450972429869825 -0.20551994746712882 0.07388552788178769 0.11997924768616836 -0.23986505027326985
0.2081301872146326 -0.15450000336089822 0.1864126387535076 0.10271534575064731 0.0623442100435054 0.22126013383088008 0.7389033620405306 0.08453956622643166
0.9870840505665318 0.04008612786277694 -0.018445369374725653 0.7512784610018254 -0.1509857909525252 0.6609169134935806 -0.21996501759575385 -0.11096787250832679
-0.2086480712327217 -0.4098131781077756 0.42058422987989225 -0.07346910932602614 0.30911519441893737 0.12266091815007306 0.010952075491612515 -0.007869771441796932
-0.08334730523634057 -0.2935044077711291 -0.1754656855938903 0.03037342592319848 0.12306006802457659 -0.22131161850162703 0.16590002083595295 0.2622798263247009
-0.058920291978231454 0.37277313995593037 0.07099452568658376 -0.20190882109443478 0.04938611158539375 0.0033237794165776498 0.17260618369210523 0.20287251945288753
0.09141986052500052 -0.22727257516173172 -0.19029799984615062 -0.09503655726102853 -0.4621164027127272 0.3961973296933329 0.06982851356501996 0.5584584938673274
0.05561371424940993 -0.021734990295585892 0.06748473442931255 0.021035053116572295 0.01517725260915163 0.07080009076583543 0.2102181915103252 0.33254836274617666
0.1787486202156954 0.08394991342128287 -0.17205828079659155 0.1370307122378298 0.3243071976790605 -0.4873911427267715 0.30922303156359415 -0.03560153825488591
0.11889893321887844 0.19485076055464354 -0.023687868411900046 0.031155471957808545 -0.08067244126401675 0.0029824290210004882 0.05207429926942331 -0.06569291564023845
0.2741581930200403 0.08306589571653267 -0.06183133286329563 0.13761472435245842 0.4704292947802163 0.519135722346354 -0.5362694695700031 -0.2489875639534242
-0.14956683003969318 0.9089162829851821 0.06489776993723118 -0.631018924864763 0.3470345265086516 -0.8170260810886295 0.13766957862046908 0.5511667636554757
0.11801327035387586 -0.08654842334549627 0.15807165409732885 -0.10459658528814916 -0.10245144565572918 0.12853047769261047 0.07294499193922517 -0.4838585404092719
-0.004144267916038349 -0.014207079446868004 0.21280215150445853 -0.11045624888592602 -0.13570880095759352 0.2577598094176484 -0.6160261692247198 -0.06566639166835495
0.17874594151620737 -0.0069185138661805754 -0.03592106056634143 0.023314028182581624 0.12540172332071037 -0.5875997333960531 0.40450924162212165 0.13854505524343694
0.262086494236456 0.39574870857373096 -0.04227278504006873 -0.08709576539705953 -0.11043938655942559 0.28597645234333735 0.09180844759902217 0.31115995187173245
0.10568126425790911 -0.14863341936299038 -0.034418635930042615 0.27787555543846215 -0.12616342671646033 0.005372823822384011 -0.4360935866676442 -0.333333634731244
-0.1984336914217306 0.3512915094090046 0.2979102939778048 0.25398311841968974 -0.4090545420057465 0.2210182031186038 0.09602557699631965 0.21112255473710992
0.047660983893273265 0.1669417413640163 0.08181563480996715 0.03160395609347314 0.3002870700644372 1.8224033415752852 0.16417210598921803 2.450835854343439
1.0347886716148815 1.0254062605614194 0.551598737397232 1.7927658829439719 0.6146334578156081 0.8265240836089297 1.0226121308801615 -0.12298694844460038
-2.0210821773558765 1.7676385659031422 1.1426763010547167 1.2249013123887804 1.832303519368449 0.7500065256211755 -0.24174591757566405 0.06927977589973905
-0.06663985502164287 -0.018597961697757445 -0.027437974149066225 0.05317320104738541 -0.044648181502537236 -0.05208089688888367 -0.0800543942682064 -0.17650953275050166
-0.028602069936634927 -0.00247588367395646 -0.08540445356739976 0.09496824547932996 -0.27446391875118614 -0.06349994589091518 -0.011471479723454511 -0.13003053207521267

gc.0.bias f8 [17]
00000000: 6254 9243 3392 0540 b816 6cec 3b5b da3f
00000010: 7340 2887 95d4 c53f 00d7 0c43 64aa 0540
00000020: 7561 b498 0d9a e03f 9f41 0384 1227 ffbf
00000030: 7591 6231 12e7 da3f 28be 0575 86f1 f13f
00000040: d57c c590 fa66 e63f 1f57 c738 9d4f fbbf
00000050: d415 dfb5 32bd ff3f d720 a7b9 f889 e3bf
00000060: 571f e317 6dbd 0240 df4b 09bc 43bd fc3f
00000070: 3e8e a40b b40d f2bf f379 059d 4192 ef3f
00000080: a14f 282e 2b66 be3f
2.696386840727926 0.41181848610026917 0.17055005168413437 2.70819904692587 0.5188053114425616 -1.9470391422984006 0.420353458621569 1.121466118925932
0.7000706508223639 -1.7069370477597159 1.9836909393646822 -0.6105922342331053 2.3424932352244627 1.7962071747940553 -1.128345532874746 0.9866035525154174
0.11874647023097264

gc.1.bias f8 [17]
00000000: 9208 55dd 96ff d43f ea6e 88aa b122 a83f
00000010: cc88 d816 8172 ce3f 153f 30fb 7c2e d53f
00000020: 079d cd38 384e b8bf df76 c575 029f aa3f
00000030: b2d5 c273 94cc d23f c9df f3a3 5a9b b13f
00000040: afaa 03a1 59aa 773f 016a 19f5 873d d0bf
00000050: 7fa3 1b22 6580 c43f a97b b4ba de45 d8bf
00000060: 8202 f83b a577 d03f 1124 e648 6fb6 a83f
00000070: a29c 7c38 5ea1 d6bf 6591 d49e 497a b43f
00000080: 1fe3 318b 641b c53f
0.3280999337622542 0.047139694277772495 0.23786939254302408 0.33096241502879425 -0.09494353663250275 0.051994397045502565 0.2937365656356078 0.06877676489591446
0.005777692902692407 -0.25375555930591537 0.16016830602100282 -0.3792645285884029 0.25730257850958804 0.04826686634903166 -0.353599124110085 0.07999096038526472
0.1648984603559933

gc.2.weight f8 [17, 17]
00000000: c788 2ca9 e9cd d13f 199e 1b67 9d25 c43f
00000010: c96d df74 6f3d a43f 82cc 198c d36d a83f
00000020: 8ea8 ab1a c38b dd3f 1b6f 5b67 d285 d5bf
00000030: df3d 2d5b d4c3 ca3f 5659 8d32 d8ab b7bf
00000040: edb8 795d 65d6 d63f 7ea7 0f8a 4227 a13f
00000050: fdab 0f20 f008 a63f 4f57 9c50 a85c c83f
00000060: 3f4b d60b 6393 a23f 4598 4779 439a da3f
00000070: c6a8 a0f9 1b67 c53f 5294 1b58 9804 b2bf
00000080: f6db 26c6 685c b6bf 63db 7e35 7ff0 82bf
00000090: 053c 6a3d 9d1f 87bf d1ac 49a0 70a5 c33f
000000a0: 8900 cc79 919b c53f a7e0 5136 2543 92bf
000000b0: c1c8 e9ba 92f7 cebf 8cc5 d8d3 5d49 debf
000000c0: 0431 7e01 b71d ca3f 39b6 7536 62ff d7bf
000000d0: 6d13 962f 24fb c13f 42d6 4415 d327 c93f
000000e0: bbb8 c56a 4713 91bf 20d3 898e 3f18 c73f
000000f0: 847a c6a7 22b1 b83f cf45 1478 e679 b4bf
00000100: ccfc 4bdb 0d66 d33f b403 6ba9 9fed bb3f
00000110: a8ed 3f3d 161b c03f ab39 c1d1 5698 983f
00000120: c955 04df 51da ae3f 8cd2 5388 fd46 af3f
00000130: 455a 02ec d05d b63f c8a8 cb16 fc21 60bf
00000140: c19e 0641 1da4 c83f 7178 6d55 f247 853f
00000150: d959 c8c2 7933 d23f 2086 869e 4a89 b03f
00000160: 1146 a0e9 15b9 ad3f d566 cb04 9782 b83f
00000170: 3f7f 0e09 bcd0 ad3f d2ac 8e26 8323 ad3f
00000180: be7c f7a6 9fac b73f 18e9 4cbc b60a abbf
00000190: 6315 eba1 81f3 ac3f 8e99 8ebc 898d a53f
000001a0: 6fef 7570 1db7 953f 2cd2 534a b8ac a6bf
000001b0: 7e37 27f4 6218 72bf 328a 83c2 7333 acbf
000001c0: 0a7d 09f4 4157 c9bf 3bd2 fbbf ad85 ba3f
000001d0: 436f f5ba ddd2 bdbf 44cb 26fb 2de9 c13f
000001e0: d8f9 7d86 0622 7cbf 7bf2 aef7 17b8 97bf
000001f0: f8b9 d2ea 72ab 49bf 869d fab0 4b09 883f
00000200: a42f 2637 32aa ac3f 8622 2db9 10de 6f3f
00000210: 4ba5 7ca1 9176 cfbf 4ebc 90ac 49e8 86bf
00000220: 6a6a 5690 dfdc 9b3f 5f2c b1ea 0c2c d4bf
00000230: 708d 363d 83d8 d43f 29ae 2bee f8e0 d33f
00000240: ad63 6998 065c dcbf 0bd6 115c dbd6 e6bf
00000250: 133b 4686 cc5e a8bf b8b4 1f77 d617 d63f
00000260: dec3 4a3d 028a dabf e9ac 8c08 1e87 d13f
00000270: 3cea 0514 e665 d83f edfd 3526 db3c c4bf
00000280: 27dd eb27 c40b d33f b571 af61 eafb ccbf
00000290: 8e30 fb79 c4db b8bf 55a6 260c 11c4 c43f
000002a0: cc8f bb61 b51a d03f 4108 4cfc 99d1 a4bf
000002b0: 3e0c 9fb1 0a57 a93f b523 6b20 85ba c83f
000002c0: 21b1 9a29 fec6 c73f 0d33 d492 a453 a33f
000002d0: 2495 30e8 28ec c63f 0804 0b1e 6df0 e1bf
000002e0: 50e5 f01c 09fb cd3f f904 4c22 294e e3bf
000002f0: f9f9 a9fc 928c c53f ce70 e403 7964 ce3f
00000300: 84e1 6fbe c61c b63f a7ff 6fcc 5a8e c93f
00000310: 57a3 73bc 6362 c33f b64b d1fa 330b b2bf
00000320: 5102 9559 7734 d13f e358 7b53 c132 c33f
00000330: be7c 84e9 4c38 b93f 9f96 843e 6840 b73f
00000340: 7da9 fbaf 0565 b43f 51dd 2053 802e ba3f
00000350: f270 b238 4db4 c6bf 246b 6e4f 604d 973f
00000360: 4a30 368b cabf cfbf 71a0 255a ace0 be3f
00000370: 2f3d 6a9b 50cf ccbf 2d9e e316 643c b33f
00000380: 3fac d05c 0358 bb3f 70fe 6356 5337 af3f
00000390: c368 956c e2ca b83f 94a6 14ad d59b b63f
000003a0: c8e6 2102 0936 ab3f b7a5 5eba 53a2 c63f
000003b0: c33d ce00 4b8c af3f f4b0 f9b4 d5ac c83f
000003c0: cf5a fc6f 6ebe cebf e67b 2197 5882 643f
000003d0: c595 8059 8d7d 7fbf c8d2 8a20 447d c63f
000003e0: 1f7b d547 3a4f c1bf 523f bba6 801d f7bf
000003f0: f057 546e 2099 a03f f6de 140a 46de 05c0
00000400: bec7 dc50 5300 a7bf ce3b 7803 e380 c13f
00000410: b6ef 3f94 129c b6bf 68c3 898f 1b1a 873f
00000420: 4afc 5f03 3196 e03f de8d 7315 419d cbbf
00000430: 46bd 8a43 3e0a c13f a3e4 df03 d35b bcbf
00000440: 002d 038c 04f6 a8bf 2425 e598 7d1b c5bf
00000450: 0e89 9ce0 fd0a bd3f a60c 9e60 bfd9 bc3f
00000460: 5f09 0020 3d50 c93f 665f 300c f3a4 b3bf
00000470: df6e 33d7 3e5c c6bf ac2e 716e dd96 c83f
00000480: 0249 91b4 221e c8bf bad1 a6c9 e474 ba3f
00000490: f884 b2bf cd6f c13f f119 6558 4257 7bbf
000004a0: 8b78 b6ca 688b be3f 45ff eb2c 5cbf 90bf
000004b0: bdbe 0581 9651 b9bf 3baa 8730 2d4d d13f
000004c0: 760d c03a d97e bb3f 21e9 14c7 5412 d03f
000004d0: 4f71 c74b 7854 963f 2362 28de 8e17 8abf
000004e0: b02d 650c 013a 90bf ee26 e52f 4694 c2bf
000004f0: 8460 8ee9 fde4 84bf c0b9 b6ce 9709 fcbf
00000500: ef94 5afd fcbb b53f fc5b 82f5 75b1 fbbf
00000510: af70 d20b d23b a3bf 526d 6879 2e95 bf3f
00000520: ceba d273 b6d6 bd3f 816b 5aaa daf0 903f
00000530: c9f1 f01e 7b39 d83f 6cc6 0cf2 76a4 c03f
00000540: bc99 e92b 7481 c6bf 9959 d9e3 cfe3 90bf
00000550: 5334 cc42 67b3 c73f 6db6 c97f 08f8 b93f
00000560: 3d09 4494 6e45 c6bf 5c79 4117 d7a3 acbf
00000570: c19b 49d0 3006 db3f a5ee 9612 9e07 cbbf
00000580: db84 8c70 663c c03f 562a 400a 57b2 a0bf
00000590: 6e32 12fc d353 cd3f f44b ed68 eb4a abbf
000005a0: 8452 a3af 45b0 d1bf eca9 5cbd 246b b83f
000005b0: 3c96 6348 84aa a5bf 5dac 08a9 51c7 d53f
000005c0: d3e3 67c3 c3e7 b33f ae4b 7c89 ddde 96bf
000005d0: 425b 5dec fecf c7bf 19e9 42b4 3cc0 b93f
000005e0: a02b 585e 22c0 80bf 9ade 7ae4 d617 c43f
000005f0: c408 da47 2a7a c43f 5855 16d9 ca6b e63f
00000600: ffd7 3147 5523 e2bf 1277 deb5 5de1 bcbf
00000610: fb03 c873 8f34 d33f ed1a 101b efc4 e3bf
00000620: 8578 c4e1 5cfd c33f bcc6 0b25 3ee5 b83f
00000630: f914 56e9 bb0a a43f b7b9 39bf 1e9b c83f
00000640: 40c0 b3b3 3cc3 c43f 01f1 f2e1 b912 923f
00000650: 800d 9cad a73e db3f ffbd 76c2 db53 48bf
00000660: 6fe7 6653 bb25 c43f 155e f4c1 5af9 b63f
00000670: 000b 9478 4e31 aabf 2bbb bf93 9951 91bf
00000680: f652 4935 16d0 d43f 1cbd e491 6896 c7bf
00000690: acbe 1655 225f bf3f f6c5 3638 e573 bfbf
000006a0: 9898 96d1 150c cd3f c2fa 6a2e 173d 9abf
000006b0: 13dc 78f0 8d5c bbbf 9870 8edb 9f90 b73f
000006c0: 59d2 2798 4141 9cbf ecf6 41b8 1255 d23f
000006d0: 845c 5f77 37f2 b33f 06df edaa eaa7 80bf
000006e0: 50d1 5629 b5e0 bebf 6089 8b68 92ba 63bf
000006f0: 837e 735c 308f a9bf ad05 5248 2c5b c43f
00000700: 3d10 c146 720e c13f 3e9a b017 b29a bfbf
00000710: 5ceb 52db d4a3 d2bf 4376 245b 18e3 d4bf
00000720: db04 e5bf 9a1c c73f 160b 0740 610e eabf
00000730: 5ec3 b6fd 5d5d c03f 0f35 b7b8 a2f6 c83f
00000740: ee64 2c66 08f3 b6bf 6e29 2bb2 e3d1 c13f
00000750: ff09 f624 eb4b bdbf a448 9c37 4c2d b3bf
00000760: c548 555e 9d5f d13f 054d 535b 469a bb3f
00000770: c499 eaf8 b026 d43f 5a52 ff97 92d1 ca3f
00000780: 600f 5cee d5f7 a1bf 7475 66d7 e800 a8bf
00000790: dc65 fcad be75 b83f e140 3e3e 98cf e2bf
000007a0: 006a cf05 b4bc efbf 12b0 8bc7 0ab9 bfbf
000007b0: 60a5 a0d5 a839 dabf a546 978f d17d b2bf
000007c0: 11f8 103c 1d46 a63f 80a5 99ef 09b1 c73f
000007d0: 224b 1523 b074 9fbf b631 a82f ba86 e73f
000007e0: 5544 0301 1836 c53f 3e57 8344 df66 e4bf
000007f0: 3371 5fe1 917c bebf 5b8d 3ede f7e2 a43f
0.27819291611571056 0.15739791426243313 0.03953121472997229 0.04771290860380707 0.4616554031805514 -0.3362928399417215 0.20910124256123105 -0.0924658893030473
0.3568356907698121 0.033502654412429486 0.04303694144604007 0.19032768188543023 0.03628072280402827 0.4156655010577917 0.16720914543959092 -0.0703826155764358
-0.08734755361261634 -0.009247773952535792 -0.011290768086182021 0.15348632647087482 0.16881006667245327 -0.017834264221591536 -0.24193033339139983 -0.4732279366317804
0.20403182576081502 -0.37496238058415404 0.14047672580286577 0.19652784861107092 -0.016675105945460383 0.18042749843484618 0.09645287128521757 -0.07998505050297598
0.30310388961511303 0.10909459959203965 0.12582662573536862 0.02401862769357314 0.060259397958514045 0.06108848847535339 0.08736902009909737 -0.0019693301786577223
0.1925083701619226 0.010391133529705084 0.28439182302227334 0.06459490175486637 0.058052716034705416 0.09574264399580142 0.05823314295343928 0.05691156240148988
0.0924777777322445 -0.05281611488904242 0.056545306220452195 0.04209547449800076 0.0212063407793574 -0.04428649813954552 -0.00441778806493953 -0.05508004903255816
-0.19797539153930926 0.10360227524854164 -0.11649881185934156 0.13992857707270379 -0.006868386735617148 -0.02316319894065309 -0.0007833777541657585 0.011736480082005906
0.05598599360663961 0.00389006868627845 -0.24580593476393128 -0.011185241297509443 0.02720975225893555 -0.3151886264719845 0.32571488359300016 0.310606224621298
-0.4431168068309102 -0.713727645705775 -0.047598258391294966 0.3452049411124096 -0.4146733854823291 0.2738719066134779 0.3812194057024134 -0.15810717931525123
0.2975931539399021 -0.22643785257140583 -0.09710338571602703 0.16223347752866127 0.25163015884595263 -0.04066163258359313 0.049492201025281166 0.19319213946280703
0.18576027900179162 0.03774751942009944 0.17908202493087189 -0.5605989062097487 0.23422349846968382 -0.6032910985815355 0.1683524831496042 0.23744118394905062
0.08637659215299293 0.19965682012843652 0.15144011213058192 -0.07048344491458533 0.268827283365714 0.14998642517338742 0.09851532651053937 0.09082652593914496
0.07966647669278433 0.10227205304623978 -0.17737736957941014 0.02275610432443921 -0.24804050252385174 0.1206157417378806 -0.2250767477857862 0.07514024313751895
0.10681172386164038 0.060968975349166565 0.09684577132194065 0.08831534839250771 0.053146630773836245 0.17682882881244463 0.06161722550234174 0.19277449928939172
-0.24018650501303404 0.0025035600929608102 -0.007688095232912533 0.17569781865099388 -0.13523033626093992 -1.444702769560497 0.03241826388163804 -2.733532027017527
-0.044924358006383155 0.13674581212441556 -0.08831897849444101 0.011280265157638872 0.5183339181820739 -0.21573651835852464 0.1331250982088738 -0.11077612728685664
-0.048751966563566285 -0.164901446967897 0.11344897016218544 0.11269756420920149 0.19776119291789038 -0.07673567817289281 -0.17469010837418517 0.19210403340035975
-0.18841966454289866 0.10334615634093938 0.1362244783422637 -0.006675013696002528 0.11931471776049045 -0.016354980699360828 -0.09890118265115695 0.2703354810643394
0.1074043053086394 0.2511188453824094 0.02180660212057833 -0.012740245966640867 -0.015846268064064695 -0.14514996851567424 -0.01020239228255116 -1.752342040515586
0.08489972291370738 -1.7308253851131203 -0.037565769141310816 0.12337007965145588 0.11655750587190569 0.016543785712751728 0.3785083582077076 0.13001906222193627
-0.17582561630406512 -0.016494034082222695 0.18516245614628932 0.10144093627760649 -0.17399389495410303 -0.05593750151523366 0.42225284901217824 -0.21116996677107128
0.12684326644470087 -0.03261062622194248 0.22912072952421475 -0.05330596595617712 -0.27638380195757173 0.09538488028616826 -0.042316564404057705 0.3402904654237256
0.07775519867563156 -0.02233453895230369 -0.18603502789729914 0.10058955574905716 -0.008178967003024173 0.15697752147911076 0.1599781847799645 0.7006582488999511
-0.5668131247064138 -0.11281381311570396 0.30008302981155993 -0.6177897957394102 0.15616951965143158 0.09724796680873288 0.03914439414351451 0.19223388993436938
0.1622081639720836 0.0176495594175643 0.4256991572767319 -0.0007424185795822934 0.1574014813648392 0.08974234805315746 -0.05115742895033826 -0.01691284145629905
0.3252006073355881 -0.18427760242182323 0.12254538133015086 -0.12286217329417312 0.22693131192972227 -0.025623666961787313 -0.10688101883793903 0.09205054388297851
-0.027592682754362084 0.28644245141900515 0.07791468300216492 -0.008132775632233368 -0.12061626681572091 -0.00240830035578303 -0.04992056969217364 0.15903237849492538
0.13325336890022924 -0.12345421865811887 -0.2912494794688223 -0.32636078739765056 0.18056043977597977 -0.814255356839882 0.12784933937430315 0.19502672213858616
-0.0896458863684477 0.1392178173030731 -0.1144396748768841 -0.07490993840864008 0.2714608594152533 0.10782279710410954 0.31486152942889256 0.20952064916368124
-0.03509396109259799 -0.04688193921468101 0.09554664371207572 -0.5878411498724995 -0.9917850602608382 -0.12391726848335363 -0.4097692571836742 -0.07223233943593728
0.043503678877172665 0.18509029578425995 -0.030718567029292328 0.7351962023545215 0.165713310713303 -0.6375576341767795 -0.11908828499094141 0.04079413021033914

gc.2.bias f8 [17]
00000000: 40c3 7d32 b75e a93f 9c6a 6bba 8b27 b7bf
00000010: 9c18 f64f c27e bb3f f6ce 7764 09f2 593f
00000020: 8c52 025c 6308 8dbf e2ce 9885 aa23 d4bf
00000030: 85d1 2bdc a287 c53f b04b 8643 809f be3f
00000040: 801c 0655 6a40 cfbf 8cd8 69ba ea0a 35bf
00000050: 6e42 4add 773a bf3f 7575 07e2 156e b83f
00000060: 683a ef0b df4c a0bf abab 4741 e280 a73f
00000070: 8910 c3ff f58f c13f 9fea d6a6 4448 94bf
00000080: 47bb fbaa 2ea0 bd3f
0.04955074778889079 -0.09044717122325568 0.1074029393404054 0.0015835849497962107 -0.01417615532435803 -0.31467688604901245 0.1682017874769707 0.11962129257726306
-0.24415330077701825 -0.00032108526867292357 0.12198590424146413 0.0954297711209245 -0.03183648129162436 0.04590518042444754 0.13720583904626363 -0.019806931193424245
0.1157254378738176

bn.0.weight f8 [17]
00000000: e469 bb07 258f d83f 2718 943d db3e e73f
00000010: 397b 1677 985e f13f 129c 081e 3146 f03f
00000020: 0380 a6aa a2b9 e93f c6c7 b2d4 dfe1 f63f
00000030: cc66 9c4a 304b f83f 242e 8ae7 d9b8 e33f
00000040: 9c72 ec6b c70f ee3f ce3e 6621 c07e e73f
00000050: 7e80 69d4 56e2 ee3f 13ef 8675 9f1a ec3f
00000060: fd29 f3e2 9cbf e03f 6675 4c20 49ed e63f
00000070: e96a 80b4 4665 e63f 6ce0 23a3 9d21 e63f
00000080: 597a 3461 2efc fa3f
0.3837368560322416 0.7264229014115288 1.0855946208827858 1.0171366856754998 0.8039105732932516 1.4301451023606986 1.5183566011896117 0.6163148424397531
0.9394261463053968 0.7342224743205976 0.9651292942690046 0.87824986414441 0.5233902390112345 0.716465533336003 0.6998628163740622 0.6916034876185342
1.686567668635368

bn.0.bias f8 [17]
00000000: db5e 109b 7bbe e2bf d1a3 62f7 01b0 e2bf
00000010: 18b9 7890 d2df d9bf 0f0a 479a 4066 d2bf
00000020: df4a 2837 17ec d8bf 9c0e 8a6b 4673 d6bf
00000030: 977e a28a 7cba d0bf e1d8 5750 9e48 d8bf
00000040: 5f0d c7e8 3012 d3bf 99b5 e3d6 c98b cebf
00000050: 98b2 3589 a5c8 acbf dfff 65f9 3273 d2bf
00000060: 96e6 7ff1 a79b ddbf da9a 6e84 d2ca e0bf
00000070: 1e0a ab3b 5a25 d0bf 2cae 6bcd d15c d3bf
00000080: d7e4 10cf 8123 bd3f
-0.5857522991745684 -0.5839853126282099 -0.40428604229499987 -0.2874909884086784 -0.3894098318716441 -0.3507858324230513 -0.2613822320799754 -0.3794322762108902
-0.297985293695282 -0.23864100449229111 -0.056218312262761916 -0.28828119616809816 -0.4626254900355006 -0.5247585856021388 -0.2522798140236392 -0.3025402551708989
0.11382304482767168

bn.1.weight f8 [17]
00000000: dc79 af0e 544c e83f b699 176f 679c e13f
00000010: 00a3 8053 b5ab e43f 09e9 1dbc b6d8 d63f
00000020: 32fd 239f b3c3 f73f 3702 6349 52bc f83f
00000030: a96b ee3b e249 e33f 2d37 6753 9325 0940
00000040: c5c1 e27e 651e f53f bf06 7779 7808 f93f
00000050: 7f86 fbdf 6563 e53f 3177 6e38 9447 f43f
00000060: e34c 74ac 2f61 e83f 6a5e 6121 5ef4 f03f
00000070: a6ba 537f b454 f43f 423c b1fe 2c15 0340
00000080: 499e 2eee 7d91 e33f
0.7593174254250772 0.5503422899026222 0.6459604864986375 0.3569771611288535 1.4852787224225037 1.5459769121809026 0.6027690096410555 3.1433474079011803
1.319921012542282 1.5645680184101562 0.6683835386904348 1.2674753383975708 0.7618635528800975 1.0596600822372246 1.2706799482072397 2.385339727195544
0.6115102436060137

bn.1.bias f8 [17]
00000000: 59be 4bd5 973f d6bf 73d0 65e5 93cd b33f
00000010: 099c 9fe0 c1d0 c8bf e1c5 a565 2916 dabf
00000020: 6a23 bc40 c957 8f3f 9f33 4ba8 73d7 c83f
00000030: e4fa 1f8c 45e1 e1bf 84f7 245d 129c c3bf
00000040: 8664 881a a11b 9e3f f42f b2d4 2465 d4bf
00000050: a275 1c31 1a14 97bf e231 334c 3a51 c3bf
00000060: f060 1fbf 9390 c7bf 9dcf 5671 d7c4 c43f
00000070: 9b2f 1290 4920 b2bf 246a 1581 7fd7 acbf
00000080: 457c e453 f7f8 c4bf
-0.34763141469645614 0.0773556170514114 -0.19387076824133967 -0.40760264326590173 0.015304157531788671 0.1940750667330606 -0.5587489830794223 -0.15320043132845396
0.02940227245753537 -0.31867333193872516 -0.022537621734149867 -0.15091637345029968 -0.1840996440139473 0.16225712808738715 -0.07080516593322132 -0.05633161974647674
-0.16384784313501846

bn.2.weight f8 [17]
00000000: 5653 dbf5 65ff e13f 02fb 61fd 63b7 e63f
00000010: 62eb ebee 56ad e93f 6de1 bdb5 d63f e93f
00000020: dc20 01d3 1f0f d13f e4a2 cd7c a136 e93f
00000030: c219 93aa e31d e23f 4fe2 1ca2 9f89 e63f
00000040: 26aa e256 4a6f d23f 713c a604 f64d e83f
00000050: 32d2 e46d 5d42 e83f f3c8 2413 aaea e43f
00000060: 256a 148f 9d15 e83f fd87 007f f9d5 d83f
00000070: b05c 93be b8d4 e53f 09ce 8d6e 35ab e73f
00000080: d033 95a1 0157 ec3f
0.5624265481843433 0.7098865460282868 0.802409617084191 0.7890428113596905 0.26654811483287033 0.7879188001216701 0.5661485988173853 0.7042997518793274
0.2880426262369461 0.7595167246635254 0.7581011911739266 0.6536455510997982 0.7526386065031302 0.3880599727873458 0.6822169992618878 0.7396495017296171
0.8856208949961175

bn.2.bias f8 [17]
00000000: 3d41 9564 f895 ddbf d158 01d3 f1bd c2bf
00000010: fc7c cf53 ca50 c2bf 9153 dfcf 1cdc bebf
00000020: 3069 fb86 f8f7 d0bf 56e3 71c6 14f1 c5bf
00000030: 87d7 fdc3 0844 ccbf 8b87 d2fe ca55 b6bf
00000040: 969b db4a f77f b9bf 1ce8 bf96 0509 b3bf
00000050: c81a a5cc cea8 cfbf fd78 1ed0 772b cebf
00000060: c7ec eeb1 abc5 c0bf d5ec 1e8b 9394 e4bf
00000070: feb6 e847 0d13 c6bf fd44 8a97 d7f2 bcbf
00000080: 33b4 116e b99d 9cbf
-0.4622784597641106 -0.14642164996138843 -0.14309052555379498 -0.12054615092286115 -0.26513493711321967 -0.17141971292201202 -0.22082624025250316 -0.08724659653901605
-0.09960885598739674 -0.07435641222392103 -0.24733910553387362 -0.23570153867780866 -0.13103243053578792 -0.6431367604449415 -0.17245641719039634 -0.11308047723493427
-0.02794542059239209

fc.weight f8 [1, 17]
00000000: 2a51 9223 318f 92bf 564c 601e a88f 9ebf
00000010: e358 f7c8 dec8 9f3f fa02 c7ce 7364 a13f
00000020: ac82 3935 d232 52bf 7345 3a05 7a84 983f
00000030: 7bf4 bf76 feea 7fbf 90d7 3b8a 91f1 963f
00000040: 3001 2043 6b1b 75bf 7238 0f57 d167 a13f
00000050: d4b5 2ed2 17cb 9d3f 0ba2 7ef1 9c09 91bf
00000060: ebd2 7668 9bc9 a03f d525 06d1 fad2 97bf
00000070: b75b 24b5 eeee 90bf 9ce1 4848 26e4 923f
00000080: 18bc c4c0 2ca8 9e3f
-0.01812435893641965 -0.02984488187219044 0.031039696708682462 0.03396951579225589 -0.0011107495128258966 0.02394285828501581 -0.007792467116812247 0.022405885755652444
-0.0051531019144024776 0.033995191457152255 0.02909505100585881 -0.01663823341337615 0.032788139821979666 -0.023265761382878686 -0.016536454969436423 0.018448446428210738
0.029938411012320726

fc.bias f8 [1]
00000000: ac00 1b3d fd76 af3f
0.06145469065586559
