Learning Models/GNN/results/accuracy/gcn/predictor_sn.pt (torch, 10238 bytes, 13 tensors)

gc.0.weight f8 [17, 17]
0	0x3fcb35041700049b	0.21255541918802554
1	0x3faf3e690aadb71a	0.06102302794793797
2	0x3fcbc8e48b5eab8d	0.21706826024214046
3	0x3faf53a7c24c2af4	0.06118511435314203
4	0x3fcbe19cb7787677	0.21782263716243097
5	0x3fd542d988cec609	0.33220518455627307
6	0xbfd15b0cfad8d0ed	-0.2711822938611153
7	0xbfbeb926b024e39f	-0.12001268196480773
8	0x3fc645b802823148	0.1740026485680437
9	0x3fc18331c183f296	0.13681623410220273
10	0x3fd96711da730510	0.3969158776563555
11	0xbfa2f058c3e708ba	-0.03698995009792001
12	0xbfbab2c5f82fc573	-0.10429036435359311
13	0x3fc8dea77a47e392	0.19429486723654726
14	0x3fded214e4656fbf	0.4815723638946529
15	0xbfa7a6b040649d6f	-0.046193607197262725
16	0x3fc1ab3423f4d18d	0.13803722148589906
17	0xbf71e32a4e3a45f1	-0.00436703229537859
18	0x3f8c6ed39a295baf	0.013883259908807092
19	0x3fb41c0e622b76fc	0.07855310341571092
20	0x3fba53dec224e005	0.10284225692601019
21	0x3fb4355832633fd8	0.07893897276085171
22	0xbf51afe3dcc9b90f	-0.0010795331210392033
23	0x3fc5dd596a457f06	0.1708175438789043
24	0x3fb38131334811ee	0.07619006635656664
25	0x3fc0f0f29bbc3bf4	0.13235313991796682
26	0xbfa3b1bc97bf5958	-0.03846539833436918
27	0xbfa373a806f3d422	-0.037991762970627244
28	0x3fb8c8b85a239c83	0.09681274605428496
29	0x3fc2b9e637ebc12f	0.14629819612992764
30	0x3fbcbdc6e6275c86	0.11227076643932507
31	0x3fcbacbc65cfd6fa	0.21620898219378387
32	0x3fb2a6e620ef1d5f	0.07285917572072752
33	0x3fbb26bea9a52a4e	0.10605994836547802
34	0xbfa73ae76546fb17	-0.0453712760095099
35	0x3faa1001032f969a	0.050903350485709
36	0x3f87b8cfa0aad4f8	0.011582967844655276
37	0xbfb6240f77c56d59	-0.08648773836232716
38	0xbf923f40d8ee8d32	-0.01781941722914588
39	0x3fc9640d1b6fcac4	0.19836582030946748
40	0xbfc901f5b7ad4a42	-0.19537230938529332
41	0x3fbf2b6b4108b6f2	0.12175627076859621
42	0xbfb05ea14247c2cb	-0.06394393795177249
43	0x3fb43a48dc00afd0	0.07901435252341504
44	0x3fc6452fd39c7f52	0.17398641426643252
45	0x3fd021942e679ad2	0.2520494893237074
46	0xbfbeb246cab063e6	-0.11990778397047527
47	0x3f9dcefba31add6d	0.029109889822135516
48	0xbfc50a3f344e1993	-0.16437521032294153
49	0x3fb24ac9edc5a932	0.07145368628485896
50	0x3fbc3ed9399a94aa	0.11033399254172829
51	0x3fc1fbf28234acca	0.14050132138922883
52	0x3fc0b6c474e319a1	0.13057761866930398
53	0x3fc242380a45837e	0.1426458406595223
54	0x3fc2ff63ca0dc67b	0.14841887823017771
55	0x3fb093624aff9c8c	0.06474890070932043
56	0xbf57b6c3e7e56ff3	-0.001447383226682139
57	0x3fc761540defc0b0	0.1826577251481516
58	0xbfa089698d3b19a4	-0.032298372736067976
59	0x3fc02c380ed2f63c	0.12634945606071024
60	0x3fd23f985b7a247e	0.2851315396624797
61	0x3faf927c0585074b	0.061664462732109536
62	0x3f8d64bbdb25797f	0.014352290749852113
63	0x3fc805b1359b5b27	0.18767371289751475
64	0x3fb4d490615113cc	0.0813684690084095
65	0xbfafd8482a950922	-0.06219697494317901
66	0x3fa84aea90a0b5a8	0.047446565775639826
67	0x3fb058aed93d8463	0.0638531952258901
68	0xbfc37278d76804aa	-0.1519309093273809
69	0xbfb8ec40a5d1db4e	-0.09735492752393535
70	0xbfc20c0c571ca9c7	-0.14099268201364465
71	0x3fb590f4c0391e3e	0.08424310391375742
72	0x3fcb7d4f9f0d7c7f	0.21476168886417565
73	0x3f9082b7007bfd92	0.016123637585221902
74	0xbfb1290d77492ef8	-0.06703266298535115
75	0x3fc648712d9daecb	0.17408575751630048
76	0xbfd23c0be16b3b47	-0.2849149419170555
77	0x3fb029db98e75412	0.0631386993694181
78	0x3fa7209e16db3340	0.045170727052755044
79	0x3fdb0edee36030dc	0.4227826328722253
80	0xbfc2f834f286769b	-0.1481996711926755
81	0xbfaabbfad590ca9d	-0.052215422220247755
82	0x3fdde5690d8a3c5b	0.4671270973421479
83	0x3fc19deb39f72a4c	0.13763180094095373
84	0xbfbdc2a150a9dbf5	-0.11625107020687138
85	0x3fc79549003a8117	0.18424332152518083
86	0x3fc5d25a312d11f3	0.1704819431416947
87	0x3fd77b3d549f1176	0.36689694656185823
88	0x3fdf4cfbd19f1225	0.48907371016346907
89	0x3fc242eda5a27b6f	0.14266748988753927
90	0x3fd4f2400a8da130	0.32728577643003387
91	0x3faa844d5192818d	0.05179063435321316
92	0x3fec36c2718aa62a	0.8816845147713981
93	0x3fe85df8d7df3395	0.7614711967704461
94	0x3fe5c1806dc068c1	0.6798708098970324
95	0x3fd4ce3ada1e6337	0.32508727360395845
96	0xbfd705ada3a430a9	-0.35972157459833426
97	0xbfd3559955bb1ddc	-0.30209954616699775
98	0x3fc8a9090f25dd68	0.19265855064052606
99	0x3fa975d04f4630aa	0.049726972271942074
100	0x3fe839456bcc1a19	0.7569911103644841
101	0x3fdb5b074360c029	0.42743093089939294
102	0x3fd8ba0b1316b0a1	0.3863551794445446
103	0xbfaa40703cdde3b4	-0.05127287619593038
104	0xbf9e36dc4067ab68	-0.029506150656668423
105	0x3f8865b959b10ae8	0.011912773179692818
106	0x3fbd5ebe6bae1a5c	0.11472692612560692
107	0x3fb604da45811993	0.08601154515154112
108	0x3fc5a30a06355ae0	0.16903806021829038
109	0xbfad19b85a53a1c8	-0.05683685400601096
110	0x3fc61fc609beeb7d	0.17284465289943887
111	0xbfca0f3aecd724af	-0.20358978809807612
112	0x3fc0e16d24450db8	0.13187946578010012
113	0x3fd191ddec0b948c	0.2745280079964878
114	0x3fc3bf29453a2ffb	0.1542712772392177
115	0xbfca854f3bed5725	-0.20719328333023515
116	0x3fc333f6c73376f6	0.1500233147298144
117	0x3fc55709811ebe37	0.16671866230670826
118	0xbfd0215c53593b3e	-0.25203617228992303
119	0x3fc2016fb6f187fe	0.14066883499896216
120	0x3f8cd8c76dde17a5	0.014085348167792786
121	0xbfbd9bd8dac01643	-0.11565928783974137
122	0x3fcf3e868e76c074	0.2440956302284608
123	0x3fb8909b3cfb0cb4	0.0959565185431071
124	0x3fbc0afc1f6478be	0.10954261557023678
125	0x3f4a6b42605fa2c4	0.0008062433341794119
126	0x3fd4d70eb2463fd4	0.32562606248484127
127	0x3fc8e0013ee875ba	0.1943360860031314
128	0x3fcb3e7948df0815	0.2128440481010904
129	0xbfb3a29ca98758e5	-0.07670001162418634
130	0xbfb5987ea4a24510	-0.08435813445455076
131	0xbfb34cb5eccb7a65	-0.0753892615425485
132	0xbfad11f67271783e	-0.056777669401285355
133	0x3fc626994a1689c1	0.1730529414899831
134	0x3fd277c05b9871ab	0.2885590452658799
135	0x3fc05cec3fc87d9a	0.12783578028118542
136	0x3fcd622646819d64	0.229557785441311
137	0xbfbeaafeacf96783	-0.11979667399410059
138	0x3fcc7dd2ae18b0fa	0.2225898122864079
139	0xbfc1ec4256f0eb56	-0.14002255673571068
140	0x3fcf93cadec9d093	0.24669776800476892
141	0xbf9c180b2ab7b893	-0.027435469133643208
142	0xbfd09a5f5d487902	-0.2594221507041682
143	0xbfc204e97ee77c58	-0.1407749051713576
144	0x3fb87936ed4993f8	0.09559958737516172
145	0x3fd1eff4c895a961	0.28027076328603157
146	0x3fc369bc316726e5	0.1516642800545959
147	0xbfd3c4135610d2bd	-0.3088425007329468
148	0xbfd73dd11577e953	-0.3631479940082915
149	0x3fcc6fb7761e2e82	0.22215932147479484
150	0xbfa71f07354a6c62	-0.04515860105058135
151	0xbfc67f00c9a731c6	-0.17575082632391864
152	0x3fb910f2ee505004	0.09791487043577268
153	0xbf9d1d6c3cbf913e	-0.02843255158212909
154	0x3fb4a86a517244e9	0.08069481361805554
155	0x3fd47a49151fbcea	0.31996371329201045
156	0x3fd478375c79adce	0.3198374178961928
157	0x3fd68a467ee0a048	0.3521896590268665
158	0x3fd63f7c55144bb1	0.34762485798381265
159	0xbfe7e25d5319090c	-0.7463823912624163
160	0x3fc8d6e99f3210a7	0.1940586116144278
161	0x3fb5ea543361bcc4	0.08560682539404058
162	0x3fddc9632804c99d	0.46541670711590105
163	0x3fd39aba48285bac	0.30631882712026015
164	0xbfc35b6f9c4e173b	-0.1512279046257222
165	0xbfde23bed7ceb992	-0.4709317309851936
166	0x3fd97770c985bbdb	0.39791507415696764
167	0x3fe26348034ed7e6	0.574619299374487
168	0x3fa43e214a2ae9f7	0.0395365145718251
169	0x3fe3e9fccaaed29e	0.6223129233026901
170	0xbfcae913e714fe01	-0.21023796828556843
171	0x3fd1199d33ff7c0b	0.2671883590500676
172	0x3fc5d119cbdaf5bd	0.17044374898789086
173	0x3fc42e4dd30d6123	0.1576630859879141
174	0x3fb03c5f9c25b02c	0.06342122614086126
175	0x3fd678e3f297a2de	0.3511285656991684
176	0xbfc6b84595a1e6f0	-0.17749852949400902
177	0xbf8e9816a14c1fe3	-0.014938523099331696
178	0x3fd4b7edc109afe3	0.3237261185774953
179	0x3fd4fbb6ec3ee894	0.3278634364211339
180	0xbfb286c6b6fc41dd	-0.07236902205864433
181	0xbfd06ae83ff1f2d2	-0.25652509922637734
182	0xbfd993cabef5af19	-0.3996455063668108
183	0x3fcd7e3a7534f53a	0.23041468356124445
184	0x3fc4b08e3b1c55e2	0.1616380489946741
185	0xbf9a8eaf9d7c9e1a	-0.025934928881865195
186	0x3fd1bb5e2289198c	0.2770610177289192
187	0x3f9bd9020d418851	0.027195007380562967
188	0x3fc3d22d8adc9f9f	0.15485162048684928
189	0x3f946858d5cc113c	0.01992930226244137
190	0x3fb8dd8f36a7e861	0.09713072857258133
191	0x3f91742dfe16af4c	0.01704475272497001
192	0xbf6835335addaef2	-0.0029550555254241823
193	0x3fbc435a8187d688	0.11040273344391427
194	0x3fd91cea9192d792	0.39238990989849143
195	0xbfb5376114e12d2d	-0.08287626991039039
196	0x3fb2d9fa5630e13b	0.07363857845564763
197	0xbfac784237254da0	-0.05560500071683383
198	0xbfc428462663fd46	-0.15747906565227704
199	0x3fc34ffb032d8558	0.1508783116833381
200	0x3f92b7814933c1bb	0.018278141110330753
201	0xbfc73e8a98436eba	-0.18159611162888273
202	0x3fc539616308bf0f	0.16581361137058834
203	0x3fb25cf1c5463f63	0.07173071924466749
204	0x3fba1309a49fd3dd	0.10185299176357838
205	0x3fc18c2ea46cb5a7	0.13709052113101203
206	0xbfc0041f336400ca	-0.12512578973110627
207	0x3f9a81131b82bccf	0.025883005670661426
208	0xbfce6253ea62b24d	-0.2373757261715518
209	0xbfbe01113dcc46e0	-0.11720378645648166
210	0x3fcaaadfa9552ec3	0.20833965080452374
211	0xbfacc8075a5fa2dd	-0.05621359804337598
212	0x3fc851769953f40e	0.18998606192317918
213	0x3fc10b1af283dd9d	0.13315140573079712
214	0xbfb241a8a9748a4b	-0.07131437432375624
215	0x3fb8e9fe8ae47115	0.09732046976973081
216	0x3fb892a35842e99d	0.09598751931017664
217	0xbfd38aed51b2a14e	-0.3053544328527281
218	0x3fa93099e92598b5	0.04919892283469222
219	0x3fc57723121c23cc	0.1676982725550985
220	0xbfd1f8a8ff1f676e	-0.28080201067279276
221	0x3fd564d8c0981bc8	0.33428019340538784
222	0x3fbea0ae24e27d08	0.11963928604608409
223	0xbfe3200a59810225	-0.5976611850856598
224	0xbfce1624a6b3e773	-0.23505075588019117
225	0x3fb244cc29d81a84	0.07136226674638563
226	0x3fa167cc01afd494	0.03399503250685956
227	0x3fc3ebbae2facb11	0.1556314094828726
228	0x3fbcb4c0820da25c	0.1121330564034308
229	0xbfa7e110e28c0a5d	-0.046638991980235224
230	0xbfe566a43979f932	-0.6687794802271922
231	0x3fd132e8f5d48a9b	0.26873229987010355
232	0x3fe08cf426e117fe	0.5172062644348896
233	0x3ff7dd00d6d5da6b	1.4914558784490974
234	0xbfdb75e31b8d4888	-0.4290702599584013
235	0xbfdda031386c5014	-0.46290236005847984
236	0xbfce3d743f22d0ca	-0.23625042994320317
237	0xbfd0fc1d910cf33a	-0.26538790860267947
238	0x3fbf2fdef3c0189f	0.1218242020696345
239	0x3fc8f422c2c65d84	0.19495043287745883
240	0x3fc3b4fff9c276f5	0.15396117873472517
241	0x3fc9180593f44d05	0.19604558681803766
242	0x3fc28a62adfd8d0c	0.1448481893122352
243	0x3fc170f48067afbb	0.13625961560989971
244	0x3fc77f6efde1e308	0.18357646366691704
245	0x3fcc36577a5d7618	0.2204083774076231
246	0xbfc539a03e12ec49	-0.16582110434487365
247	0x3fbc3710e6dcbe83	0.11021524082456761
248	0x3fc15e689680c028	0.13569362019325237
249	0x3fc52a9c040ed539	0.16536283682004596
250	0x3fc383ef67a141aa	0.1524638420110141
251	0x3fc2cf227b7a23f3	0.1469462492862302
252	0x3fcb37ac39398ba7	0.2126364974420458
253	0x3fc50037cac345e0	0.16406915092970475
254	0x3fc4a6cb0f41789b	0.16134012455853938
255	0xbfc8e30eceb32188	-0.19442925541649125

gc.0.bias f8 [17]
0	0x3fd247f278029190	0.28564130515794606
1	0xbfbbf568b22a9571	-0.10921339368595341
2	0xbfc05ddaa240ba46	-0.1278641979456145
3	0x3fce879f9caa1f29	0.238513900276524
4	0x3fcfb2c20162b3d5	0.24764275615362288
5	0x3fdb9ec2d1003bb1	0.43156500253911206
6	0x3fa55a348d0aee9b	0.04170383664810836
7	0x3fc8b027c334bea7	0.19287583381218562
8	0x3fb586719f45627a	0.08408270014241195
9	0xbfac9287db9cb014	-0.05580544048129368
10	0x3fd005b727bb8657	0.2503488433850171
11	0xbfc60433b17b62bc	-0.1720032326327522
12	0xbfcf82e9bcbfffa4	-0.24618264881428076
13	0xbfc98d5b8d23ebd6	-0.19962639228455598
14	0x3fd00c14acb1b330	0.2507373510805335
15	0x3fc78a0e8fdc909e	0.18390066170207303
16	0x3fe72ab3dddd3502	0.7239627202303895

gc.1.bias f8 [17]
0	0x3fc6681823eb5dd4	0.17505170587422347
1	0x3f913f364f25f438	0.01684269769747379
2	0xbfc1e8b6a09a1e21	-0.13991434900184266
3	0x3fd051b7d0ee417c	0.25498767283809065
4	0x3fcac121252b5b9c	0.20901884379301527
5	0x3fc219be10a9cfa8	0.14141059697760494
6	0x3fc21e60d2e11946	0.1415520696338694
7	0x3fdec7e11e3b6f51	0.48094966842994774
8	0xbfc7b195b0bee699	-0.18510695581590111
9	0x3fd07c2bc01bcbde	0.25757879028895825
10	0x3faa1ee8411f308f	0.05101705355591079
11	0xbfc0df496d2c0319	-0.13181417303715007
12	0xbfb2f253f1a45bb7	-0.07401013040030945
13	0xbfc3c9fec6732c5b	-0.15460190477310473
14	0x3ff0cb1f598ef87c	1.0495904444101418
15	0x3fd742cda9f93218	0.36345235442129953
16	0xbfa6229f01b2c0ac	-0.04323288818102475

gc.2.weight f8 [17, 17]
0	0x3fd7757e1bdc3d07	0.3665461799691489
1	0x3fb387fdc7260178	0.07629381286642978
2	0xbfa14f9132ed1486	-0.033810174433292636
3	0xbfc015d41984bb70	-0.12566615339298037
4	0xbfa1ec56c593765e	-0.035006248109976865
5	0x3fc6436db43f8d68	0.17393275548156883
6	0xbfd79208ed04bb7e	-0.36828826090179934
7	0x3f607a83e7c15fa8	0.0020115448260575493
8	0x3fb1546473cf9984	0.06769397571006236
9	0xbf75088c70957908	-0.005135105698484084
10	0xbfa46ab8bc91f130	-0.03987672140007914
11	0xbfec931127bbfebe	-0.8929525161801946
12	0x3fc61f2730cb7f5f	0.17282571680606915
13	0xbfa24e4d96085591	-0.0357536550183496
14	0xbfa755148294bdc6	-0.045570984783235555
15	0x3fc44489631ec447	0.15834157314160022
16	0x3face378d10d2a95	0.05642297317406989
17	0x3fcb7b33b8539a96	0.21469732761689347
18	0xbfc84aca9e8757d4	-0.18978245487841028
19	0x3f8452181936d7cc	0.009922207135655635
20	0x3f973fa23034de9e	0.022703680221836657
21	0x3fab8212982eec5b	0.053726750447332626
22	0xbfd18874c0d02218	-0.2739536173762942
23	0x3f97694bca7a3d96	0.022862610085721956
24	0x3f8744a78790f728	0.011361416649488712
25	0xbfa8d99770d51413	-0.04853509189937468
26	0x3fb3c3cd8f55060b	0.07720646619147702
27	0x3f94894f49d7549c	0.020055045015244674
28	0x3f98d5c1e3794c2c	0.024252919682407434
29	0x3f90f30020b36d67	0.01655197333898908
30	0xbf805ab2d78e0503	-0.007985493853768682
31	0x3fa37df70e6bfd4c	0.03807041216895843
32	0xbfc35057978df739	-0.15088934803127943
33	0x3fddf12093711131	0.46784223936653563
34	0x3fd05cdfa0064a71	0.25566855075263734
35	0x3f9f308b982328b3	0.03045862308571463
36	0x3fa04350aa7a6986	0.0317635734656561
37	0x3fa1db3b3cd775ef	0.034875727822264106
38	0x3f96c4188e5aa016	0.022232421578024818
39	0xbfdcdffce9491bae	-0.4511711385898093
40	0x3fa311b8a5dc16ce	0.037244577642963614
41	0xbfcac0e007e94d0d	-0.2090110815648604
42	0xbfa73ce4308b2330	-0.04538643925258723
43	0xbfcc3d6012a39ab9	-0.2206230250369197
44	0x3fb5bca4ce89dcac	0.08490972559399051
45	0x3fcf163435b6dc0e	0.24286511061447452
46	0x3fb7c72ee61d8167	0.09288304441498028
47	0x3f95a856cf2f4322	0.02114997520021967
48	0x3fafc1e7ff02f9e6	0.06202626216826328
49	0x3f99e61ed6d6471e	0.025291902411090132
50	0x3fdd450f5cdf8928	0.45734008855483177
51	0xbfb6eed5f1f0f343	-0.08958184391754025
52	0xbfc8bdd2157e2972	-0.19329286622480485
53	0x3fb10277607101d4	0.06644388298537446
54	0x3fbe48108ddc210e	0.11828711951614343
55	0xbfc71d1682cee630	-0.18057519328230986
56	0xbfd347cdd37e0298	-0.30125756886995125
57	0x3fbcd4417b1ccc76	0.11261376624752181
58	0xbf9f49e591026cfb	-0.03055533120696639
59	0xbf8bf6e825812ce0	-0.013654531139897619
60	0xbfb33a2153fd9121	-0.07510574627446377
61	0x3fc542947c9ef413	0.16609436116223772
62	0x3fd2b2e922f50c1f	0.29216984189787526
63	0x3fa7a07377bbf307	0.04614601933096734
64	0x3fa06f6aed0bf0c2	0.03210004943500301
65	0x3fc0a797bf222434	0.13011452515300592
66	0xbfc232d7965c86fe	-0.14217657892100272
67	0x3fde39732ef4a0a5	0.47225646577363484
68	0xbfc361c881365a90	-0.15142160710521013
69	0xbf888d53cd7c81d6	-0.011988310535856177
70	0x3fba2eb18eac1b1f	0.10227498753748109
71	0x3fc58f783cdff7e4	0.16844084713369434
72	0xbfcf403db030e737	-0.24414797881200354
73	0xbfd53f05bbe83c5a	-0.3319715819388357
74	0x3fc6adf618c28dfd	0.17718387803061822
75	0xbfd944bacf497834	-0.3948199295317665
76	0xbfce3f178b0bab20	-0.2363004139836784
77	0xbfde9ee939748624	-0.4784491597257292
78	0x3fc70e63bba31f0d	0.18012663518879216
79	0x3fcf742eaa0c99c2	0.24573310187515857
80	0xbfa2186ed74abca6	-0.03534265878749325
81	0x3fbe2db4ee7bd594	0.11788492987019189
82	0x3fc60fc96b71dd5a	0.17235677477195105
83	0xbfb1ade7ed25ac42	-0.06905984439588145
84	0x3fdf74c93018a1b9	0.4915030450524927
85	0x3fd8e9cc97ae3442	0.3892699700598464
86	0x3fbf56c63f6b3ecf	0.12241782234491015
87	0x3f98a4a093fee8ce	0.024065503151839356
88	0xbf921be2349a9960	-0.017684492550551822
89	0x3f74117f309e65df	0.004899498782742622
90	0x3fcc3dec1fe0cb37	0.22063972050235645
91	0xbfc67518fdbee25a	-0.17544853582309622
92	0x3f9aa0e9e0e3bb53	0.026004461623354413
93	0x3fbb2b1a2c3a4d53	0.10612643794802538
94	0xbf82f54c6c581ac2	-0.009256932312394443
95	0x3f9c2132fb799a5a	0.027470394705597513
96	0xbfe4f564c3c77883	-0.6549552749454651
97	0x3fc7241e315b0d7a	0.1807897320742134
98	0xbfc613f5eef70499	-0.17248415153702437
99	0x3f983320ad15131f	0.023632536472422246
100	0x3fc637d1077a03a1	0.17357838501996262
101	0x3fca0488bab7acbd	0.20326336972298079
102	0x3fe38d1f4f4bd81f	0.6109768437152104
103	0x3fd26d22c58f2964	0.2879111222543058
104	0xbfd6d60e77983fe7	-0.3568149726788747
105	0xbfd7751071cad955	-0.36652003395592675
106	0x3fc37c57af8b6970	0.1522321326400049
107	0x3fd7dd1306ac7cfb	0.3728683056996968
108	0xbfd38544fb275f24	-0.30500912214982834
109	0x3fc9f1d4a65348e6	0.20269258614877755
110	0x3fcccb46ac084f9c	0.22495349311850255
111	0x3fcdd550e6ba5eb8	0.2330723883248902
112	0xbfa08f44b645b2d4	-0.032343051195174916
113	0xbfd687a6cbe71d1e	-0.3520295134771504
114	0x3fd79d3fa1fc1f4b	0.36897269076188327
115	0xbfd774320ed65dd7	-0.36646701287233213
116	0xbf9fed1d59c511f9	-0.031177958110918145
117	0x3fd7888491e554f9	0.3677073883785194
118	0x3fcd777238bed798	0.23020770808005575
119	0x3fcce117e31b56ac	0.22561930264662544
120	0xbfd07d4c167bab45	-0.25764753528226364
121	0x3fb9ace48500f983	0.10029438254512084
122	0x3fb66a48d860c921	0.0875592735544939
123	0x3f8e0d10cd4696f1	0.014673358215826467
124	0x3fa9f7096b5a6cc1	0.05071286616768012
125	0x3fb90ed40b1efde4	0.0978825118208913
126	0xbfc2befaa32e9d49	-0.14645321815371862
127	0x3f8f9d84dd6ef474	0.015437162406550999
128	0x3fc1e2d0e6716b8c	0.1397343754968826
129	0x3fba2d42447970cd	0.10225309535730105
130	0x3fc0a5db5158742b	0.13006154510449738
131	0x3fb705af0e008a3b	0.0899304780182683
132	0x3fba69fc0dad1454	0.10317969640625907
133	0x3fb888aa345d9287	0.09583534029440886
134	0x3f83ab024c298c8a	0.009603517483986818
135	0x3fd86c57f666b63a	0.3816127687703986
136	0xbfbb54f3d3c0b3d5	-0.1067650215124581
137	0xbfb00286aed2fb6a	-0.06253854530494399
138	0x3f92c572a6f2b766	0.018331328811363255
139	0xbfa4ededcdd41aeb	-0.04087775361590736
140	0x3f9929b6a3d48c55	0.024573186635404493
141	0xbfb7fee0ed17d99c	-0.09373288906485872
142	0xbfa2b782bc72696b	-0.03655632543923811
143	0x3fa432e64d210e43	0.03945083323972345
144	0xbfb106b716cf9691	-0.06650871569544338
145	0xbfb8c7bedb012fce	-0.09679787489693512
146	0xbf9df7532cadc24f	-0.02926378212163377
147	0xbfbb4afa3fa2bde6	-0.1066128163681622
148	0xbfc73be88cb294e2	-0.181515759181969
149	0x3f9010a1ba938d37	0.015688445103376494
150	0xbfa1fe4e83d4f3f2	-0.03514333113933067
151	0xbfc57af9b471e987	-0.16781541167058497
152	0xbfbb74ff48a7d02a	-0.10725398563209923
153	0x3fb348b5b5706a4a	0.07532821349779187
154	0x3fc49cb19242581d	0.16103191033897782
155	0x3fbda40f62854ab1	0.11578460841455286
156	0x3fc4d75003157a90	0.16282081747609256
157	0x3fb1e34b6b07d429	0.06987449038554473
158	0xbfdaaf81bba58fc0	-0.41696208310008487
159	0x3fc7121390fcb957	0.18023914889767909
160	0x3fb7772f64a2acf3	0.09166237074775889
161	0x3fb59ff7987c5690	0.08447215531153973
162	0xbfca21811795f3d1	-0.2041474690594485
163	0x3fc5370ffc2d4ee7	0.16574287236527782
164	0x3fd01cd49ff080f2	0.25175967806900623
165	0xbfc779316cc613ff	-0.183386018860034
166	0x3fad680dbc10cde4	0.057434491355163236
167	0x3fc5e130c954b76d	0.17093477087604061
168	0x3f758c9065f68e24	0.005261005454858334
169	0xbfbf051cdd7c415c	-0.121171764443948
170	0x3fdefa0c3a9b7e47	0.48401170466783977
171	0x3fbb975886785ae8	0.10777810366594631
172	0xbfa5d8d40b999dbe	-0.04266989366152128
173	0xbfc58846c89d8cc2	-0.1682213286941075
174	0xbf9ab603ab36c741	-0.0260849545717925
175	0x3fc532787389e8d3	0.1656027378229
176	0xbfd97481844efc01	-0.3977359573436275
177	0xbf69cb00675302db	-0.0031485565073981875
178	0x3fb411902d0fdaea	0.07839299297470928
179	0xbf9c38f1b1249295	-0.027560974537794342
180	0xbf84630fcad94318	-0.009954570177030983
181	0xbfe6c5129fff40f2	-0.7115567326491414
182	0x3fc57450584b165f	0.1676121169204405
183	0xbfdf98308174c8af	-0.4936639084072664
184	0xbf91d0da36328e13	-0.01739827113909882
185	0x3fc83650af4156dc	0.18915756757149083
186	0x3fd59f52ea49c33b	0.33784935836506563
187	0x3fe559f5cd2f08cd	0.6672314651007355
188	0x3fced094fde34ffe	0.24074041745063818
189	0xbfc03ccb382d5956	-0.1268552803328002
190	0xbfc4893055255147	-0.16043666989811298
191	0x3fc58816e96b98b4	0.16821562192416695
192	0x3fcf0a70cea0ba8c	0.24250612344026867
193	0xbfcbca85b44036f6	-0.2171179895525978
194	0x3fccc60e4e5c64cd	0.22479418588844738
195	0x3fc963c8e99838ed	0.19835769086825597
196	0x3fcd6453a8e72209	0.22962423083505737
197	0x3fa47db2d8bb6c51	0.04002150436073094
198	0xbfe05d7a4834b2d9	-0.5114108476896845
199	0x3fd44e97f03fa85f	0.3172969671419476
200	0xbfd3baebfd6f6045	-0.30828380345838396
201	0xbf51a23e42693447	-0.0010762794496657223
202	0x3fd3b3da11d88e7f	0.3078522848393063
203	0x3fc341db7e26c5a0	0.15044730815638463
204	0x3fe2d52e67cfc8f5	0.5885231044360625
205	0x3fc99a13b6f99943	0.2000145572121231
206	0xbfc04714d962a716	-0.12716923346061354
207	0xbfd0f040a15dbe22	-0.264663846573031
208	0x3fbfa41bc7455a69	0.12359784712803336
209	0x3fd60b4445159dfb	0.34443766352202915
210	0xbfd46c08b8e678ef	-0.31909387642544024
211	0x3fc5ef78f1ffab2f	0.17137061897604997
212	0x3fc6227bde67feae	0.17292736396483604
213	0x3fcbe4c4d2c3b93e	0.21791897097814145
214	0xbfb52c055f0e69be	-0.08270295687399362
215	0xbfe10609d22d84f2	-0.5319871048961018
216	0x3fd422d9e195efa9	0.31462714223720895
217	0xbfca3391700e5b4d	-0.20469873401153862
218	0xbfb566c8a5e29cc5	-0.08359960603648904
219	0x3fd31e3616aa7136	0.29871895039993335
220	0x3fae081ebeda49ec	0.05865570144409901
221	0x3fbc85926e45ea05	0.11141314689840705
222	0xbfc706521506827d	-0.1798803904212213
223	0x3fb6654036955e27	0.08748246510128209
224	0x3fc55f550b5cebb5	0.1669718080027828
225	0xbfdcb10ebe2eeba8	-0.4483067376383425
226	0xbfc9af83f3088cc5	-0.2006688057600511
227	0x3fccd3fc094e5fb9	0.2252192540588547
228	0xbfe424c3f52916c8	-0.6294879711428729
229	0xbfdcabf0895d062a	-0.4479943601073467
230	0xbfe12227c699d47b	-0.53541935719717
231	0x3fc8ae1ed68a880c	0.19281373477593922
232	0x3fd421c6985ce175	0.31456150893384144
233	0xbf49c9bac05166b7	-0.0007869874831485023
234	0x3fb0b8ad35e11543	0.0653179413357821
235	0x3fc5ab56339b2436	0.16929128188920267
236	0xbfb0e2c4fd77799b	-0.06596022785331572
237	0x3fdeca9a4c5e640c	0.48111588914758907
238	0xbf8193e6742dd8fc	-0.008582878513817331
239	0xbf93e417b04dc0b8	-0.01942479146549722
240	0x3fa02dad5416cb35	0.031598488344931765
241	0xbf9a8652f10100ab	-0.025903030357085893
242	0x3fa7eb0eff589cca	0.046715229673560524
243	0xbfd36c835e7a9da7	-0.3034981176992581
244	0xbfa2c77284bd9380	-0.03667791242950269
245	0x3fb07e21a11a2a77	0.06442461188468394
246	0xbfafa5e621bb2a31	-0.06181258355862374
247	0x3fb679ce457a8f28	0.08779610821016759
248	0x3fb4e4b83862824e	0.08161498428899813
249	0x3f67fe3cdc3e1b5a	0.0029288471868684053
250	0xbfc3465c71dbead7	-0.15058475074314145
251	0x3fad51c92e5999f7	0.05726460161968199
252	0x3fab199bf7e6fe3b	0.05292975808287933
253	0xbfa98d72b11e281b	-0.04990728771288407
254	0x3fc2e4759f4d782b	0.14759702948043815
255	0x3fc04992414648f1	0.12724521815523063

gc.2.bias f8 [17]
0	0x3f68906174c7f3b2	0.0029985335770547844
1	0x3fa754c886993a4f	0.045568720274435585
2	0x3fb36692faf00cba	0.07578390718849706
3	0x3fc6af0fcbc2c527	0.17721745919474438
4	0xbfa6e152cc1e45f9	-0.04468783132245941
5	0xbfca14ef9d16c3b8	-0.20376391573293318
6	0x3fcab904aaf46300	0.2087713083972389
7	0xbfb701fb48673684	-0.0898739864125791
8	0x3fb34f532e1151d9	0.07542915224741566
9	0xbfc92c7c3324b12a	-0.1966700792048724
10	0x3fb2b0fb34c5f7a8	0.0730130199280824
11	0x3fc89022cc72ea6e	0.19189867956977785
12	0xbfa981eeaa13818f	-0.049819429646734574
13	0x3fa7a76db47b37cf	0.04619925335065
14	0x3fb63f6891922128	0.08690503648734149
15	0x3fa7fddb52f71bf7	0.046858648183437816
16	0x3fdc55c660782802	0.4427352850040053

bn.0.weight f8 [17]
0	0x3ff8955838a28e8e	1.536461087446614
1	0x3ff09e26345cea19	1.038610653441202
2	0x3fe85e2b1c75f996	0.7614951663852476
3	0x3fe79a8f430ae161	0.7376171407150133
4	0x3fed513ce893aee8	0.9161667387502037
5	0x3ff37072178c8033	1.2149525565983026
6	0x3ff31a03fbba632f	1.1938514550331083
7	0x3ff192c0ae1e5fde	1.0983282853612688
8	0x3fe21ee68c695f5c	0.5662720434583934
9	0x3fe37826cda2a2d7	0.6084169403376006
10	0x3fecfbd12c9b1db1	0.9057393904885683
11	0x3ff124353e70d9a5	1.0713398398489542
12	0x3ff1f58749fdd0ca	1.1224434747974095
13	0x3ff02232c3558e1b	1.008349192642419
14	0x3fe52c5bb7baeea1	0.6616648281555692
15	0x3fedd7938a853e5b	0.9325654702642611
16	0x3febcad2f4912076	0.8685087944695755

bn.0.bias f8 [17]
0	0x3fa5cdb099c84206	0.042584913990257475
1	0xbfc1696456f53f50	-0.13602880712505305
2	0xbfc82cd58e8d4a46	-0.18886823139708236
3	0xbfd78933b4a8a03b	-0.36774914400530506
4	0xbfca865355b053d7	-0.20722428974173
5	0xbfc078aa29db7d00	-0.12868239444558327
6	0xbfb788e1f6ebf4c1	-0.0919324138485136
7	0xbfc4d53545862bb8	-0.16275659460765524
8	0xbfd86a61fcdc9512	-0.3814930886604354
9	0xbfd2ac1fdd4f6d98	-0.2917556439621989
10	0xbfcbe554c768845e	-0.21793613182765886
11	0xbfb2921bff1cc258	-0.07254195192650437
12	0xbfba4b6c7e5e3b1b	-0.10271337590368683
13	0xbfcb349174d861ed	-0.2125417538197917
14	0xbfe170d156a8baa1	-0.5450216953812125
15	0xbfcad84407aa8180	-0.20972490667646682
16	0xbfbfcaa85bdea308	-0.12418606036102287

bn.1.weight f8 [17]
0	0x3ff74a6bbc4a88f7	1.4556691508410589
1	0x3fea624c104731d1	0.8244991605693547
2	0x3fe5f56dea40cf3d	0.6862096381432604
3	0x3fed9f39732a12de	0.9256865739158362
4	0x3ff1a8a7415fab11	1.1036751321468652
5	0x3ff6ec07b7fb5428	1.432624548605654
6	0x3ffdeecdfc4108ff	1.8708019117044044
7	0x3fe2c63a371af5da	0.5866976810718214
8	0x3fd9f09fc0fa9ec9	0.40531152577976265
9	0x3fe8ad55b9dce801	0.7711590414176045
10	0x4004f906b8183148	2.6215948469527213
11	0x3ff8a3045bdcaa06	1.5397990787847688
12	0x3ff7d368a960c465	1.4891134849861143
13	0x3ff7e430617e43ce	1.493210202057742
14	0x3fbf6e57648e6cf2	0.12277742581357012
15	0x3fe4f8b145110da4	0.6553579663235962
16	0x3fe740ff8d84c81f	0.726684357074422

bn.1.bias f8 [17]
0	0xbfc0dbc4005a99c7	-0.13170671479492865
1	0xbfcb4b530f704b40	-0.21323621991958852
2	0x3fc902dc0e0bc9fd	0.1953997677406533
3	0xbfd9d4d239bb2043	-0.4036145747927586
4	0xbfd8f8fbe7999b2a	-0.390196777507685
5	0x3f99aaf7f8e3ef23	0.025066256109297257
6	0x3f8277d0566322d4	0.00901758922226873
7	0xbfda13560522aeac	-0.4074301767493391
8	0xbfc6d4d731748701	-0.17837037958911853
9	0xbfdcc8153957525a	-0.44971209144322233
10	0x3f92504999e0ff40	0.01788439752294768
11	0x3f88313847fb1705	0.011812629410438822
12	0xbfa6c20bc52c2507	-0.04444920331850182
13	0xbf675cc0c4dda7b6	-0.0028518452663108497
14	0xbfd1d62591c1b07a	-0.27869548067133787
15	0xbfdcfadbdc423ade	-0.4528112078632328
16	0xbfc09075b7003621	-0.12940856395327763

bn.2.weight f8 [17]
0	0x3fdff5d76d41059e	0.4993799750264659
1	0x3fea06c2a300e6f9	0.8133252319014154
2	0x3fe9446659501bdc	0.7895995849984234
3	0x3fe98a505b0b3b6d	0.7981340196800893
4	0x3fed5fdc94f553fa	0.9179518613187831
5	0x3fea33b310bbd67f	0.8188109709578412
6	0x3fe950f05e579f93	0.7911302416441565
7	0x3feb4639651511a2	0.8523222898734739
8	0x3fea469bd88feca6	0.8211192350130616
9	0x3fea2d469a2ebe40	0.8180268298510285
10	0x3fe864eccf733249	0.7623199512250461
11	0x3fe72ecec23aba9a	0.7244638246100579
12	0x3fe7dc8720cfd0a0	0.7456699028830549
13	0x3feae262a2caa8e6	0.8401349238895619
14	0x3fe9adc275cba13d	0.8024608898822759
15	0x3fe998b8ca196c67	0.7998928019764094
16	0x3fd98c0badc65ef6	0.3991727063198448

bn.2.bias f8 [17]
0	0xbfe39c140fd757f9	-0.6128025349996725
1	0xbfc12b7f9c69a60f	-0.13413996827448257
2	0x3f775d016c04f211	0.005703931383604048
3	0xbfb15f05be04bd6b	-0.0678561772262946
4	0xbfacf9e725a521ec	-0.056594107957213285
5	0xbf872f11baa773e6	-0.011320246227961971
6	0xbfb61d4dee800a70	-0.0863846499706058
7	0xbfc00fc5ec8a42f4	-0.12548135804947658
8	0xbfa099f1da1db078	-0.03242450511501799
9	0xbfa8a69fd2fadbd1	-0.04814624262274204
10	0xbfaa493f8afd02f3	-0.051340089527462406
11	0xbfc5d6d5ff04c1e5	-0.17061877204970624
12	0xbfaa8da9d1954673	-0.05186205562007453
13	0xbf81bbad72982f96	-0.008658747729917409
14	0xbf9232a309373bba	-0.017771289288983395
15	0xbfca541b198cdda9	-0.20569170711108356
16	0xbfe1f0f99474d543	-0.560665883973947

fc.weight f8 [1, 17]
0	0xbf9b4ae7ddf5ead1	-0.0266529301857002
1	0xbf9b0cd56feeb0a3	-0.02641614432984397
2	0x3f9b1566bbf53804	0.02644882700160879
3	0x3f90d82153d3be88	0.016449471227075324
4	0xbfadb453327b6e1b	-0.05801639548527878
5	0xbf89a1ad6ed11626	-0.012515406555517816
6	0x3f8eb5583121bc07	0.01499432468355445
7	0xbfa591f51862a72f	-0.04212919161484618
8	0xbf994d44337cd663	-0.024708810465389763
9	0xbf9988eac00951e2	-0.024936359377834345
10	0x3f8fc45ca52640e8	0.015511249341927116
11	0x3f82f3140e35810f	0.009252697642921718
12	0xbf8eed50021c3ffb	-0.015101075233843622
13	0x3fa6998fd53ac2cc	0.044140333918567615
14	0x3f92a9ec0fdb5fb0	0.01822632643492711
15	0xbf907587b4594f57	-0.016073341734524984
16	0x3f76efd2caafc488	0.005599807172061884

fc.bias f8 [1]
0	0x3fc1a2d62e9f19fd	0.13778188015403706
