Learning Models/GNN/results/accuracy/gcn/predictor_finra.pt (torch, 10238 bytes, 13 tensors)

gc.0.weight f8 [17, 17]
0	0xbfdad3ec62a40cad	-0.41918477661983894
1	0x3fc64387a878e213	0.1739358494394457
2	0xbfd50f8b6d355179	-0.3290737692343764
3	0x3fd188366a915bcb	0.2739387551022758
4	0x3fd06f339dbcbe9f	0.2567872085955773
5	0x3fc60e3e75be06ab	0.17230969189772813
6	0x3fd8bb4e8ccdc8bc	0.38643230200171863
7	0x3f9802d95e59ea7b	0.02344836843847496
8	0x3fc5b10ece760d31	0.16946587639913838
9	0xbfb78e7bc2e0bb6a	-0.09201787479171988
10	0x3fd5101cebba4416	0.3291084577586515
11	0x3fc0a80c0bf7b2ed	0.1301283892093105
12	0x3fe0fab40f405ac9	0.5306034372213954
13	0x3fb5b6ecadf7e7f6	0.08482245681071263
14	0x3fcc18c6d9e54f50	0.21950612677994252
15	0x3fb4a1c9b1724e92	0.08059368688764781
16	0xbfc1108c5c36b4ec	-0.1333175134908865
17	0x3fc2edf997f068e3	0.14788741988088025
18	0x3fc22ac64d77fc39	0.14193037779475207
19	0x3fc1ea2f7e8d918e	0.13995927504869282
20	0x3f558df654404fea	0.0013155847127608263
21	0x3fa5b903c9be928d	0.04242717588139042
22	0x3fb13eb885a49bc1	0.06736329329269976
23	0x3fb846ea7db89483	0.09483209199295754
24	0x3fb9756a8b3c8d8c	0.09944787883119072
25	0x3fa66e6288088c29	0.043810919862402216
26	0x3f9ac8fcbee4a35c	0.026157330657187713
27	0x3fc4cfb270118b20	0.16258841011139058
28	0x3fbbb8ef50b68a58	0.10829063149007234
29	0x3fb5b34a526e373b	0.0847670031782543
30	0x3f94aa28278d27cb	0.02018034688379781
31	0x3fa74fbeb18320dd	0.045530280274364655
32	0x3fb0d2d1078ce908	0.06571680483185471
33	0x3fb1379a293e3ad9	0.06725467211638704
34	0x3fc274329c893365	0.1441710724197051
35	0x3fab6cb21d4e3ccf	0.053563657834382654
36	0x3f61efdf4c807bc6	0.0021895753198033245
37	0xbfc4e3683b3a004f	-0.1631899155800078
38	0x3fc6b4772b4cdc96	0.17738237013120245
39	0x3fd140ad2f4117af	0.26957254042315076
40	0xbfb6d871106a811d	-0.08924013758451506
41	0x3f9e32268d181783	0.029488184320164656
42	0xbfba0f096e7124c7	-0.10179194399201484
43	0x3fd7e5c6a4c38e26	0.37339941110824026
44	0xbfb9e97352fd7d6e	-0.10121842170837222
45	0x3fc20c782bd211d2	0.14100553645779584
46	0xbfb52a0d09208e35	-0.08267289612609192
47	0xbfb6498f83518e40	-0.08705994564075414
48	0x3fb0440e9921ee16	0.06353846777522451
49	0x3fca3e716f4b2f0b	0.2050306123186306
50	0x3f88040fecdc08ce	0.011726498046759206
51	0x3faf1e43edd8ed47	0.060777781280615666
52	0xbfb39bc1e1ce598a	-0.07659541857569799
53	0x3fb2f4ebe4299e50	0.07404970474601069
54	0x3fc769c3fc704432	0.18291520906544317
55	0xbfa3e75f14f6208b	-0.038874598797577674
56	0xbfb23256c2b118f1	-0.07108061078278972
57	0xbf503139f765bf6d	-0.0009882989957894176
58	0x3fb31e281e2edabf	0.07467890488519922
59	0x3fc9ad51c5d911ad	0.2006017890981985
60	0xbfadfc01c5f2075f	-0.05856328526807774
61	0x3fbce30a6e2499a6	0.11283936680829373
62	0x3f8f838603e39667	0.015387579911883621
63	0x3fa81b9dd2a8f0cf	0.04708569714100152
64	0x3fbb5cb019df0632	0.10688305503483589
65	0x3fb991b60e6a5768	0.0998796258157576
66	0xbf2c7e9cb4979844	-0.0002173963824098642
67	0x3fb2b5bf2d4a1beb	0.07308573585224536
68	0x3f89cd17f99c5f3f	0.01259821634771152
69	0xbfb96f2d226f332f	-0.09935266581233003
70	0xbfb1f365713a507b	-0.07012018217420916
71	0x3f9e041e715a76e2	0.02931258742193322
72	0x3fcfe12549b5d25b	0.2490584001458441
73	0xbfa8016e72ef85c5	-0.046885921030262824
74	0xbfd0419137190ad9	-0.25400190716406496
75	0x3fc312e7c3670314	0.14901444474346504
76	0xbfb59fc3d13feb7a	-0.08446906908640797
77	0xbfc1c007eee2f6d1	-0.13867282070525858
78	0x3fca8ebfc2dd6b5b	0.2074813558091034
79	0xbfc47428aeba77c1	-0.15979488879832895
80	0x3fc47684a9cb9252	0.15986688891202278
81	0x3fbe5639f3a25dfb	0.11850321004964563
82	0x3fbcf79bac477515	0.11315319973023848
83	0x3fb7ca85c890751f	0.09293399950589219
84	0x3fcd4d9b1e3124b3	0.22893084501473523
85	0x3facba43cc7f2c86	0.05610858794497013
86	0x3fd68372fb8e36fc	0.35177301946610817
87	0xbfd0be9fc32afd9d	-0.26163477000587837
88	0x3f8eba1cb82581e2	0.015003418321328735
89	0x3fc77ad5d9763588	0.18343613737344477
90	0x3fd7ef4bc60015f9	0.37398046813936464
91	0x3fd71ba3ae80944a	0.36106197396504014
92	0xbfdd50092e73b4d8	-0.45801000152898785
93	0xbfb42c49fdaf5ece	-0.07880079692346983
94	0x3fe33a08c03966b8	0.6008342508677833
95	0x3fbb52155a99950c	0.10672124349510542
96	0x3fd24cd843183716	0.28594023277479275
97	0x3fc25912aa3e5554	0.1433432894961394
98	0x3fcf8bf47871cb04	0.24645858651236818
99	0x3fc2a65ce8e3a705	0.14570199367090467
100	0x3f8c03d7c1d9a2f1	0.013679204562508459
101	0x3fb1dc4aa8a6f22b	0.06976763360484799
102	0x3f784e2e99496e3f	0.005933935190650496
103	0xbfb2459c4be26418	-0.07137467243809714
104	0x3fbbbfb7e86f6a81	0.10839414047897301
105	0xbfc2626af9b15765	-0.14362847511318502
106	0x3fc51c2333adaa39	0.1649211885772546
107	0x3fca164bda27e9db	0.20380542900222917
108	0xbfdbec4684b098b4	-0.43629610975257127
109	0xbfbd124a294e989d	-0.11356032856437755
110	0x3fd0b361009ac527	0.2609484201339733
111	0x3fc5e8647273c949	0.17115455234995583
112	0xbfd37bebe78a143a	-0.3044385682226821
113	0xbfd2f9e1efa3e93d	-0.29650162126894825
114	0xbfcbd4f66cc095cb	-0.21743660268945883
115	0x3fd00957ee7ab409	0.25057028092379646
116	0x3fb67f6a46d54d46	0.08788170079542565
117	0xbfa3838afb3035da	-0.03811296764625256
118	0x3fc512b7e1d3b834	0.16463373686514304
119	0xbfb5c253f258f368	-0.08499645868955741
120	0x3fca3d8d2f7a48d9	0.20500340288396648
121	0x3f9c66f3f368a620	0.027736484271519868
122	0xbfae683686ad8ba4	-0.059388832035231404
123	0x3fb91b869beebb50	0.09807626063296238
124	0x3f9790b3d7331fa3	0.02301293374037495
125	0x3fbcafc326ed159c	0.11205692005486018
126	0x3fad649dcbe62e74	0.05740826715472461
127	0xbfa4877b4c2f4cd6	-0.04009614281644651
128	0x3fc18eda16494a94	0.13717199409673653
129	0xbfcc785aba71c782	-0.2224229250310224
130	0xbf8101e5b47de1d5	-0.008304400034590135
131	0x3fc206cff38dd1ba	0.14083289520534753
132	0x3fdf5730700559e5	0.4896966070131426
133	0xbfb81fc297123e2c	-0.0942346209360429
134	0x3fcf0747b3979e14	0.24240967053559415
135	0x3fa9f557272eed06	0.05069992402374095
136	0xbfd6a13e33f9f59a	-0.35359149051495253
137	0x3fca03955f9d7e4e	0.20323435944281915
138	0xbfc89921e3abf684	-0.19217322937759118
139	0x3f82c4d1e8b2a76e	0.009164466775775284
140	0x3fd6aa30e46dc73a	0.35413763339521476
141	0x3fc7952ad6ab404c	0.18423972589380566
142	0x3faff1acc351bafa	0.06239070781963636
143	0xbfc32cba3ecb040c	-0.14980247560563986
144	0xbf5dc95f5fdfffe6	-0.001818030490085215
145	0xbfaf122375dc1a15	-0.06068526090352947
146	0xbfbf1afb76d7d605	-0.12150546695178129
147	0x3fd0d51c25d30cf3	0.26300719922819765
148	0x3fb80ae26b3fd09b	0.09391608351126239
149	0xbfcfd9cafa131a77	-0.24883401117968493
150	0x3fb984660e751925	0.09967649319614631
151	0x3fd48a7b4c4bb01c	0.32095224810359624
152	0xbfadd3947d1b96a6	-0.05825485255426814
153	0xbfe190d2b443e9fb	-0.5489285965734888
154	0x3fe64dba33119e2a	0.696988200897015
155	0xbfd307db1f6c0ac6	-0.29735448902662787
156	0xbf9bd9e2bbb17791	-0.027198355394254362
157	0x3fe174323126694b	0.5454340896570015
158	0x3fd9fe041385a920	0.4061289015431999
159	0x3fdd0d2677bc365b	0.4539276284493547
160	0xbfedbfd16f21c8f9	-0.9296652956529946
161	0xbfe0bc2506448e2a	-0.5229668733995301
162	0x3fa1c6d861b13fba	0.03472019379171294
163	0xbf863792693f837b	-0.010848182522694696
164	0x3fe4f9f862e4b37b	0.6555139476309785
165	0x3fe604b13cfddc29	0.6880727950327855
166	0x3fb585d9c20528c8	0.08407364832706599
167	0x3fea86435f7612a9	0.8288895477749821
168	0x3fdfa3f349fb9027	0.49438173508520084
169	0xbfaf817fc0c12005	-0.061534874229039395
170	0xbfc052e9b0aae547	-0.1275302994379592
171	0x3fc711a7f6fd01e5	0.18022632179237444
172	0x3fc546e58508669a	0.16622609134428928
173	0xbfb0bb46433f685c	-0.06535758153714383
174	0x3fdfcbf9a96aadd9	0.4968246607265577
175	0x3fd676f79b6c5b20	0.3510111825757338
176	0xbfd0fe9a5a0e9080	-0.26553973002069853
177	0xbfdfe9dba004e471	-0.49864855410448344
178	0xbfd784336706b511	-0.36744389592316035
179	0xbfc1cff84455676a	-0.13915923439600003
180	0xbfd1c81fa0cf1364	-0.27783957199090126
181	0x3fb9fc8a40aaba02	0.10150970534116513
182	0x3fb966da443a7b82	0.09922565618260928
183	0xbfc847a85abc9fbc	-0.18968681746014038
184	0x3fdb76c1f26473e2	0.42912338896877433
185	0x3fcd68af3867bf4a	0.22975721601641858
186	0xbfd3dee27974f7b6	-0.3104788004019342
187	0x3fd10932aa14dbc1	0.26618639573592523
188	0xbf740910a540de65	-0.004891457578245805
189	0x3fd077a6276c3961	0.2573027977931784
190	0x3fd1658eb599d481	0.27182357534849905
191	0xbf98b23dcc7744ef	-0.024117436985595594
192	0xbfa268414cbdf2ad	-0.03595165311614799
193	0x3fcc72f0e0b22316	0.22225771876789996
194	0x3fc226072d8e93fb	0.14178552364788274
195	0xbfb2d740c0e29d7c	-0.073596999255292
196	0x3fc84bca34b67934	0.18981292318216847
197	0xbfc596e52c92c611	-0.16866745640213357
198	0xbfa9eacafd050721	-0.05061945284479764
199	0xbfbd5e4cba75ed27	-0.11472014953863106
200	0x3fc44d047748b930	0.15860038589875947
201	0xbf91fb65b4bbb054	-0.017560567051006906
202	0x3fb05c943c8ca6cd	0.06391264417893723
203	0x3fd5ad3c5495c04b	0.33869846592188385
204	0xbf987a6e4903fb50	-0.02390453644420215
205	0xbfcb984ed2da83a7	-0.21558556838593043
206	0xbfb25a5cca64cc85	-0.07169132176641042
207	0x3f629004f0060953	0.0022659393727632398
208	0x3fc6114393816672	0.1724018545381117
209	0xbfc3e717efb68c91	-0.1554899139856372
210	0xbfc766a14d8be65d	-0.18281952177476316
211	0x3fd21325dfef85db	0.28241869801249003
212	0x3fcf444b451a294d	0.24427166818743232
213	0x3fca0a2522659757	0.2034346025422404
214	0xbfd67a9d5c99c8ea	-0.35123380702056173
215	0x3fb9724bb1d3b751	0.09940026370506173
216	0xbfe5928f9ac1f6df	-0.6741407415972523
217	0x3fcf5bac74408b5a	0.24498515774129254
218	0x3fa2b6bcc2652dd8	0.03655042527187974
219	0xbfb50bb53e5ea67d	-0.08220989964197574
220	0x3fa8d25813ad1037	0.04847979774652383
221	0x3fd99ae78de680cd	0.400079620909321
222	0xc0027b0f5d81d6eb	-2.310087900662315
223	0xbfe49d35c1c7340b	-0.6441906723717933
224	0xc000aa8fb984066e	-2.083281945554339
225	0xbffdf7bed53d570b	-1.8729847268745654
226	0x3ffc31ecb04aba34	1.7621886145021906
227	0xbffd817d6993f2f4	-1.844113743222974
228	0xbff22661db4e9bc7	-1.134370667141171
229	0x3fdcc5c46c92057e	0.4495707569368149
230	0xbff91e39edd68e7b	-1.5698794642020448
231	0x3fd8334a51499c5f	0.3781305116485267
232	0xbffbdbb5026b1998	-1.74113942093536
233	0x3ff78b05c17bd844	1.4714410360297885
234	0xbff93958ca6f86c8	-1.576500693096408
235	0xbfe62598412d1c0a	-0.6920892022106966
236	0x3fc042c9b563b107	0.12703820568948052
237	0xc001cb2b08687148	-2.2242031723855327
238	0x3fc33af5afcabe1b	0.15023680766670186
239	0x3fc58723e1550647	0.16818665030045762
240	0x3fbeda7e68908bec	0.12052145054671798
241	0x3fb2672a18a2574d	0.07188666440410181
242	0x3fa53b40b9c9eeca	0.04146768825463949
243	0x3fbb7acde19e47a6	0.10734259374865349
244	0x3fc7b273de72ad47	0.18513344155995012
245	0x3fb1b6978acecee3	0.06919238222945583
246	0x3f9a53bf4409883e	0.025710094955123212
247	0x3fcd445dffe03be2	0.2286489009279356
248	0x3fc182b3a07e8b6f	0.13680119835506896
249	0x3fc4247285f88676	0.15736228505652478
250	0x3fc1302fdc2f8796	0.134283049118548
251	0x3fb479050d5fd57c	0.07997161461374519
252	0x3fc0a3f07ec9bba8	0.13000303450413964
253	0x3fa7c745eec645f4	0.04644220866897433
254	0x3fc598b57e7553f8	0.1687228076431493
255	0xbfacf73a6f6a1bff	-0.05657370195427091

gc.0.bias f8 [17]
0	0x3fdb0a22cfd67226	0.422493651358112
1	0x3fece350c717b7e7	0.9027484787491148
2	0x3ff19daf845a26a8	1.1009974641805602
3	0x3ff59fb547a225a6	1.351491241281431
4	0x3fef7453db161e3a	0.9829501418143487
5	0xbff8f8d633c78e0a	-1.5607511541974213
6	0x3ffae4337ce325af	1.6807131651315605
7	0x3ffd8e0373e77e2c	1.847171261549998
8	0x3feee9ddf13a822e	0.9660482131476493
9	0x3fe461db00d32d13	0.6369452491866546
10	0xbfb4ddbf1b37191c	-0.0815085832065034
11	0x3fe0680097b150f6	0.5126955950495631
12	0x3fc22623a43bc998	0.14178891677108818
13	0x3f992e72311adb57	0.024591240164876762
14	0x3fd2f3626de4e96b	0.2961050103364388
15	0xbffe64fc43386327	-1.8996546388427278
16	0xbfe2a95ea5887508	-0.5831750138346772

gc.1.bias f8 [17]
0	0xbfa07b6cac7763ac	-0.03219165425588896
1	0x3fc7759417f3d7fc	0.1832757107692372
2	0x3f9e2443ec1f0c10	0.02943521622342976
3	0x3fdb3ac916c99fb6	0.4254629824194994
4	0xbf9bda5d70bcc6a4	-0.02720018387407798
5	0x3fbd5eff46e6e818	0.11473079186444612
6	0x3fd467198f9e1827	0.3187927153124996
7	0xbfa3fef060592785	-0.03905440498472416
8	0xbfcfe126e04c5771	-0.2490585894781208
9	0x3fb9d085adc4be22	0.10083804600139293
10	0xbfcaa0e4d0bf6753	-0.20803508942372648
11	0x3fc4c5701636ec0f	0.16227532467550573
12	0x3fd4e90e650bd2ba	0.32672462337294983
13	0x3f932c290c7e4d69	0.018723145854506216
14	0xbfd7794f332e67a6	-0.3667791366402703
15	0x3fbed013f2b7f826	0.12036251712558563
16	0x3fb358fda351f5c8	0.07557664143856535

gc.2.weight f8 [17, 17]
0	0x3fd24e03b9e23cbc	0.2860116305609599
1	0xbfbca0c04b230bd9	-0.11182786783596955
2	0x3fe2e47744756871	0.5903889023859518
3	0xbfc095f048f9dc0b	-0.12957576335222173
4	0x3fe031843303562c	0.5060444828365624
5	0xbfbc63fb901d45a7	-0.11090061443726161
6	0x3fcf929a016a37dd	0.24666142529571192
7	0x3fc75526769ff506	0.18228607933262014
8	0x3fcd67eb3e3b7cf2	0.2297338537091274
9	0x3fce2227ac22726b	0.23541732697494253
10	0xbfd3a453d046341d	-0.30690474833756004
11	0xbfc83589ced0568f	-0.18913385961848347
12	0x3fc69f44c878a8c1	0.1767354945052997
13	0x3fd42597cf49b737	0.3147944950386434
14	0x3fc84491f3d804c6	0.1895925942081133
15	0xbfcdcbb37aadc9ed	-0.23277896394900158
16	0x3fcb4d0888bf8465	0.21328837086824418
17	0x3fcda6514885e560	0.2316381076923717
18	0x3fa247eca6982944	0.03570498975394057
19	0x3fc22dfc9bd36460	0.1420284043186113
20	0x3f96f5e8ddbdf631	0.022422445806560446
21	0xbfb6720235e55243	-0.0876771337110052
22	0x3f859465e61c9959	0.010536953053428876
23	0xbfd4ad4241289c7f	-0.32307487834118115
24	0xbfa47168ac8afd87	-0.039927741110200414
25	0xbfcace5fa728a19f	-0.20942302381560027
26	0xbf93457357141ac3	-0.01881962031350316
27	0x3f94db591a9c2619	0.020367996453421442
28	0x3f7afa382c5bda13	0.00658628409086372
29	0x3fc25b5e5bc0f355	0.14341334800874486
30	0xbfb3dff855274266	-0.0776362617391527
31	0xbfe2b6da81bab7d9	-0.5848209890152659
32	0x3faa9cb0402a7e17	0.0519766882255192
33	0x3fc0522575c74cfe	0.12750690699485995
34	0x3fcab238c7dcc182	0.20856389769461364
35	0xbfc82d6e78f6d9d5	-0.18888646036584925
36	0x3fe1380fe8eac4af	0.5380935238992118
37	0xbfcb65068a4a32d7	-0.2140205550425864
38	0x3fdcef766b7c5dd7	0.4521156358400424
39	0xbfc9d27eaa59e2d3	-0.20173629110265398
40	0x3fbf5946cc90214b	0.1224560021802336
41	0x3fbdb4c33e4453cf	0.1160394694346245
42	0x3fc1c7aa7bf08012	0.13890582133990442
43	0x3fc717928a00b9f1	0.18040687311572826
44	0xbfd738065fad78fd	-0.3627944883682089
45	0xbfcba0035b8ecaa1	-0.21582071276278206
46	0x3fb92cdb21a32c6f	0.09834069796777255
47	0x3fd0b6fe38bd7f1c	0.2611690096000403
48	0x3fc1ca12611478b9	0.13897924175484436
49	0xbfd59006f5c46183	-0.33691572189993496
50	0x3fd56423e01048b1	0.33423706895076594
51	0x3fda5568836adc12	0.411462906205487
52	0x3fb330e4232f10ed	0.0749647699258877
53	0x3fd9639568e87f3a	0.396703102540403
54	0x3fb08fb1bd226782	0.06469260089434495
55	0x3fd4afaa0b2b2d41	0.32322169390382177
56	0x3fbbfa6558c821da	0.10928948800586316
57	0x3fd0b27866aecd93	0.2608929636728245
58	0x3fc00467686769ca	0.1251343974862052
59	0x3f540ca2058164a0	0.0012237150422349866
60	0x3fcd76c3256bf0c4	0.23018683745602264
61	0xbfdb60ee877c51cc	-0.4277912448026455
62	0xbfb573f15c954b8b	-0.08380039701778068
63	0x3fc11f4854b3096c	0.13376716743193684
64	0x3fd102c520f5e62d	0.2657940694694812
65	0x3fc83119ba625be7	0.18899842835227718
66	0xbf756ba9d9a23c6f	-0.005229629017903566
67	0x3fd3a881d45e7297	0.30715986003068835
68	0xbfd563e70fc99dfe	-0.33422256986384
69	0x3fb62b7e13ccdba5	0.08660114272502868
70	0x3fa130eafa6312df	0.03357633882982269
71	0x3fb9724d0c4e61bf	0.09940034437602828
72	0xbf987074adc5786a	-0.023866484743273388
73	0x3fb1ff9536922cf8	0.07030613500880978
74	0x3fd2a1eea587a280	0.2911335579397374
75	0x3fdc0ac1d461d33d	0.43815656414453824
76	0x3fe04ad2ae163cf4	0.5091336631902821
77	0x3fb3e8a3aace6f1f	0.0777685443885585
78	0xbfc7308dec1ba9c3	-0.1811692622062094
79	0x3fb760185c6deca4	0.09131004578186946
80	0x3fd36b63c66a1a1f	0.3034295499459478
81	0x3fb273a9b8331fc5	0.07207737681449007
82	0xbfd4e0880aec1fd9	-0.32620431009899914
83	0x3f947c77ca051683	0.020006057458223935
84	0x3fe55f57a87b0488	0.6678884783397203
85	0x3fd2363f81552be0	0.2845610392584472
86	0x3fb92d4ed6f24e70	0.0983475947162391
87	0x3fd4a08f10ba9541	0.3222997344367578
88	0x3fb5cbb4637f242a	0.0851395361816151
89	0x3fd8bd1e850d8fa1	0.3865429210038603
90	0x3fb2d419b263e9b5	0.07354889493209422
91	0xbfe33bec0bf0ee98	-0.6010647042489436
92	0xbfdc984344608f7d	-0.44679338147601994
93	0xbfd3aa9da319eab5	-0.30728856017928347
94	0x3fb412428e482a82	0.07840362523726621
95	0x3fcb3f2d2ed95691	0.2128654936556598
96	0x3faad26c783dabe4	0.05238665550026392
97	0xbfea2dc201b39565	-0.818085673640479
98	0x3fa788cb2591427e	0.04596552690111809
99	0x3fcd699b5aa9dc61	0.22978536536149632
100	0x3fc341163cf4a3b0	0.15042379356716884
101	0xbfe7806b8a395fa9	-0.7344262790384067
102	0x3fd5960bddf588eb	0.33728310275740964
103	0x3fc901597234f4f2	0.19535368038660966
104	0x3fc4b259711fb613	0.16169279121042787
105	0x3fc1f41a2fd3a657	0.1402619107750975
106	0x3fa219e3367e4bc3	0.03535375633432338
107	0x3fc4d9d335228849	0.16289749235608245
108	0xbfc5d2b5b23ae52b	-0.17049285128249755
109	0xbfa453ba52679e51	-0.039701292571234455
110	0xbfbef9577fe5f86c	-0.12099215385930656
111	0x3fb1c6f82682abf0	0.06944228115268891
112	0x3fc14b34b32d2f9d	0.1351076006779949
113	0x3fb148d4f03f95b3	0.06751757493437686
114	0xbfd4a7e5a1af5997	-0.3227476195292182
115	0x3fabd0eaf14a62fa	0.0543282908958584
116	0x3f9e1f3a3ee9c1b7	0.029415998544608715
117	0x3fcc35cf61f5afea	0.22039215357960923
118	0xbfc002ddf36e0f7f	-0.12508749376513248
119	0x3fc353e226077558	0.1509974179925091
120	0xbfd0e94fd5b882b6	-0.26424022551695303
121	0x3fe03fc3815c1dd8	0.5077836538848102
122	0xbfd1ae0dae8e1f37	-0.2762483791961929
123	0x3fdadc2c1fc3be6d	0.41968825437559226
124	0xbfd1577474b1a5dc	-0.2709628238286237
125	0x3fb47807d3063956	0.0799565210529399
126	0x3fb3ca0795c2f089	0.07730147749220086
127	0x3fc0864bdae1028c	0.12909839808891765
128	0x3fc14df79c660a5a	0.13519187103891533
129	0xbfd4b886cd3dd7c2	-0.3237626079857102
130	0xbfd45477f23160f0	-0.31765555049561467
131	0x3fc856cd8efbe37f	0.1901490162051935
132	0x3fcbd7f0fee451ef	0.21752750821964592
133	0x3fb7a24e1db8f32f	0.09232032991071713
134	0xbfd237c15344b1f0	-0.2846530259292015
135	0x3fb068f0f1c54af8	0.06410127546886801
136	0x3fc2d696bc7b28fa	0.14717373088053148
137	0xbfc5c9e6a8aa3a79	-0.17022402988046162
138	0x3fd91e09269b46e8	0.3924582364098641
139	0xbfc8a1e4ae17eb2d	-0.19244059086471435
140	0x3fd489aa90f5dcba	0.32090248256958953
141	0xbfc5dabff44681d5	-0.17073821475516007
142	0x3fc7873469252957	0.18381362089196315
143	0x3fb003ea3102599b	0.06255973526490381
144	0x3fbdc75ab4b15091	0.11632315551224993
145	0x3fbcc1f8337748fe	0.11233474022381881
146	0xbfd33cf88925bb12	-0.30059636491107355
147	0xbfd0d658c2d623d8	-0.26308268572807725
148	0xbfa2273491e3d95d	-0.03545536309131834
149	0x3fc65aa8bae192b5	0.174641696215209
150	0x3fb2f36e01eeb963	0.0740269427030618
151	0xbfc3f0774b1de965	-0.15577593963446215
152	0x3fb09b8cbcb13084	0.06487350088826999
153	0xbfe0311e8983b5ee	-0.5059960065679527
154	0x3faeb10538503616	0.059944308399377075
155	0x3fda489cd61a5d96	0.4106819239472882
156	0x3fabd823f75ae2d0	0.05438339609594822
157	0x3fc6404be0ffe1ab	0.17383717047029043
158	0x3f976c43505ef43a	0.022873927860690403
159	0xbfec9e01a23bc9bd	-0.8942878883956876
160	0xbfd17b012e0d179e	-0.2731326055257969
161	0xbfb76b89f9e8ee8c	-0.09148466445270226
162	0xbfb3160592620c48	-0.07455477546504696
163	0x3fd11bd282f5196e	0.2673231390839622
164	0x3f9a0445a0d857e3	0.025406921331601395
165	0xbfe5081d73aef4e4	-0.6572406062547569
166	0xbfbaad43db137b47	-0.10420631502664178
167	0xbfd27dea683757c6	-0.2889352815376437
168	0x3fc3ba16860a7638	0.1541164545532625
169	0xbfd3274a8fa6823d	-0.29927314785348696
170	0xbf89899ca911fbb2	-0.012469505223860231
171	0x3f95d2f5a26a1c75	0.021312559164041695
172	0xbfa7f0d17630dd2b	-0.04675917213210775
173	0x3f9e7d6d2d5d976c	0.029775339025398237
174	0x3fb2145f4080c48a	0.07062335324077842
175	0x3f24602e4c8c390b	0.00015545430348890723
176	0xbfe47db0f8a0e95f	-0.6403431755091268
177	0xbfd1c823ef5cf0ac	-0.2778405988244781
178	0xbfa0dae371a1ba02	-0.03291998636347061
179	0xbf6915f9897e07d2	-0.003062236191852621
180	0x3fc519e3f6365c21	0.16485261461340975
181	0xbfa770685df9bed9	-0.045779477569224354
182	0xbfe0e0301d2cc616	-0.5273666925260752
183	0xbfaa7a8185ef06ec	-0.05171589622433523
184	0xbfaaa38ecf95a4d3	-0.05202909740439456
185	0x3fb429c1367e907e	0.07876212673596858
186	0xbf9f04d65f7babf5	-0.03029189069540546
187	0x3fd6fbfd49309a41	0.3591302122826257
188	0x3fc1712b4da70304	0.13626614848728746
189	0x3fc647436a2ada6f	0.17404978450732098
190	0x3fbc98be5211d7aa	0.1117056799283477
191	0x3fb8eb2cec21d082	0.09733849301284361
192	0x3fbcd7e3631f19cf	0.11266919298132126
193	0xbfe0c7c4c6925ab8	-0.5243858221391156
194	0x3f904f3835f347d0	0.015927198689332844
195	0xbfbe5df84db6965d	-0.11862136742873859
196	0x3fb147b3e22b8406	0.06750034591415507
197	0x3fcd8857dcf44e16	0.23072336472306237
198	0x3fbd4ca321cfe946	0.11445064139835379
199	0xbfd50bba33139bb8	-0.3288407801432487
200	0xbf44c07c8d01151e	-0.0006332977445785736
201	0xbfda96747824e16e	-0.4154330418855555
202	0x3fc6914765f62fa8	0.17630856016728313
203	0xbfb88c7749a7c91d	-0.09589334057071537
204	0xbfdf5a19e30a0bc5	-0.489874335973749
205	0x3f85da95e2f8ee31	0.010670824994227864
206	0x3fc52f504b125e06	0.1655063978730455
207	0xbf643417de7877bc	-0.0024662462417514835
208	0x3fc3468a58c1db5b	0.15059022268152486
209	0xbf9de69a75d43c52	-0.029199994508470724
210	0xbfe1d8c3db9d4216	-0.5577105798093409
211	0xbfc90637ca4df8bc	-0.19550225618508488
212	0xbfb60c6eaf2777a1	-0.08612720276093323
213	0xbfabc52837f70cc0	-0.0542385643307397
214	0x3fbc680f335ceea4	0.11096282009105579
215	0xbfae14ecf0efe6ec	-0.05875339928748055
216	0xbfe15842da8dcc00	-0.542024065840792
217	0x3f9fc5bdd21fff21	0.031027761411677738
218	0xbfc9bfb850d98eed	-0.20116332957979158
219	0x3fab3980b3c4cd1a	0.053173086113384296
220	0xbfd73bc05fe673b7	-0.3630219398999616
221	0xbfe2760bb1e26e9c	-0.5769098734194418
222	0x3fba0dd718ee47cb	0.10177368506108946
223	0x3fdbf24eb1572af5	0.43666426962288024
224	0x3fb2c017b0cd3314	0.073243599571651
225	0x3fd3ac0540976357	0.3073742991232868
226	0x3f9f5fdf441f93ca	0.030639160664481392
227	0xbfe858cc6e1e12f5	-0.7608396673900574
228	0xbfc1052add9f1e84	-0.13297019788136677
229	0x3fb6da99ef2e51cb	0.08927309121492681
230	0xbfb8c2fa928f6f83	-0.09672514036304673
231	0x3fce6a1d2a077a1a	0.23761333992202155
232	0xbf7f35724a8606f7	-0.0076193298813238474
233	0xbfe84d0950221b5b	-0.7594038548566958
234	0xbfba625f85f1f4a3	-0.10306355495591162
235	0xbfbfeeb1fa807a3d	-0.12473595014351076
236	0x3fc5ea07178872f8	0.17120445870468592
237	0xbfde3d104f99590d	-0.47247703336087526
238	0xbfc515eba210088f	-0.16473145878996262
239	0x3fc1530ff8929017	0.1353473628743138
240	0xbfd932db366c475a	-0.39372902216665795
241	0x3fc3cda2d87a7f57	0.1547130162261918
242	0xbfd13449ca3b750f	-0.26881642102473874
243	0x3fc176f6c1d3a39a	0.13644298996157717
244	0x3ff0ce564b25323a	1.0503752646792592
245	0xbf4e5e6828014006	-0.000926781518510112
246	0xbfcaded48345b96a	-0.20992523584159112
247	0xbfa3bbb5a9bccc14	-0.03854148575774033
248	0xbfc02fdd4930c237	-0.12646070550683117
249	0x3fc3450fd44ca35b	0.15054509988956508
250	0x3fe34d2adaead50d	0.6031698489884164
251	0xbfb3804d1b175517	-0.07617647086529576
252	0xbfd5978093f8ad72	-0.337371963980977
253	0x3fc11d9dcac6dc7b	0.13371632004939102
254	0xbfa10a3fe054b90d	-0.03328132260718251
255	0x3fca421fcecc8651	0.20514295194247947

gc.2.bias f8 [17]
0	0xbfb6abd3412d2a35	-0.08855934468480416
1	0x3fa69fc4086a6061	0.044187665965353735
2	0x3fda8def2b5c1301	0.4149129794534901
3	0x3fa5c3c99a335e27	0.0425093651517126
4	0x3fb97a2c12dce3e9	0.09952044926184524
5	0x3fbf69df3dfd11aa	0.12270922912018159
6	0xbfbcfe952fa1a49f	-0.11325962460400028
7	0xbfb094c9b55f4fac	-0.0647703235438814
8	0xbfcf75104347e8da	-0.24575999531936682
9	0x3fa903a9822a47ac	0.04885606492929581
10	0x3fcaf8edc409e65b	0.21072170326424353
11	0x3fcc7dd46fb29533	0.2225900216482529
12	0xbfcaf7dd8ef4c30b	-0.2106892536189878
13	0x3f8acb3467db6caf	0.013082894725292197
14	0xbfc3d3df5b40f893	-0.15490333514930352
15	0x3fa981c6093a51fc	0.04981821882862289
16	0xbfd5443f152ad14a	-0.33229043070902675

bn.0.weight f8 [17]
0	0x3fec078208de754b	0.8759164975378239
1	0x3fea39c114227797	0.8195500748877177
2	0x3ff360f9e534d003	1.2111758187647872
3	0x3fededa411eb2c87	0.9352588987325284
4	0x3fefcb68b716c92e	0.9935802055318044
5	0x3ff1cc1665876d86	1.1123260465600153
6	0x3ff33c83cb3267c6	1.2022741258028744
7	0x3fea6a1de3d64f5c	0.8254537057823472
8	0x3fe532fb66f4862d	0.6624733935206614
9	0x3ff22d433a340110	1.1360504411277965
10	0x3ff0c715ccfade16	1.0486047751454683
11	0x3ff1b34c8456096f	1.1062741441133672
12	0x3fffff782dc3703e	1.9998704707750359
13	0x3feaab50c58b1892	0.8334125383633071
14	0x3fea6f1ea0505621	0.8260644084099945
15	0x3ff0b1ddc9442fba	1.043424402424519
16	0x3fecc4af1afaeb02	0.8990092780071282

bn.0.bias f8 [17]
0	0xbfc8061c4eb95a6c	-0.18768647998759336
1	0x3f8000366ceeea01	0.00781290550172731
2	0xbfcfe1a759fbd9a2	-0.24907390493144727
3	0xbfda7b237cb737a2	-0.4137657850195585
4	0xbfde12780cc2b105	-0.46987725492614657
5	0xbfa3018c27b2899e	-0.037121181341052564
6	0xbf7ee26d231b49fa	-0.007540155713018576
7	0x3f91f9818694d1f2	0.017553352202598967
8	0xbfd7bab94dd29e81	-0.37077171897770006
9	0xbfbb6060868d865f	-0.10693934712392082
10	0xbfd06fbb0de6cb76	-0.25681949956486194
11	0xbf65f81c6fea5b45	-0.0026817851460906616
12	0x3fc5fa443daec5ec	0.17170002948618845
13	0xbfe00341c1340576	-0.500397565221802
14	0xbfdb97b665973db8	-0.4311347953889384
15	0xbfb6f90ce933a004	-0.0897377080287925
16	0xbfe0d4a5971c74c1	-0.5259578658475662

bn.1.weight f8 [17]
0	0x3ff3c107005c5669	1.234625817688903
1	0x3fe690a6da97faac	0.7051576871306984
2	0x3fed904107a44aea	0.9238591336491855
3	0x3fe855d5cf2e718d	0.7604779287826645
4	0x3feab509cd3ddc28	0.83459940038927
5	0x3ff351005d94b654	1.2072757392410454
6	0x3fd19687987b0bfc	0.27481260195435175
7	0x3ff78821a9caa8b1	1.4707352287755777
8	0x3ff483dd4c7be9d1	1.282193468824165
9	0x3fe84b91d190031a	0.7592248051661017
10	0x3fe4d3d1bb9ffc30	0.6508568443822522
11	0x3fec59b9f06c1ad5	0.8859529205081694
12	0x3fdef4eba4d52a7c	0.48369876000348433
13	0x3feb333a45e7ccf2	0.8500033727017622
14	0x3ff1fbd365750baa	1.123980900113319
15	0x3ff3d40cef0d6e5d	1.2392701471316265
16	0x3ff9280de4f60401	1.5722788757123

bn.1.bias f8 [17]
0	0x3f90b6490bfd1e41	0.01632036338494758
1	0xbfcfc21922bee861	-0.24811090656823168
2	0x3f8e90d6d30db063	0.014924696269837228
3	0xbfcd5c94c3a876b8	-0.2293878512727383
4	0xbfd7dd7a38f24bba	-0.3728929096334316
5	0xbfdb2891b547d53f	-0.42435114577468264
6	0xbfdcf72b694dee04	-0.4525860336650285
7	0x3f86f81e5c1bbdaf	0.01121543615906159
8	0x3f8d208a1313abf1	0.014222220141581561
9	0x3fb47ceedbe6d971	0.08003132694907379
10	0xbfdcdcf4a2e56c9c	-0.45098606021719845
11	0xbfced00a164dfbc2	-0.24072385872929486
12	0xbfea7a815c5963fe	-0.8274542621321641
13	0x3fe06e5a4d889302	0.5134707941366232
14	0xbfd55b198722b80a	-0.33368528553808174
15	0xbfdff2d5ffbb6926	-0.49919652913890145
16	0x3fbd77cfda4e7aa9	0.11510943488836269

bn.2.weight f8 [17]
0	0x3fd927d61ac1f1be	0.39305641758962995
1	0x3feb53d687336af9	0.8539841309205648
2	0x3fd566ccea654f9a	0.33439944162568624
3	0x3fe935fca17ce746	0.7878401903210281
4	0x3fd91c526e4e6100	0.39235363742911034
5	0x3fec0a736c5b2748	0.8762757412270981
6	0x3fdb36ef0188aa3b	0.4252278819064121
7	0x3fe6fe673ab1f879	0.7185550829306201
8	0x3fe59ba6952f9474	0.6752503312860783
9	0x3fe67ab85f277feb	0.7024804934007965
10	0x3fe8acc8ab35a66a	0.7710917800843167
11	0x3fea0a57ea3f41f9	0.813762624276989
12	0x3fe12ed8cf811551	0.5369686177079221
13	0x3fe13f96c785362d	0.5390123268968573
14	0x3fea340f7aca988b	0.8188550375241602
15	0x3fe993ecffbbb551	0.7993073458471064
16	0x3fe16ade6123ce00	0.544295491911214

bn.2.bias f8 [17]
0	0xbfc12eab7068c0db	-0.13423674572687258
1	0xbfbfe5bdf12cfc54	-0.12459933412627439
2	0xbfe56b07ebeaf66b	-0.6693153007287952
3	0xbfab98aee1baf18f	-0.05389925485130497
4	0xbfe3f3aecb7131a1	-0.6234964345435864
5	0xbfb94b622164ad05	-0.09880650820985089
6	0xbfe1c74c8d67c92b	-0.5555784951996307
7	0xbfc54c27a9f7d0a6	-0.16638656424732295
8	0xbfd0f3bc186ca7f6	-0.26487638840865146
9	0xbfd4d5905b74d5b8	-0.3255349057320376
10	0xbfce5318b9ea4bc3	-0.2369109065808442
11	0x3fb80ef5fa2adc9c	0.09397828443148842
12	0xbfdb873fe135c0b6	-0.43012997620736415
13	0xbfda7bcd2339965d	-0.4138062328332575
14	0xbfc3eface764093f	-0.15575181291939974
15	0xbfc860994036816d	-0.1904479564227687
16	0xbfdc64d91c9cfdf3	-0.44365527910483066

fc.weight f8 [1, 17]
0	0xbf8bca5698ac664a	-0.013569523367141251
1	0x3faa75bf94e35ccb	0.05167959873659241
2	0xbf8de80afbfb725c	-0.014602742972266096
3	0x3faac26f07e34a64	0.05226466151511458
4	0xbf982ee731dc0e82	-0.023616421144665008
5	0x3fad919865a567c2	0.05775142899319931
6	0xbf82a771db1ff7d8	-0.009108438014660367
7	0x3f8be9a7ff93efe7	0.013629257666700268
8	0x3f606342866e2085	0.0020004557913502773
9	0xbf9ac76d1759dc0a	-0.026151375341637396
10	0x3f9cfdbec19951e7	0.02831171089776943
11	0x3fa317ea2a1e80c3	0.037291829720972135
12	0x3f435622f01ba59a	0.0005901022525140354
13	0xbfa93df96329a2d4	-0.04930095038873153
14	0xbfa3d7b530686487	-0.03875509467997867
15	0x3fa3b1bb8131486a	0.03846536590630552
16	0x3f8fd1995da8b578	0.015536497278925351

fc.bias f8 [1]
0	0x3faeffb484573a7a	0.06054462542998791
