Learning Models/GNN/results/accuracy/gcn/predictor_SLApp.pt (torch, 10238 bytes, 13 tensors)

gc.0.weight f8 [17, 17]
0	0x3fa6eb5d3e15859f	0.04476443655836281
1	0xbfd64f3a7f5c847b	-0.3485857242358816
2	0x3fd3e034eb47c22e	0.31055949188797427
3	0xbfbd0b1e7566f4ff	-0.11345091215385493
4	0x3fc4643984d7d61e	0.15930861460189844
5	0xbfda7cc3c05dc369	-0.4138650301529681
6	0x3fcd9ed75878bacf	0.23140994853880278
7	0x3fc81d2de514c217	0.18839048085784846
8	0x3fd1650fc9033179	0.271793314267391
9	0x3fd330c79263fa31	0.29985226913405244
10	0x3fbf5bc3c871315a	0.12249396937949567
11	0xbfcb3ae9254becb1	-0.21273531266328896
12	0xbfaf998426f61282	-0.06171811080551938
13	0x3fb7ce53770940ae	0.09299203544765319
14	0x3fc686c40243b8be	0.1759877215440095
15	0xbf74295aaa0d8fbd	-0.004922250897695987
16	0xbf8c30ba68bc4edd	-0.013764816590572543
17	0x3fb0c48b3e2c288f	0.06549902217753555
18	0x3fc65b270cb8d899	0.174656754695836
19	0x3f7f2b71c419d8e7	0.007609791182053827
20	0x3fb5872354bb5d91	0.08409329241418663
21	0x3fbd191269bdacd7	0.11366381722989459
22	0x3fbb67951ff0dc2f	0.10704929380231996
23	0xbf806fcf2c2ff64e	-0.008025759254446953
24	0x3fb0b0a0249488fe	0.06519509213515914
25	0x3f90354d577b20ea	0.015828331436552746
26	0x3f90dbed993de9bf	0.01646395919622434
27	0x3fba1d3930d81e8e	0.102008413719995
28	0x3faecd2d18b626d8	0.06015911986021444
29	0x3fa41629a2dfcf86	0.039231587535964826
30	0x3f908fbfd9ef5ce6	0.016173360516259637
31	0x3fac28ffab26ab1d	0.05500029529806325
32	0xbfa4aa694a3d7a67	-0.04036263495685404
33	0x3fb06ffc096a6458	0.06420874814865962
34	0xbfae62cc28dde0f3	-0.05934751509534122
35	0x3f9fbe5c485eedae	0.030999605099834397
36	0x3fb5f0aba6cc34d9	0.08570359060486811
37	0x3fd2bf78bb09fc91	0.29293649926689463
38	0xbf976bd1a9fff06d	-0.022872234345399912
39	0xbfb03a09f4b67fe3	-0.06338560318408741
40	0x3fbd80cdba7401a3	0.11524663736418587
41	0x3fa89198be925aa6	0.047985814345499464
42	0x3f94d218007d8ec3	0.02033269408219841
43	0xbfa714a569cc0146	-0.04507939259019848
44	0xbfb0e37d75a4a438	-0.06597122308871028
45	0x3f77a9214ce772d4	0.00577652938815439
46	0x3fc854a4ee860de7	0.19008313795721607
47	0xbfa4e78c11d466e2	-0.04082906453750269
48	0xbfb8fecf1ea6fa43	-0.09763807772012804
49	0x3fc25c10f0ff62d7	0.14343463675938636
50	0x3fd7de23133233ea	0.37293316721553416
51	0x3fc87d6cf5317ab5	0.19132768604591424
52	0x3fc2a43981978186	0.14563673808789818
53	0x3fa14b3aeafbbd24	0.03377708548020511
54	0x3f8db1185fabd2eb	0.014497938556340148
55	0xbf8c0b529f4b769f	-0.013693471418658119
56	0x3fc04674318ef1ab	0.12715008182375462
57	0xbf5355c9a2a7b8ff	-0.0011801213355471794
58	0x3fa1eea9734c6cbe	0.035023970913436994
59	0xbfa1c2f73ffff6e5	-0.03469059616325668
60	0x3fbba6661555deb6	0.10800779362568388
61	0x3fc25f647950fccd	0.14353614734316125
62	0x3fa7ca59170296dc	0.04646566778073488
63	0x3f81dd00a261697d	0.008722310023746566
64	0x3fb23f4910399da4	0.07127815862769765
65	0x3fc4d906fefc0e2a	0.16287314844531525
66	0x3fb921fec25e495f	0.09817497487373349
67	0xbfb3fe25811d05be	-0.07809671785528047
68	0xbfa997dc0f903db6	-0.04998672189696711
69	0x3fc0422acb22ffc3	0.1270192615393154
70	0xbfc5a6b70ffc0126	-0.1691502407120506
71	0xbfb1c5faed471e9e	-0.06942718785205179
72	0x3fdd49a4ff77ff48	0.4576199049770264
73	0xbf7aed3f955d31bc	-0.006573913929809935
74	0xbfc4353c1aeee550	-0.15787459673974036
75	0x3fd1f1be4ad56664	0.28037984188049436
76	0x3faaedc6e4a49bfc	0.05259534398128804
77	0xbfcd33119d292783	-0.22812099622597878
78	0x3fd04255809537fb	0.25404870564386756
79	0x3fc101fbac3a8e62	0.13287301931005674
80	0x3fc89fcbf0c180c6	0.1923766065183427
81	0xbfa339358d339f80	-0.03754584644940362
82	0x3fc83604f6b37c37	0.18914854093506658
83	0xbfb9f1f9e0df0823	-0.10134851207752198
84	0x3fc28a546d79bdfa	0.14484649034010016
85	0x3fd1d28b361c4e13	0.27847557338938705
86	0xbfc72ce0f93173a2	-0.18105709235797202
87	0xbfb86e24ea642bc8	-0.09543066713756254
88	0xbfbaa08414ca86fe	-0.10401177890392074
89	0x3fd485d46defa434	0.32066832290599057
90	0xbfc348335e3cfda0	-0.15064088918186957
91	0x3fa1de9578216532	0.03490130511699831
92	0x3fc554ded580ce29	0.16665254044492997
93	0xbfaa4f7fa7ea743b	-0.05138777661088808
94	0x3fb3918a310c19d6	0.07643951127474877
95	0x3fbe2ce589a2f6f2	0.11787256822841721
96	0xbfbdcc7a7bd3b839	-0.11640134356613964
97	0x3fd4efdbedc3fe12	0.32713983744903985
98	0x3fb2da033b6b69e8	0.07363910866425949
99	0xbfc820db0576cf71	-0.18850267187883277
100	0xbfae314bb89f39bc	-0.05896984699903693
101	0x3fb81cc493b91f64	0.09418896299859864
102	0xbfcb4829a1a4a452	-0.21313972847682067
103	0xbfc4c6930588cf8c	-0.16231000681147767
104	0x3fd6757babd10750	0.35092059878308124
105	0x3f5d32bcbb083c24	0.001782116229268168
106	0xbfb737a44aa84ba5	-0.09069277594271215
107	0x3fa94f444ae92218	0.049432882446641624
108	0x3fc9a617e336cac7	0.20038126558718813
109	0x3fc2035fef14c5f6	0.14072798894771638
110	0x3fbbf0386efc8279	0.10913422307613442
111	0x3f946f3ced8f5491	0.019955589293961188
112	0xbfd7ea63c947abaa	-0.37368101745840454
113	0x3fd48dc7d024f068	0.32115359617797035
114	0x3fa1c1c037c2408d	0.03468132668160804
115	0x3fd5061b8d358629	0.32849777975033817
116	0x3fbe4a1d9a7ed334	0.11831841489658929
117	0x3f9f6131450bf954	0.030644197310715285
118	0xbf9864410e20eea6	-0.023819939124435273
119	0x3f90996382688f59	0.016210131487368915
120	0xbfd058e4d8a59f51	-0.2554256549542418
121	0x3fc112c839cad088	0.1333856851757711
122	0xbfc4902c6d4da46f	-0.1606498273570511
123	0x3fca49f141617c2f	0.20538154308721476
124	0x3fd216b47cde064c	0.2826358050734583
125	0xbf97287dd8115d21	-0.022615400612577056
126	0x3fcfb776ef5cde9e	0.24778639495501847
127	0xbfde1ff2fb6a3294	-0.4707000212882033
128	0x3fcd0260509df0e6	0.22663501678824288
129	0x3fc9d703add7ff65	0.20187421787704377
130	0xbfa268c665d1d8f1	-0.03595561974445783
131	0x3fd1ec2e841dd57a	0.2800403871727536
132	0x3fc1a542db1abc56	0.1378558702321892
133	0x3fc6e1ca93c9a265	0.17876560417359424
134	0x3fc482521695879e	0.16022707083453452
135	0x3fbdb35aac482da5	0.11601797777273377
136	0x3fc9370e56302fa9	0.19699267586144956
137	0xbfc9999a425061e1	-0.2000000785635754
138	0x3fa904fb8b495df3	0.04886613917613749
139	0x3fb2e8bd720e376d	0.07386383089598576
140	0x3fc1c03f1783464c	0.1386793961342384
141	0x3fcb18433b433ed3	0.21167793649373454
142	0x3fa60320d4417b05	0.04299261656773549
143	0xbfb9e92625f39db4	-0.10121382166436527
144	0xbfc313c77c976f62	-0.14904111465045405
145	0x3fc2de859c3f4c41	0.14741582993755922
146	0x3fd633406d6925f3	0.3468781536545002
147	0x3fbb56ba67ae5db0	0.10679211646344444
148	0x3fe02c49d54fcce8	0.50540630018659
149	0x3fc9d89423adb6ce	0.20192195646398264
150	0xbfcae33ad1c9d71a	-0.21005950206352325
151	0x3f8255d0f9f5fef1	0.008952744129373498
152	0xbfcaaaeeb28730be	-0.20834144322578213
153	0xbff058c410a6614e	-1.0216713571918095
154	0xbfd6845a15a86742	-0.35182811846754103
155	0xbfb10c2b1bdfcdb4	-0.06659192495845084
156	0xbf9fe1c5906973cb	-0.031134688319401065
157	0x3fe4d0aab167295d	0.6504720177556852
158	0xbfaa5271ae163ced	-0.051410248280370975
159	0x3fbcc8a45cba8e80	0.11243655456433466
160	0x3fbb94c15c13dbf7	0.10773857591617274
161	0xbfe2df3075385ba9	-0.589744786210635
162	0x3faa2c48b5808441	0.051119110256202756
163	0x3fd6e52d17f4c197	0.3577378019281467
164	0xbfe55458db275c4c	-0.6665462761255951
165	0x3fdb1bad09534697	0.4235642043177931
166	0x3fb567ec2fe31cf6	0.08361698311920293
167	0x3fa77c14f88a0ac9	0.04586854490209686
168	0xbfcc8ac46e7e4c6a	-0.22298484225447918
169	0xbfb2d1958b47b4d4	-0.07351050043481006
170	0xbfe515611649afea	-0.6588597712811837
171	0xbfd5d812954fa2dc	-0.34131302434120214
172	0xbfe1f68b6fcfff86	-0.5613457855069874
173	0x3fca1484025551e8	0.20375108827523936
174	0x3fdd5cd44206a866	0.4587908406052804
175	0xbf949d8f22496e61	-0.02013229033251063
176	0xbfc5ef006e4fc1c3	-0.17135625253969353
177	0x3fbcb5ce3e77ddaa	0.11214913392165352
178	0xbfd8a2a50f6cf711	-0.3849270487443031
179	0xbfddbf759676841d	-0.46481074994705
180	0x3fd74cfd1909167a	0.3640740150916383
181	0x3f955eeab22ef9d9	0.02086989128633285
182	0x3fdbee9c6f3d7652	0.43643866408624377
183	0xbfadfe8e483b131e	-0.05858273154948378
184	0xbfb95660c55e177d	-0.09897427385848619
185	0x3fb8c7b46e23c271	0.09679725350339098
186	0x3fc81f6cde65d4d0	0.18845902308718232
187	0x3fb8f7bc9d433a69	0.09753016318720999
188	0x3f8a0a423bd2e6f9	0.012714879465750327
189	0xbfc557fbabdf5b65	-0.1667475308629164
190	0xbfbb0e2f507ee547	-0.10568519320704182
191	0xbfc7eba7d9b8ce90	-0.1868791401953911
192	0x3fc2e65eb00260b2	0.14765533060267938
193	0x3fa637a224b0fe72	0.04339319894688466
194	0xbfa4cf0af0be83c1	-0.040642110717505904
195	0x3fd8968b8d03eaa1	0.38418854495072635
196	0xbfafccb524d88008	-0.062108669994131616
197	0xbfde58b33451ac57	-0.47416381940155844
198	0x3fcbb946eaabd748	0.21659170588071164
199	0x3fc42b6ac2faa60e	0.15757498283828436
200	0x3fb906e3f907e83b	0.0977613909707608
201	0x3fc4392f38ef6c1a	0.15799513130227255
202	0x3fc5860c3edbed9a	0.16815331525127136
203	0x3fb430bfb4cb2757	0.07886884845643514
204	0xbfa4234fb87c81c1	-0.039331904669100755
205	0xbfdb1815638df017	-0.4233449432574629
206	0xbfbc43011f6410e5	-0.11039740578059172
207	0x3fd2696062b49f23	0.2876816715165537
208	0x3f6c709a280e6eb3	0.00347166165052023
209	0xbfb1b0a56d7522ac	-0.06910165712646216
210	0x3fcf2c563f66e020	0.2435405549601919
211	0xbf829566f1e6336f	-0.009074024445703903
212	0x3f90475a1854208d	0.015897186026478983
213	0x3fcce39420c4a30c	0.22569514846807015
214	0xbfe081615d1c055d	-0.5157934969467238
215	0x3fe0addf0241cfab	0.5212245029529091
216	0xbfbfb3e078ab7b47	-0.12383845277825599
217	0x3f91035eb6fe81d8	0.01661441795261162
218	0xbfbd16362fdb9c59	-0.11362017315296792
219	0x3fbdab89d0fd770a	0.11589871742532068
220	0x3fc7bddf90de6dbd	0.18548197339701558
221	0xbff4b3b3bf4391eb	-1.2938725920913565
222	0x3ff87a9013aa4ae1	1.5299225586101601
223	0xbfc09e9ed5afbff6	-0.12984071191704033
224	0xbfdca8888c6accb4	-0.447786461950453
225	0xbfe9a08467f1be07	-0.8008443861162399
226	0x3fe062c96b2943fc	0.5120589344970763
227	0xbfd64ee475121fe4	-0.3485652106542132
228	0x3ff1984fa12556f0	1.0996853155860968
229	0x3fd5b1935bbd1c4b	0.3389633556257123
230	0xc0009792475da20a	-2.074009473366691
231	0xbfdb183717cd2b48	-0.4233529789386705
232	0x3ff2cc710a450124	1.1749124909548039
233	0x3fc190211d196815	0.1372109787069468
234	0xbfe023dc60b76ed6	-0.5043775452608894
235	0xbfe5be8df4aea430	-0.6795110491704062
236	0x3fb9d4aeb0dbeca6	0.10090152566765428
237	0x3fe040ed6bb8940f	0.5079257110525094
238	0xbfabdde752deb72c	-0.05442736517521349
239	0x3f911dc27b16c570	0.016715086710694604
240	0xbfaf94699d7aeda7	-0.06167917296758257
241	0xbf97f974782cf517	-0.023412532648980546
242	0x3fcef4f99c3d056b	0.24185104492975582
243	0x3f97075e34991410	0.022489044151615956
244	0xbfa63899f855ee2d	-0.04340058475915174
245	0xbfa5f68b1607fe8a	-0.042896601142271854
246	0xbfaa465c7c9abff7	-0.051318063936719165
247	0xbfaf65f8d7058617	-0.06132485985541452
248	0x3fcbf6fb703e4444	0.21847479801775382
249	0xbf7645383fa89a15	-0.005437106820443312
250	0xbf95e00bf97a6aa2	-0.021362483121814997
251	0x3fd823b9ece72d22	0.3771805585390259
252	0xbf94001aa24cb71a	-0.019531646877275134
253	0x3fd389e4aeddac92	0.3052913386988588
254	0xbf8ec75563b43ff9	-0.015028636079051682
255	0xbfe1f725363756fd	-0.5614191111478416

gc.0.bias f8 [17]
0	0x3ffbb4e4572786dd	1.7316630749195874
1	0x3fd9e0a781f6d118	0.4043368119412363
2	0x3ff382075c73ed08	1.2192453013838662
3	0xbfd72516d4ee4238	-0.36163874429715603
4	0xbfd1f4ce8eee4457	-0.28056682546691064
5	0x3fd67b07b72e2332	0.35125916374868205
6	0xbfe0854131e013e3	-0.5162664388777752
7	0xbff2c8a0db655a62	-1.1739815302040815
8	0x3ffad6fc5abec894	1.6774867577301267
9	0x3ff6da1e0a4866c1	1.428251304785974
10	0xbfb2fe00e7097027	-0.07418828621433758
11	0x3ffade08dab83998	1.6792076629386425
12	0xbff5149d9b67c8bd	-1.31753311829793
13	0x3fd36657253b9b18	0.30312136302966186
14	0x3ff06804ccc3dca1	1.0253952025066513
15	0x3fa7119072c54a72	0.045055879602519236
16	0xbffac3dd66e446c1	-1.6728185672003948

gc.1.bias f8 [17]
0	0x3fc60e127844f597	0.1723044478657527
1	0xbfd9ec789cad1d08	-0.4050580530205967
2	0x3fc584803154ff90	0.16810610207357657
3	0xbfd0a201401a4493	-0.2598879934312858
4	0x3fbb54ac180240c8	0.10676074587013595
5	0x3fc2e864b0987f49	0.14771708128773245
6	0x3fb86d03c28ae0e8	0.09541343211720099
7	0xbfc7c5a4ce259932	-0.18571910920872764
8	0x3fcb7aa7adaed96c	0.21468063336005672
9	0x3fcc89ffa80d4782	0.22296138482721167
10	0x3fb836e712697dc6	0.09458774756921348
11	0x3fc1384993b3f266	0.1345302554326679
12	0x3fc154bb7e6edb79	0.13539832757461648
13	0x3fc46ada27e99833	0.15951086949206825
14	0x3fa0d298d25cd9dc	0.032856727294006766
15	0x3fb4d3ec987fe2e9	0.0813587066949243
16	0x3fbaa400eba8c70d	0.10406499627495354

gc.2.weight f8 [17, 17]
0	0xbfc2544f82148565	-0.14319795466966947
1	0x3fa2642127714278	0.03592017752146587
2	0xbfc1941b2cb58431	-0.13733234103259087
3	0xbfbcafdffaaa8aa1	-0.11205863828448993
4	0x3fb1b6b7879c086b	0.06919428883341687
5	0x3fb03cc925e3087b	0.0634275166985691
6	0xbfc3a59d95bdbada	-0.15349168597773294
7	0x3fb2acc540392074	0.07294876878688844
8	0xbfc975cf5de383da	-0.1989077766839092
9	0xbfc1adcabdd56487	-0.1381162096902566
10	0xbfcba74e21a446b0	-0.21604324953709897
11	0x3fd61729e11a180f	0.3451637933980018
12	0x3fbed890239ac222	0.12049198979617207
13	0xbfc1a0d76b656c94	-0.13772099250750058
14	0xbf9a62a5f83ce193	-0.025766938472970912
15	0x3fd27de2b5f5cd03	0.28893344659373116
16	0x3fb58a30350c57c9	0.08413983626482414
17	0xbfa1a61cb7fefb6e	-0.034470460377170706
18	0x3fbe46f388008176	0.1182701308284829
19	0x3fc5dc7c9bafa5b8	0.17079122163640448
20	0xbfb57451836cf4c1	-0.0838061281073861
21	0x3fbc937eb8c41f28	0.11162559519663928
22	0x3fb164afa6d97ad1	0.06794259856676922
23	0xbfc350de1d2d93c5	-0.1509053842993621
24	0x3fc11e7c329d78f8	0.13374283286515953
25	0xbfd03dd115bb6a39	-0.25377299425386785
26	0xbfc1af3fdc8edf94	-0.13816068906248502
27	0xbfcf7cf8661008a5	-0.24600129111792515
28	0x3fd2eb7174e33358	0.29562031187815796
29	0x3fc79865477a37f2	0.18433824529751025
30	0xbfbf90503bc9bb9f	-0.123295797917065
31	0x3fcd8033d489704c	0.23047492864395946
32	0x3fd66d47b910134d	0.35041993210352446
33	0x3fb9a14db706cc02	0.10011754721089974
34	0x3fabecb525e3da8b	0.05454031074070994
35	0x3fbe497e7cfe80c7	0.11830893088927318
36	0xbfe8bcf55c09b772	-0.7730662152878109
37	0x3fb26e2fb81cad06	0.07199381108209843
38	0xbfd123533117ef89	-0.2677810649326991
39	0x3fb6e9af738ec653	0.08950325556977505
40	0x3f83f00e60d94894	0.009735214548673356
41	0x3fa205308b8b0ea3	0.035195843729096475
42	0x3fbb64e0da79fa7b	0.10700803121469875
43	0x3f63b43ef4a4ede2	0.0024052838899970433
44	0x3f58569421490744	0.0014854857046348738
45	0x3fcc0b1f9f097eb4	0.21908946290476694
46	0x3f954dc98e2a3ada	0.020804547597942903
47	0x3fb1f53d3a453db7	0.07014830277079552
48	0xbfb772216aa42943	-0.09158524373575454
49	0x3faf176622292848	0.06072539488793943
50	0xbfcf04d4fa502c78	-0.24233495924304171
51	0xbfcc7366782c254e	-0.22227173679156426
52	0x3fa76837ab2aa0ad	0.04571699108538616
53	0xbfc93fdb4cf0fd27	-0.19726125008490067
54	0xbfca4b23c40d525e	-0.2054180819783537
55	0x3fc2e8af1e8368b3	0.14772595395954155
56	0xbfe4301f7cd24718	-0.6308743894498745
57	0xbfd36c181b51be5e	-0.3034725443639895
58	0x3fc56756ec9880b1	0.16721617271924097
59	0xbfe1c69f232aca09	-0.5554958044870669
60	0xbfcdeb001f0483b7	-0.23373414530308675
61	0xbfd5430334b0d48a	-0.3322151197965658
62	0x3fc18ecfecb14295	0.13717078263518503
63	0x3fd2074fd9666de3	0.28169628363113314
64	0xbfd251ac1ebe6778	-0.28623488428421906
65	0x3fa7cf91e0e52ccb	0.04650550718596377
66	0x3fe4b4bf0bae17a0	0.6470637539030015
67	0x3fbef5ed9a211291	0.12094006550712268
68	0xbfd3f9e3bc16e1f7	-0.31212705009559677
69	0xbfe76abafbf5c0f6	-0.7317786141484521
70	0xbfe10cca3b373b4e	-0.532811275153884
71	0x3fd5e7027e6e56ef	0.3422247156789657
72	0x3f9dcab037e0f86c	0.029093507204600064
73	0xbfe6e24278ebdb89	-0.7151195871109489
74	0x3fcb66271e14eee9	0.21405495613895845
75	0xbf9216148318b463	-0.01766235399388839
76	0x3fb23d3f05de7f9f	0.07124704259194779
77	0x3fc8c5fce57cd3a3	0.19354211049508505
78	0x3fc1a302a4e7cbfa	0.1377871804430411
79	0x3fd1645d0cc013d0	0.2717507004275008
80	0xbfc104deb7dc2ce4	-0.1329611203912925
81	0x3fd8487a410091ba	0.37942367885468864
82	0x3fc289fe5067f9a6	0.14483622480470365
83	0x3fae2353b19ced04	0.0588632730782255
84	0xbfa7b977dd0f6d00	-0.04633688519944634
85	0x3f8f12c357a79fdd	0.01517250643969697
86	0x3fc0b650df1721b4	0.13056383984645736
87	0x3fdc92a2a10dafef	0.44644990661504286
88	0x3fa56129e421e7a1	0.04175692472286064
89	0x3fc544e432d16de0	0.16616489869453144
90	0x3fce7a2ee7aba875	0.23810373603857085
91	0xbfac69c6763e9753	-0.05549450105108513
92	0x3fbe8e73f58c7fd5	0.11936115975231527
93	0xbfd8f1d40bdb05b3	-0.3897600284363662
94	0xbf999a2310a1f286	-0.025002048387693175
95	0xbfdbeaede5a688c3	-0.43621394564446464
96	0x3fdee91424a37c87	0.4829759939002049
97	0x3fc3a8e4c827a674	0.15359172604739835
98	0x3f8600c5cd87c2e6	0.010743661246097113
99	0xbfb480ef92a9360e	-0.08009240465727194
100	0x3fd647aff59dafd3	0.34812544809278484
101	0x3fb995b3933d3396	0.09994051308349436
102	0x3fb5df938db5cd90	0.08544275483818908
103	0xbfc3c9d385b0c3fb	-0.1545967486177061
104	0xbff1448a1addc064	-1.0792332696401212
105	0x3fba3b26c14268f2	0.10246507852790268
106	0xbfbe8a6e0aedcc62	-0.11929977194613309
107	0x3fcd74c2a93a33c7	0.2301257444672997
108	0x3f80d908ce1bc512	0.008226460256511223
109	0xbfc296c948e070da	-0.14522663172181788
110	0xbfbda6814d7dab31	-0.11582191602580562
111	0x3f7e109a92893fdc	0.0073400533661498145
112	0x3f6aa821599cf90a	0.003253998886889713
113	0x3fdf3ad957daa706	0.48796685771468196
114	0xbfc2b3454168665c	-0.14609590238323988
115	0x3fbab774634b482d	0.10436179565593369
116	0x3fa79f2c33c3eb6a	0.046136266058929135
117	0x3f9e6738f03328ee	0.02969063726485726
118	0xbfa95058ce8ca5ed	-0.049441123212385786
119	0xbfd291aff53d67c6	-0.29014204930501497
120	0x3fbf8913919accfb	0.12318537049104698
121	0xbfd34fdbe2858d29	-0.3017492019773323
122	0xbfa3ba898db10d68	-0.03853254179605409
123	0x3fcb08e33842a65d	0.2112087273319955
124	0xbfdbf715b8828fa6	-0.4369558622222435
125	0xbfb0f6cd6d81b760	-0.06626590655807041
126	0x3fd1243cd392af8d	0.26783676778244897
127	0xbfcadd518ec24bf3	-0.209879107195405
128	0xbfb3d9841f627c25	-0.07753778234699434
129	0xbfa61cfb104077f1	-0.04318985532175635
130	0xbfe1d5123b340800	-0.5572596699059886
131	0x3fd81fd03ccdb101	0.37694173753585863
132	0xbfa348cf1a90ef93	-0.03766486357969181
133	0xbfe91f84e5f679ca	-0.785097550531469
134	0x3fe334550dedd595	0.6001382133533065
135	0x3fc6009cefcbd881	0.1718937083130108
136	0x3fb2b59e2d7915a7	0.07308376894169176
137	0x3fca4a4ab68d1545	0.20539220727565968
138	0x3fa5020cbb11b9b9	0.04103126319465695
139	0x3fb07de058b62c9a	0.06442072072802532
140	0xbfa635ce5ebd52db	-0.0433792582177028
141	0x3fb7f1277a5978a9	0.09352347123192097
142	0x3fb32564cec769a5	0.0747893338042674
143	0x3fc16fffb28ea8e5	0.13623043268791615
144	0x3f8745bce00f34a7	0.011363483035802991
145	0x3fb26effeaeec7d6	0.07200622068083304
146	0x3fc04315ed054611	0.12704729150077346
147	0x3fba974294ab883e	0.10387054566993556
148	0x3fc7237772fed12f	0.18076985468872794
149	0x3fa57581a9601f81	0.04191212837764536
150	0xbf77e713f653f81a	-0.005835607507149754
151	0x3fcf838b93dbd263	0.24620194167768536
152	0x3fbd36ab8c3f6e48	0.11411544965761167
153	0x3fa843a86dd44829	0.04739118900955958
154	0x3fb0ca9e54c88b9d	0.06559171266466853
155	0xbfe58ab50d13bf4c	-0.6731820350087019
156	0x3fb24e9053caec2c	0.07151128812522306
157	0xbfc21a913650a438	-0.14143576767063037
158	0x3fe1aaff23407f86	0.5521236122622077
159	0x3f838a9c7ba8db77	0.009541723750869242
160	0xbfc8703c777de141	-0.19092517695004044
161	0x3f96e0b41b807404	0.02234155099732861
162	0x3f7ff54ce33cfe7e	0.007802296011334085
163	0x3f88171df0df7228	0.011762842095714168
164	0x3fd6d1d482ae2914	0.3565570141005463
165	0xbfc51f6f09b06315	-0.16502178166481288
166	0x3fab2cfa077ed67b	0.05307751981255834
167	0x3fbf759d531a0794	0.12288840559815944
168	0xbfbe51617278b4de	-0.11842927021708102
169	0xbfd288723a5bf569	-0.28957801531927047
170	0xbfb263bd62afb435	-0.07183440837225492
171	0xbfe0a0b7e7c8f0a5	-0.5196189429330117
172	0xbfe11a8abafecfe6	-0.5344899799588319
173	0x3fd2f9265216d8af	0.29645689026382177
174	0x3fa8cc01bade03dd	0.04843144804090802
175	0xbfe261991f064e7f	-0.5744138341855914
176	0x3fc1f6826392075f	0.14033536779248387
177	0xbfc950e64caed017	-0.19778136009483724
178	0x3fb0448608527dcc	0.06354558661632054
179	0x3fc2b02ab6613819	0.146001185467356
180	0x3fb97a7e0c7ed65e	0.09952533536019234
181	0x3f8f1015a5fd0353	0.015167397621213807
182	0x3fbd693c610b5026	0.11488702172511064
183	0x3fd27b7189393fe5	0.288784393317654
184	0xbfa7e779582f0b96	-0.04668788148366969
185	0x3fbddf6d378dc096	0.11669046980182637
186	0x3fa35caf428be699	0.03781650245032359
187	0x3f9037d64ea94f25	0.015838001776798855
188	0x3fbdb6c86453c101	0.11607029389756819
189	0x3f88bcb17603a2a2	0.012078653730399683
190	0x3f7fafd6c58a6fa9	0.00773605246709145
191	0x3fc2c21f9d24cef5	0.14654917882000232
192	0x3fb9e3233a3c5d76	0.10112209483883369
193	0xbfb26244bb06a92d	-0.07181195798935809
194	0x3fc342e2c8c214b9	0.15047869494097713
195	0xbfc5158a70bea30c	-0.1647198725234137
196	0xbfaa9c64b58da8d8	-0.05197443691470632
197	0xbfc381ec97f2fb93	-0.15240247172729635
198	0x3fd60f0a99ff19f2	0.34466805494994823
199	0x3fc86718f10f4f80	0.19064628382204418
200	0xbf9eefd4a738de4e	-0.030211756426267215
201	0x3fa157029e559afe	0.03386696036141322
202	0x3fd6514b7073bdbb	0.34871183377887477
203	0x3fc2a8d829985ecc	0.1457777217008157
204	0xbfd2f2fd367d6adc	-0.29608087846069764
205	0x3fa7114e0cf73ab9	0.04505390079758826
206	0xbfb3aa29657946bf	-0.076815211557256
207	0xbfaf5bde680e745c	-0.06124777813168045
208	0x3fc09bc87917c747	0.12975412285555363
209	0xbfc7f4615df10466	-0.18714539610849384
210	0xbfb16be214a9dedf	-0.06805241589051601
211	0x3fb470e6e10a9a2a	0.07984774583983581
212	0x3f657cc7ab61129f	0.0026229762834496097
213	0xbfaffeb758625c0f	-0.06249020532521154
214	0xbfaebb91492ae39e	-0.06002477663191218
215	0xbfe2cb0d41b0ebcd	-0.5872865946797617
216	0x3fc51923e4b100e7	0.16482971827100032
217	0xbfa49229121fa713	-0.04017761560665014
218	0xbfe0f7a60af14cf1	-0.5302305425379058
219	0x3fd2a85258e4627f	0.2915235393607318
220	0x3fa003bc7531882f	0.03127850466331982
221	0xbfc0f7ae049adc3f	-0.1325585863575913
222	0xbfe8ba4f6e571a74	-0.7727429537852246
223	0xbfe42358b9c5d8fc	-0.6293147686363052
224	0x3fd142af2061d64a	0.26969507372209434
225	0xbf6aee1c6f3648a0	-0.0032873683318906527
226	0xbfe7fb30ec5a7a59	-0.7494129768636625
227	0x3fc1349a828727c7	0.13441783307490437
228	0xbf9bbe9a8dad19f6	-0.027094283005931495
229	0x3fa0339ab5d603e9	0.031643709847237585
230	0x3fc0ea8e4b4779de	0.13215807605497693
231	0x3fb1dbb43db10607	0.06975866800441831
232	0x3fa0d558eaa7104a	0.03287771095668342
233	0x3fb2d8fd7d7cc2be	0.07362350762992784
234	0x3fd415fb9790f0cb	0.3138417225016041
235	0x3fba194ddae8c5c7	0.10194861025299594
236	0xbfc30826da11c3a3	-0.14868627212447647
237	0xbf88c636ccea8e65	-0.012096813324496478
238	0x3fd3d23246664cf2	0.3097043693062026
239	0x3f838f24d8ea6971	0.0095503691384706
240	0xbffc5a7622dcce86	-1.772085319692367
241	0x3fc2ea1c946440e4	0.14776952024158796
242	0x3fa8a15711da5858	0.0481059273999313
243	0x3fb506b7cdefda3d	0.08213375833279542
244	0x3f722dce209c5fff	0.0044382144785899405
245	0xbf6fc34f67d85687	-0.0038773108378887286
246	0xbfe486dbce19f29e	-0.6414622331063418
247	0x3fad247485286299	0.056918755774124814
248	0x3faaa89657514e9f	0.05206746879471535
249	0x3fdbac3475466b66	0.43238555386203925
250	0x3fa82bdd1f043b62	0.04720965388889088
251	0x3fc21b0a40c945be	0.1414501968707053
252	0xbf91a91881ea4886	-0.01724661152781739
253	0x3fd86a9a6696474b	0.3815065385652942
254	0x3f7758197f51bc53	0.005699252699840579
255	0xbfcbb8f9f8834334	-0.21658253321086252

gc.2.bias f8 [17]
0	0x3f9e1eddaa6f4114	0.029414618995191225
1	0xbfba9940c9d8d69c	-0.1039009564200008
2	0xbfd3eff87316d1f7	-0.3115216373364826
3	0x3fb209ae104956f3	0.07046020410174574
4	0xbfcceeb0f6d59d9b	-0.2260342793699522
5	0xbfd7695c615e41de	-0.3658057165967231
6	0x3fa6351dc5870c48	0.0433739951727366
7	0x3fc198d6632c28fb	0.13747672884375803
8	0xbfad66c8907447f6	-0.0574248005233499
9	0x3f9b6d807179b271	0.026784903455722323
10	0x3f95820bd1bcf4f8	0.02100389926566934
11	0x3fc36be19d4f06aa	0.15172977620209355
12	0x3fc1605d62fcee54	0.13575332005881313
13	0x3fba33b85212dad4	0.10235168460608729
14	0x3fc108825b27bd48	0.13307218028010426
15	0x3fcde6dc615a589d	0.23360781434593472
16	0x3fb17f0d9b2a650b	0.0683449271986271

bn.0.weight f8 [17]
0	0x3ff072cceb4df8c5	1.0280274573884054
1	0x3ff1d71216fc3a36	1.1150074861394734
2	0x3fee98abde344da2	0.9561366405418321
3	0x3fe80e4c80b3ba49	0.7517454637252935
4	0x3feb3080b7afeb0a	0.8496707523002851
5	0x3ff442060dff6578	1.2661190554411785
6	0x3feec94aa051a838	0.9620717173795645
7	0x3fe3eff969cca485	0.6230437342066045
8	0x3ff2ba368728af04	1.1704621581693013
9	0x3ff13aedf8a43785	1.0768871033246523
10	0x3ff34bfef6a1177e	1.2060536989169743
11	0x3ff6b765182cd760	1.4197741455404511
12	0x3feb4924365c2ac3	0.8526784002036368
13	0x3fe9ed1ff0ee053f	0.8101958947810671
14	0x3fd31295bb172384	0.2980093314222858
15	0x3feb921ed37d0a9c	0.8615869646676688
16	0x3fe79c493a143aec	0.7378278860431613

bn.0.bias f8 [17]
0	0xbfdff8dafd853e25	-0.4995639301095898
1	0xbfd5ebffe082a3b9	-0.3425292675479415
2	0xbfdb445dd82eff37	-0.4260477648895064
3	0xbfa1576897929626	-0.0338699994111205
4	0xbfd3dad3f2883f43	-0.3102311962584176
5	0xbfd2b10ed6a80c7b	-0.2920567604307462
6	0xbfcf1a59baba9901	-0.24299165361043865
7	0xbfd77fecda1ed9f9	-0.3671829347689762
8	0xbfd7f926eaeddcd5	-0.3745820326070775
9	0xbfcce15bf0aa1180	-0.22562741519153562
10	0xbfc1c7218de50e01	-0.13888949802831976
11	0x3fa79611c6129869	0.046066813877858
12	0xbfce952b630d8c16	-0.23892729126518536
13	0xbfd62113261d358a	-0.345768725605773
14	0xbfe1592f87fe547e	-0.5421369224665253
15	0xbfd82f497184aa75	-0.3778861626221109
16	0xbfd74543a8d2ca23	-0.3636025570550904

bn.1.weight f8 [17]
0	0x3fe1bf23f12064a0	0.5545825681212087
1	0x3fe996158dc7d438	0.7995708245422355
2	0x3fc4bfd6a329b195	0.16210444418846906
3	0x3ff1f256650ec1bd	1.1216644237102706
4	0x3ff1236fc1c04d93	1.071151501503526
5	0x3fe744c7074e8284	0.7271456854542326
6	0x3ff9d45d799f8993	1.6143469572931266
7	0x3ff44b27c7573a5e	1.2683484827754437
8	0x3fd09dcaef8b6d65	0.2596309031775575
9	0x3fdc0b3a29408d52	0.4381852534154024
10	0x3fee902dbc3de094	0.9550999332996235
11	0x3fe754e053c476f5	0.7291108738024535
12	0x3ff29d17cb92ff79	1.1633527710073095
13	0x3ff064ef4683e590	1.024642253351292
14	0x3ff15c39d5271ad2	1.085016090991918
15	0x3ff290f8639b56bf	1.160393132294686
16	0x3ff4c2c90f19ff03	1.2975550260452458

bn.1.bias f8 [17]
0	0xbfe669334d8304d8	-0.700341845884533
1	0xbfe7f416a75ed66a	-0.7485459584192544
2	0x3f731e34ae343921	0.0046674783545895
3	0xbf453dedc251a064	-0.0006482516224766252
4	0xbfcff19a0381b826	-0.24956059619165777
5	0xbfe7ea0a46cf1064	-0.7473193533883316
6	0x3f9a49dbd7da1e9a	0.025672373818933815
7	0xbfcd3722300384b4	-0.2282450422708614
8	0xbfd97797c3feb17f	-0.3979243673336654
9	0xbfe419c0a90f7845	-0.6281436254464628
10	0xbfac60c236a19629	-0.05542570988545165
11	0xbfc7ff7bd7ce5277	-0.18748424565696428
12	0x3f5817219e06a0d1	0.001470358685859142
13	0xbfe1b965432c5fd3	-0.5538812934855691
14	0x3fb6ce4a3ea2f947	0.08908523587431204
15	0x3f7ede98fef67437	0.007536504402563308
16	0xbfa7b435b52c3f19	-0.046296766630005766

bn.2.weight f8 [17]
0	0x3fe96dfca8c2ed26	0.7946761413690282
1	0x3fe71feda12be770	0.7226474902993072
2	0x3fe1645a41bd504f	0.5435000690436115
3	0x3fe40ca749597f90	0.6265446121797016
4	0x3fe799189aef7b45	0.7374384904941073
5	0x3fe3700ab509a287	0.607426980580457
6	0x3fe94568e646a964	0.7897228715494689
7	0x3fe2ce8ecec74ed5	0.5877145804065217
8	0x3febafb6caa42614	0.8651994664989524
9	0x3fe9af7272c1c37c	0.802666877874898
10	0x3feb65e1cdd20ef7	0.8561867732937277
11	0x3fcade6b9f7aa851	0.20991273200098928
12	0x3fda97429090b644	0.41548217885688055
13	0x3fe83479fa0bd68d	0.7564058192935633
14	0x3fe254e2db51878c	0.5728620799602466
15	0x3fd43e72dbe68a0f	0.3163115642038585
16	0x3fe3df47fe7ab5ed	0.6210060091304378

bn.2.bias f8 [17]
0	0xbfc2416cc8b89e69	-0.14262161064947357
1	0xbfcb64f57a7ab0c1	-0.2140185211222896
2	0xbfd0a5326da36ac4	-0.2600828238188735
3	0xbfc40cd1ec85d9a2	-0.15664123581855188
4	0xbfce6c2f9a9fc415	-0.2376765732765597
5	0x3fa335ba24091886	0.037519280337208236
6	0x3f3e16328e8ca7cc	0.0004590867452401975
7	0xbfd57c2ec151369f	-0.33570450667034807
8	0xbfbc803a123a1e27	-0.11133158631320637
9	0x3f6af0c11a411319	0.003288628724506981
10	0xbfaa56ebded34ea8	-0.05144440741574147
11	0xbfe7198fcc2d647f	-0.7218703258360079
12	0xbfd61653fa476fa4	-0.3451127952700921
13	0xbfc87ed0d8e6356d	-0.1913701113775618
14	0xbfd349222ca705c9	-0.3013387142237574
15	0xbfe3e678bb45106c	-0.6218837411511351
16	0xbfd2c3fe21a171ce	-0.2932124451088186

fc.weight f8 [1, 17]
0	0x3f9cf4bd0af04ed1	0.02827735308899443
1	0xbf95108258f906e8	-0.02057078998610154
2	0x3f7559521dc17a16	0.00521213604596806
3	0x3fa08eea01c455fb	0.032340347972574755
4	0xbf89cbad4ead1071	-0.012595514262678105
5	0x3f8758db81fb7793	0.011399950889820853
6	0x3fa1dac5a51ed1a1	0.034872223287865774
7	0xbf8b3ce18c1d955e	-0.013299715126502572
8	0x3fbc31326d45f9f3	0.11012568633848456
9	0x3fa25931edfa6a10	0.03583675413138476
10	0x3fab3cb65d367e96	0.05319757354595571
11	0xbf4a856915bd17f0	-0.0008093608007377889
12	0xbf8dabdc5b155d71	-0.014487954644819752
13	0x3f9c1384fdab20c5	0.027418210966772678
14	0xbf8a31fbf2e32c1d	-0.012790649747691113
15	0xbf9134af1f824c90	-0.01680253629508549
16	0xbf94deb8ffc80b1d	-0.020380869495066557

fc.bias f8 [1]
0	0x3fad7d4d0aa5468a	0.057596595334541936
