Learning Models/GNN/results/accuracy/gcn/predictor_mr.pt (torch, 10238 bytes, 13 tensors)

gc.0.weight f8 [17, 17]
00000000: 93e7 5cb8 a6a0 ca3f 27b9 31a4 7e60 c23f
00000010: 9e7c 3881 54db d8bf 3225 8cd2 acc4 cb3f
00000020: dd5c 201b 81ac d03f 9ce3 90d6 300f c7bf
00000030: 093c 57c9 709c c63f e62c c1d9 fb9e c53f
00000040: e197 4f26 6852 b2bf 2c81 a5cf f009 cbbf
00000050: 141f c42b c646 ce3f 9e7d 95a0 3fbc cd3f
00000060: f691 d092 79e1 a33f 0d41 5985 c496 a53f
00000070: 1885 bd5b 7c79 d43f c7a3 e633 6c84 bc3f
00000080: f17a 8b0d 7ede d33f 6ae4 08d4 c033 9a3f
00000090: 5d6d f19c 1478 b73f 38aa a315 afa9 b13f
000000a0: fc03 9839 ca4b 8abf 8d95 38af 2717 ad3f
000000b0: 6b0b 711b 3c5a c3bf 9b2b b010 28c4 cc3f
000000c0: 95b7 e3b8 45a8 bfbf 2d6c 145a 4a51 8abf
000000d0: 5584 07f4 0baf b13f 6c4c 5231 a2f4 c03f
000000e0: 2b29 fa4d 3eb5 c33f 9efd 34dc 3839 a03f
000000f0: f4f2 4a2b 8c84 c33f 6ac0 5e69 9e97 b5bf
00000100: 9857 795f 38de acbf 3b89 10e7 0b3b c0bf
00000110: c471 6b41 b05a 583f 75e3 01eb 7765 be3f
00000120: e78f 813d d83a ab3f 8b5e 67fa f906 a1bf
00000130: 94a4 139d 1026 77bf b0bf 7226 bee3 c93f
00000140: 9625 8cff ee8f a3bf 0a08 6d92 d8ec b83f
00000150: 18f2 c3af b4a8 b5bf 3dcc 89a3 8cdf c83f
00000160: 1635 a7fe 3c60 d03f c675 7ae1 0d04 b8bf
00000170: ebd1 aaf5 1caf aebf 5507 6925 6eac b43f
00000180: 894e 5d0c 168b c53f d4bb fd7c 5151 c1bf
00000190: 74cb fa84 48c4 ba3f b1bf 6028 4294 9b3f
000001a0: 685d ae1d ce03 bdbf 594a eab7 5e5b bb3f
000001b0: a63e b278 cf6e be3f 8f49 d28a c9d1 963f
000001c0: 652d e2ba fdd4 bd3f 4e47 16ff 22d2 c5bf
000001d0: fb11 3a00 682b c83f b8e0 bb8d 5acd c33f
000001e0: b37c 0e60 1cb2 a3bf d32a c13d 8639 cabf
000001f0: a5f6 aeb6 8ab4 a03f dab7 a6e8 71c3 9e3f
00000200: ec2e 70c2 0128 b4bf 7912 7baf 5425 983f
00000210: 9b03 0487 e339 cc3f bc91 f4c9 c16f cc3f
00000220: 008e 9136 11ee a73f 1f03 0d13 10b0 c4bf
00000230: 1328 f2f2 25e1 cabf 3706 ddbb 8ab3 df3f
00000240: 8155 09f8 5c27 cdbf a6db 33cd 4182 bb3f
00000250: b4f9 be84 9303 b8bf e7af dd24 2475 c43f
00000260: d61b ae7c 8734 cabf 6454 1bd9 af71 c73f
00000270: 77ac df1f df93 d03f 713a da65 a16f c5bf
00000280: 3647 a587 3250 cdbf d216 54e8 4b5d c6bf
00000290: 15b5 ce99 1870 933f 2a2e 59a2 705c c73f
000002a0: 301e b121 9135 c83f 2f16 07e8 27b5 d13f
000002b0: 2961 d647 246d 803f 2aca 157d b394 acbf
000002c0: e33d cf50 9cf3 de3f b942 39ab 9a25 e03f
000002d0: 5ce8 8eeb 6883 db3f e402 10ef 9a52 cd3f
000002e0: e976 7fe6 7da9 e03f 1176 a14f 51c0 d43f
000002f0: f0f0 fbe1 b0a5 c4bf a5c2 4667 3ac8 d63f
00000300: caf5 dfc8 8590 aebf e0d7 1e1c ab68 dfbf
00000310: 51eb 3a5b 919d d13f 8b0d 0df9 5104 d33f
00000320: 66f1 3643 938c d2bf 5ad1 743c 1bec c0bf
00000330: 3c5b 85d6 6363 6b3f f50d 522e a269 a2bf
00000340: 7b2b fdde fc07 b63f 1a31 f946 d388 4dbf
00000350: 688d 209b dd34 d4bf fa01 c0b6 6c28 cd3f
00000360: e5a4 be9b aaba dfbf b80e a689 14b8 cdbf
00000370: b659 25dd 18d5 c3bf e2b8 eb1f 4aac c43f
00000380: 4a13 a389 add2 c23f 6766 9843 6ea5 c2bf
00000390: 365e 36d7 1675 da3f d047 e875 8af1 acbf
000003a0: db7c f217 e3ee 783f 3c73 5966 b940 d23f
000003b0: 6479 cf40 d4d9 a2bf 8abb 9e85 6060 c43f
000003c0: eee1 352c d660 d33f 3f8b f9c4 53c8 9d3f
000003d0: 1c89 7273 2e17 a7bf 6225 db18 3e1c c43f
000003e0: 9e74 0b86 9d3e dc3f eae7 da18 b492 c8bf
000003f0: 441c 0f30 43f1 b23f 4cf3 c324 e6b7 c63f
00000400: 568e 07c0 5baa bfbf 543d c5af 6a0d b33f
00000410: 490f 6824 0c97 d7bf e1a7 e24a 35cd c4bf
00000420: 0eb0 ea5d 1c9e c03f de84 f5c6 ccc4 c53f
00000430: b8e6 5059 b911 c33f 7f3a fa20 eb0f c6bf
00000440: b9d3 a8f6 414b cb3f 5b40 8bec f93f bfbf
00000450: 3834 d324 c3a4 c13f 7579 3be7 780c cc3f
00000460: 5628 d611 8ae3 bfbf e9c7 2740 d6f4 cbbf
00000470: 8e3b 3b65 e3f9 bbbf c1f0 01c8 fa84 b4bf
00000480: b784 5158 2644 b13f ab05 6924 14a8 c4bf
00000490: 05f8 4d36 94d0 c3bf cbb7 df86 29fd a5bf
000004a0: 360e 2359 49e9 d73f 0912 1f66 3e05 c13f
000004b0: 33ed 0da2 f461 c53f 6a01 8c4a 55d3 c03f
000004c0: 7d88 8772 5b2f 7e3f 8fef cf90 8ae1 d93f
000004d0: 88e7 e848 53f2 e03f 43c2 e7f2 447f e1bf
000004e0: 2d3d 69a0 d57b e43f bba3 77f7 4a2a da3f
000004f0: 9da1 fba1 e35d b13f f2a2 8713 f23d a9bf
00000500: c4c0 1647 ee46 dc3f f004 6d2b 4e0a d73f
00000510: 5f53 8dff 920f e0bf 3b01 217d c2ce ca3f
00000520: 0e4f 3dee f10b d1bf d0f9 30bd 4368 e5bf
00000530: 0f4f e2c5 ec06 eb3f f629 b6cd 4c74 da3f
00000540: 5c70 4c65 9572 e0bf 7e19 dc2b 7e2b a83f
00000550: a34a b4e8 251b c73f 77e3 cc8c 8eb9 db3f
00000560: e2ab 6379 6b26 ad3f d069 afc7 5a8a d83f
00000570: efe7 9612 9c1f af3f 70b2 068a 6e9f b13f
00000580: 40f0 85b8 ef83 833f a569 92d7 8ab3 823f
00000590: d74e bc8b 5e0b a43f 4384 2ab7 027e c3bf
000005a0: ff45 584a ed9c ab3f 533a 4fa1 b6df e0bf
000005b0: d66d 50d0 7c38 e2bf 2dff 275b 1a0f e63f
000005c0: 56c5 9d66 c94f b43f 2583 2ac5 e549 e0bf
000005d0: e265 cffd 3b6b b4bf b846 c933 4537 a53f
000005e0: 603d 1137 791d b3bf 0e70 c79b 4668 c63f
000005f0: 5e21 aca4 1f28 9abf 5165 0136 2707 9cbf
00000600: 82be a62b 87c3 cb3f 88fa 10bc 1535 bd3f
00000610: 0fd6 649b ef97 d23f a957 f1d7 b5a7 d13f
00000620: 2aa5 6dbb c26e d23f c13f 20c5 99e7 c4bf
00000630: d2be 6f01 e05d c7bf 96dd 010f f537 ae3f
00000640: 070b 990d 2ae6 d8bf 9744 2901 db6d 8fbf
00000650: bf3a 2061 75dd 9fbf a66e b610 b67d b1bf
00000660: 1007 e8af 831d d83f 7603 4191 ab23 cebf
00000670: d056 e9b3 441d b33f 0d1d 7851 697f afbf
00000680: 8d7e 00d4 9881 cdbf b472 e238 1cb4 e53f
00000690: 122c 203f ec28 d0bf e13c 754c 99e1 dc3f
000006a0: 4395 0a9b f60b c23f 5250 4f6d ba76 bbbf
000006b0: 60f2 6efa 53b2 d7bf e0b2 6f45 7935 e7bf
000006c0: 85a2 783d 3a42 c73f 31cf 1a3e ea1f e0bf
000006d0: 35d3 bff8 035b c93f 5d64 027d 2224 d93f
000006e0: 1fa0 0179 84bf d03f 7c4d 03e0 89b3 cebf
000006f0: 459c f674 94a9 f5bf ad65 eacc 33a9 ef3f
00000700: 3682 9a8c 2cd2 cabf c009 a80d 3deb 00c0
00000710: a45f ba03 5f4b f13f 155a 415e 9be4 c9bf
00000720: a9f5 68f1 93ae d73f 716d 5022 da51 eb3f
00000730: 29e2 15b9 9bf7 e83f 2f53 2592 3fad c33f
00000740: fe22 f9b7 3af0 d83f 6dfb d6db 05e9 e33f
00000750: faa9 e710 ae85 e23f 6ade 76bd cc61 f43f
00000760: be42 5889 39d6 d33f 72b1 83c3 6e99 f73f
00000770: fdae 394f 3f4f a53f 8e56 f403 e647 bd3f
00000780: 7651 ef46 6c89 bf3f f91d f7dd 32eb b63f
00000790: 9bab 65d3 b55b bd3f 0758 470c 67fa bc3f
000007a0: f4e2 6ddc 7f03 c33f 9657 8bfe 0814 79bf
000007b0: d8ff 2f38 9a93 bb3f 1c23 2d26 b1a4 b73f
000007c0: 65d1 21f8 41ed bc3f 67c9 3794 0e01 c03f
000007d0: eb63 3814 1134 a63f d7a6 5023 4b68 bb3f
000007e0: ef01 808b f752 9b3f b39e b92b 90f6 813f
000007f0: 36f0 7074 f630 5e3f efc6 2266 8075 e03f
0.20802768709273475 0.14356978432938058 -0.3883868467255044 0.21693954735409587 0.2605288281351486 -0.18015108563284066 0.1766491873845271 0.16891430027531057
-0.07156992850613576 -0.21124086512555473 0.23653485428825916 0.23230738965046965 0.038829611942023876 0.04216589095870136 0.31991490324988225 0.1113956095420142
0.3104548580430864 0.02558804792554207 0.09167603332155268 0.06899542120269408 -0.012839870340942021 0.0568172837632047 -0.15119124736710474 0.2247362214551146
-0.12366138233093545 -0.012850361703888502 0.06907725055454368 0.13246562393451045 0.15396860892753614 0.03168657005380314 0.15248252977280397 -0.08434476921570569
-0.05638290563062681 -0.12680195600939634 0.0014864655728877721 0.11873578536495961 0.053183324344700904 -0.03325635129629941 -0.005651535889435472 0.20226265790324538
-0.03820750112033548 0.09736398291445894 -0.08460549632213377 0.1943221853758547 0.2558739172789769 -0.09381186251490367 -0.05992975710742939 0.0807560769399321
0.1683070717214046 -0.13529413798411716 0.10455754515241528 0.02693274852225586 -0.11333931183468382 0.10686294546239007 0.11887833306013337 0.0222846499423866
0.11653123676858497 -0.1704753633062474 0.18882465373111743 0.15470439835167382 -0.038468252874048224 -0.20488050475463257 0.03262742500326724 0.030042438340096435
-0.07873545643831975 0.023579905710692437 0.2205166253334284 0.22216055260754597 0.04673818389053608 -0.1616230099698663 -0.2099959789523501 0.4953333696940691
-0.22776376830249137 0.10745631465748193 -0.09380456915730556 0.1598248653421017 -0.20472806537529092 0.18315694905200808 0.2590253649966096 -0.16746919129623764
-0.22900992987939056 -0.17472218364871722 0.018982300174390582 0.1825085442272763 0.18913473267660796 0.27668187769845337 0.008020671312622145 -0.055821999568156436
0.4836188115268369 0.5045903534138098 0.4298956203816766 0.22908341095901286 0.520689916793086 0.32423813606678303 -0.16130648645765389 0.35597095571123766
-0.0596963699062872 -0.4907634520162656 0.27524217518992083 0.2971386844767145 -0.28983003200462176 -0.1322053952404854 0.003343291278877029 -0.035962169794426936
0.08605938381258042 -0.0009013206126354007 -0.31572666310440534 0.22779616282788578 -0.4957682152695056 -0.2321801826584442 -0.15494070814265876 0.16150785978920285
0.14705437870557098 -0.14567354488899584 0.41339655892213345 -0.056530310528742356 0.0060871954766803195 0.2852004527574541 -0.03681815425055637 0.15919119381348096
0.30278543775014455 0.02908450021494535 -0.04509873542089535 0.15711189473794734 0.44132173624331894 -0.19197703565242757 0.07399387286487619 0.17748715205370968
-0.12369321287365528 0.07442347327490967 -0.3685942035228789 -0.1625124564791909 0.1298251589372516 0.17006835665509973 0.14897839413770497 -0.17236079321124362
0.21323418182296708 -0.12206995034216687 0.13784064577194655 0.21913062372818684 -0.12456572471106261 -0.2184093297251473 -0.10928174230069329 -0.0801541078853374
0.06744613319598868 -0.16137935426563152 -0.1548028245123875 -0.04294709941301241 0.37361367897776476 0.13297252642054527 0.1670518676072362 0.13144937648759064
0.007369382110910758 0.4043909467870827 0.5295807289141843 -0.5467858070606514 0.6401165135411354 0.4088313500092757 0.06783888535176748 -0.04930073250199553
0.44182927076600387 0.3600039886551505 -0.5019011489153903 0.20943480596361916 -0.2663540674741264 -0.6689776129858789 0.8445953240320437 0.41334838952084796
-0.5139872530448986 0.04720682416341314 0.18051599371445545 0.433200490475023 0.05693374497226224 0.38344449520596147 0.06078803755686112 0.06883898610858252
0.009528992479992948 0.009131512359364555 0.03914924102551048 -0.152283038555682 0.053931632352156804 -0.5273087645126203 -0.5693954533230066 0.6893436222453367
0.07934244876175475 -0.5090206957721405 -0.07976126619850946 0.04143730408817475 -0.07466847986619518 0.17505724531554318 -0.025543684411816307 -0.027371037169676985
0.2169045413152056 0.11409126130545577 0.2905234353559942 0.27586122596891954 0.28801029494805397 -0.16331789136211053 -0.18255233831540935 0.059020670015281926
-0.3890481121817832 -0.01534625146192274 -0.03111823468503405 -0.06832445056937306 0.3768014161906743 -0.23546356766203375 0.07466534988756313 -0.06151894683358181
-0.23051748611122883 0.6782361136461845 -0.25249773182503177 0.45126945940587687 0.1409900910413545 -0.10728039902397882 -0.3702592797888311 -0.7252775531938731
0.18170860291981597 -0.5038958752615824 0.1980900730701706 0.3928304882807135 0.26168929879213637 -0.23985408247117934 -1.3539013451461568 0.9894045831926427
-0.20953900208862003 -2.1148625437647013 1.0809011598230223 -0.20228902914341576 0.37003038954920925 0.8537417097281105 0.7802256216955971 0.1537246192553083
0.38966243711597304 0.6221951764817796 0.578818352715927 1.273876895995182 0.3099502412087921 1.4749591481478004 0.04162023393732104 0.11437833401245198
0.12319065791900194 0.08952634734225019 0.11468063746512629 0.11319583940289145 0.1485442949595136 -0.006122622617757664 0.10772098418965415 0.0923567503169917
0.11299526508247977 0.1250322555275247 0.04336598750905537 0.10706014263328299 0.026683681382566545 0.008771063169845083 0.0018427283082607221 0.5143434519615918

gc.0.bias f8 [17]
00000000: 7378 3681 a2f4 a33f 8933 e2fb e39c ec3f
00000010: 8a84 12be dfde ed3f 43fb 6e25 6e52 cc3f
00000020: 14df e768 a936 c63f 5945 2b2e ebdc f2bf
00000030: 213e 87ac e672 ee3f 7bd7 118b 7ef5 ecbf
00000040: ddc1 c95c 7152 e2bf 35dc 90fb 765f d3bf
00000050: c4f9 b8ea ac47 00c0 5abc 2d82 0a41 ea3f
00000060: 2c2c 9a57 e137 f13f 5e36 47a3 9d07 e03f
00000070: 5fa4 fcfd 7e54 eabf 55b0 3c61 230c e03f
00000080: 0e0e b8eb bc3c ebbf
0.03897579028419864 0.8941516799546757 0.9334562980985919 0.22126557185944237 0.17354314443922958 -1.1789352229573835 0.9515260095303725 -0.9049675670819249
-0.5725638210552081 -0.3027017075250485 -2.0349977815342033 0.8204395811607228 1.0761426374399532 0.5009296597506354 -0.8228144608193694 0.5014817141686857
-0.8511643031965279

gc.1.bias f8 [17]
00000000: 3018 caa3 07de d2bf 2137 9612 d797 b7bf
00000010: c4a5 5339 3681 c4bf 8c2b caaa 87c2 bb3f
00000020: 614a 2dc1 9204 a93f f058 7628 a7f5 a5bf
00000030: 3292 0888 e7b6 ee3f 9c4d 6e17 9742 ed3f
00000040: 1a61 48ba 3e77 e23f b3c9 f91e 8711 bbbf
00000050: 4caf a982 a4e9 cebf bce6 ccac 78ed b43f
00000060: bd7e 2086 bd21 cc3f 6a92 24d7 ac58 cebf
00000070: 8da1 d305 63ca ca3f 0606 eb2b 32b9 853f
00000080: 87e5 f94f 581c be3f
-0.2948016261583488 -0.09216064647463586 -0.16019323157460807 0.10843704147025174 0.04886301620594647 -0.04288980835842604 0.959827199640648 0.9143786866792882
0.5770562780699351 -0.10573620325320725 -0.24150520687123345 0.08174852579841291 0.2197796730915708 -0.23708115105650346 0.20930135521417662 0.01060713955428395
0.11762000992339071

gc.2.weight f8 [17, 17]
00000000: 534d dcbd 3328 b03f 66f0 7473 b04d d13f
00000010: 288a 3f7d 1091 e6bf d5ac 5f00 7839 cb3f
00000020: c850 3dd2 42ab d73f 71e6 f6d6 9f69 d23f
00000030: ffc1 15d3 b0e0 a33f c12d e1bd f774 b13f
00000040: b748 b156 3f2f d13f 8d8d c8c0 991c debf
00000050: 09df e367 652b d4bf 09f3 213f c189 cf3f
00000060: 7b31 c820 5f94 bc3f 3525 2b44 bfbc c13f
00000070: f8ad e8cb 8f6e e5bf d18b 6556 24ce a73f
00000080: d481 2760 4203 e1bf fb75 e20e 6da1 d03f
00000090: 60aa aa3e 7e26 b83f aae1 b7ad 7b3f e9bf
000000a0: ca1f 05b8 c8bc b63f e88e 9ea0 56a1 be3f
000000b0: 31cf 462b 4412 e03f 1cf9 65f4 9781 c73f
000000c0: c40d 6188 dd08 ce3f ab4a c7a9 7738 b53f
000000d0: 7ec6 cea7 218b c9bf 974a c6fc 0baa afbf
000000e0: ff03 624d c40f ba3f f22e 697c 01d9 9ebf
000000f0: 8cab 0004 18d3 cc3f 323b dca9 3151 d9bf
00000100: 7019 1aae 9042 cabf 4d60 0b8a f864 a43f
00000110: 474a f66a bed2 b5bf c5b9 7eca 10c3 b9bf
00000120: 0d78 5faa 4870 d63f aed1 c5a6 574a a9bf
00000130: e124 07be 3b7f da3f 4805 ba1a 9668 d93f
00000140: 5ff2 811b 644f a8bf 79b6 2b29 7525 b1bf
00000150: 2b97 72b0 5491 afbf e32e 567e 9f9a b63f
00000160: 1cec 69e6 2298 c03f 1362 ef89 021e a1bf
00000170: 471e e715 8c45 b03f b518 dc44 a9db a9bf
00000180: ce80 bfc3 b102 be3f d246 ae9e 66ea 963f
00000190: e4b7 a782 775e c23f eed9 8066 ee8f cb3f
000001a0: 8e84 5d07 7ce2 ba3f 5785 ff12 afcf e3bf
000001b0: 3958 cce7 ad9f b73f 9089 3804 6d40 c03f
000001c0: ad2b 9222 a618 dd3f 0ff8 7c82 a486 c23f
000001d0: 3689 cfbe 7f76 c53f a236 ab27 29f0 bb3f
000001e0: 0da3 8f21 8b88 c8bf 778d acfd 6aa9 b2bf
000001f0: 0669 77a1 313a b83f fc97 97fc 4752 c8bf
00000200: f216 7ed0 a5cb c83f 74e5 bf19 e53e ddbf
00000210: b3f3 c417 8977 b5bf db83 9115 acff ad3f
00000220: 283b 7eaf 15cc c63f 0dc4 372a 9075 a03f
00000230: 467b 4fdb 7ed2 f5bf 1fb7 7b58 d311 9a3f
00000240: ccf4 c0a5 3a83 72bf 2412 3de2 8ed9 c83f
00000250: a143 2e1e 2237 bd3f c3c0 1cef 6e80 c43f
00000260: 68ff 1230 d69c a23f 379f 18fa 31f8 b8bf
00000270: 819f cbff 3e4d c1bf 76da b702 c627 a93f
00000280: 054f 05e8 2ed9 cbbf 6bfa 681c e049 c43f
00000290: 4ffa cd44 0f29 bdbf cb64 7b3f 22f7 a7bf
000002a0: 0cba d8a0 2f58 a73f 23a8 ac74 2be6 c73f
000002b0: ab69 add6 ab6c bc3f 9c78 8400 59c3 f0bf
000002c0: badd 1bc8 2542 b93f af24 18b0 fc41 c43f
000002d0: 62e7 d5ed d76e bf3f 399f 31f8 7b2c c33f
000002e0: f9e0 bb01 74bc c63f 8414 92f5 a061 b93f
000002f0: afe8 f6e9 f084 7e3f 6581 db81 e7fc 43bf
00000300: 36c4 3af1 2b01 be3f 9454 44df 79ee a33f
00000310: ebf5 295e 32d8 c73f 70e2 63a2 aeca bb3f
00000320: f7b5 c88d 0268 a23f 1b41 7f1d c299 9c3f
00000330: 9e92 616a cc70 ba3f 891e e697 de82 a83f
00000340: 1522 e0e5 b270 65bf a303 4ac1 4a56 a13f
00000350: dfa8 7a3f 4b6d b53f bf7f 60c6 50dc c63f
00000360: 549e 1443 4812 c13f 8219 0a99 ca09 c03f
00000370: 3382 ac75 899c ae3f 4955 e1b4 7a3b 9b3f
00000380: 1088 9f6c fc32 a9bf 7f50 975d be8e af3f
00000390: 4f98 4850 d05e d3bf e2eb 06ff 488d c43f
000003a0: 3bf4 6631 dc9d b0bf 2e05 1909 8e83 be3f
000003b0: 7231 dd88 37a5 b63f e808 4bd5 59ec cc3f
000003c0: 7f9b 8e9b ce35 a63f a4ed e868 5c3c debf
000003d0: 8510 843e 6f23 9b3f e250 cfa4 4a23 973f
000003e0: 7cac 2188 0d5f 993f e5fd ed87 aa63 c63f
000003f0: f7b6 55c6 989b cc3f f584 f597 b122 a73f
00000400: e9e5 d11c 99a5 bebf 5e88 d5dd f655 b7bf
00000410: 547f bb1a dd91 a53f af65 dd66 8ff1 723f
00000420: 82a6 e98c 0c9d c83f 9e6b 1eae be5d c9bf
00000430: f80e e255 c320 abbf f9b4 de99 795e b7bf
00000440: 2f80 e298 4497 983f 79d0 08cd 94bd 9b3f
00000450: 690d 6336 1efa dbbf 1d28 1428 07cb a23f
00000460: 6e87 ae34 e530 c03f 224e 0604 fe21 ba3f
00000470: e97b ae4c 4178 913f 6155 acbb 2dc2 943f
00000480: ed12 c72d 7c5f a33f 116c 5e92 71e5 933f
00000490: 7a4e a995 ef78 92bf 1289 2061 1106 aa3f
000004a0: 4f50 45ae 5f38 9bbf 81f9 76da f1e5 a43f
000004b0: 623f 519c bb61 923f 4fe1 7851 1584 b33f
000004c0: a9e1 8592 246f b73f 044e 2a87 2bdd c8bf
000004d0: d9b7 2a01 8853 b8bf 461d d69d aacd e03f
000004e0: 0fe6 7b69 a43b b0bf 21db 6e20 5f54 ea3f
000004f0: 4250 41a9 10a3 e73f 5b46 538e 5b85 b0bf
00000500: 72d1 c178 6b91 c0bf 3699 7c4e c362 b0bf
00000510: 7be9 e945 2108 c93f 3e91 9df5 dc16 d23f
00000520: 578d bb33 3537 68bf 53f6 82fc 17f8 c23f
00000530: fc80 970b 7435 bebf 2425 97a5 9e47 ce3f
00000540: 1fbe 19d7 47c9 bb3f 0633 c591 e9e3 d33f
00000550: 47b5 4579 8d51 b5bf edfc 2437 d713 a4bf
00000560: 2d6f 9154 1f59 d9bf 474a f775 5d29 96bf
00000570: 3f7b c21e 1fc8 bebf 75a1 f990 6133 b9bf
00000580: dae0 0c8a a6f5 c0bf 3390 f3b1 c633 acbf
00000590: 104d 8986 4ae2 993f 7615 8e20 8941 d53f
000005a0: 5939 adb0 769d dd3f b10f 702b 5b93 b3bf
000005b0: 1fa4 3e69 4d14 ddbf ab66 24a0 a75d a6bf
000005c0: 7c18 9522 1669 e03f c06b 9926 0f0b e5bf
000005d0: 14fb 5177 5e05 e83f fbf7 105f 0a4e a13f
000005e0: 7053 3f60 8b08 a23f 9b89 a057 1110 853f
000005f0: 5562 4939 630a a13f bceb 004d 5ede af3f
00000600: 143d 43a3 68d2 c13f 968e 7930 ad68 8f3f
00000610: 6ffe c9f1 1050 983f 4be5 f771 75ba a73f
00000620: 8aff fe15 9636 38bf ba38 221f 640e 95bf
00000630: 3886 9fe0 4a34 a43f b4c9 fa1f 2a53 cb3f
00000640: 2496 5254 4d5c 973f b5e2 c1fb a8dc b1bf
00000650: da0e b22c 6ed7 d1bf 57ac aca1 0439 853f
00000660: c7bc db34 f313 953f 9e7e 0322 5e7d d1bf
00000670: 4a4f de01 e07f cc3f 9d37 95ab b443 d0bf
00000680: 36b8 efc1 5f39 dd3f 5180 0776 cdfe d93f
00000690: f129 5dfd 8ef5 773f c3af 82cb 2b84 8c3f
000006a0: 469c 8bd3 daca cdbf e3f3 f778 37a8 af3f
000006b0: 7fbf e1d1 d3b4 b73f b945 fbc9 5fec cdbf
000006c0: 828d c0e4 c250 8ebf 6146 9ab7 75d1 953f
000006d0: e4de e041 5809 b73f fc74 ed22 9cd8 b23f
000006e0: 153c e553 fc3b c23f 2679 e3d1 4267 c33f
000006f0: 73d7 009e 38bc b33f 04a6 21ce 81c4 e6bf
00000700: 9879 244c 8e83 ac3f 5e83 b285 5563 d83f
00000710: a68e b392 344e e03f ff75 7cf0 63e1 be3f
00000720: b5fd 7d1a f396 c13f 781a cdb1 b292 b13f
00000730: 97bb c55b 94c7 d7bf a8fb 7e7c fcfd c1bf
00000740: 142e e8ce 3dba b63f 5058 f6ec df5c b73f
00000750: 3b83 81c3 1f37 c23f 107b d82d 19e0 d9bf
00000760: d053 fa88 cba1 d5bf debf bfd9 b391 b7bf
00000770: a4e3 4b1a 52e6 b43f 3b00 aa86 daa5 c4bf
00000780: 3298 d933 177c 01c0 1792 f70e 3146 c2bf
00000790: 0a2c 1566 bd5f da3f eb70 9840 c130 e03f
000007a0: 29ad ce1d 35e7 7b3f f690 36d6 e0f8 a73f
000007b0: 42ff e639 10e0 c2bf 720f 21cd ab2d afbf
000007c0: c939 a2c7 2c52 8d3f 0a26 cb3b 436b c2bf
000007d0: 1d29 8952 363b c83f fbf0 a37b 8af5 ae3f
000007e0: 21a6 6c79 429b d2bf 9303 b5ca 318a bd3f
000007f0: d9f8 7d38 b961 b93f 20bd 51a8 748b aa3f
0.06311343560473874 0.27036677622868976 -0.7052080579999869 0.21269130724190313 0.36982794314577605 0.28769680016157567 0.03882362915726744 0.06819103608830003
0.2685087534529304 -0.4704956419611442 -0.31514868875045515 0.24639144499442292 0.11163897085515899 0.13857260540525265 -0.669746301898555 0.04649461321493898
-0.531647861291328 0.25985266164374793 0.094337358760336 -0.7889994042334838 0.08881811611820392 0.11964932843562404 0.502229771160705 0.18364238198768923
0.23464554938446558 0.08289287466986177 -0.19955845540748735 -0.06184422932269234 0.10180308236341772 -0.030124686449467704 0.22519207187118828 -0.39558068836133764
-0.20515640736648377 0.039832846499564846 -0.08524694548968013 -0.10063271468855024 0.350603262309847 -0.04939531241226135 0.4140157085171961 0.3970084439279913
-0.047480705602514155 -0.06697780852456416 -0.061655661143318184 0.0882968600691885 0.12964283228561235 -0.0334320824983402 0.06356120619522541 -0.05050400701115746
0.11722861317639685 0.022378543315034367 0.14350789909025174 0.21532993321461852 0.10501837901894559 -0.6191020365769572 0.09228026303421268 0.12696612077804703
0.454629453430864 0.14473396655552093 0.1676788026516733 0.10913331240154858 -0.19166697634434407 -0.07289761250699721 0.09463796798755561 -0.19001102288819982
0.19371483497905434 -0.4569638015232933 -0.08385521726900329 0.05859124911581378 0.17810317105291884 0.032146935609382955 -1.3638905112090511 0.025458624148931294
-0.0045196810643208345 0.1941393475227794 0.1141225169833562 0.1601694743671996 0.03635281884044056 -0.09753715854514843 -0.1351698636055936 0.04913157256298899
-0.2175654061235194 0.15850449931345464 -0.11390777044105359 -0.046807356118458175 0.04559468115290963 0.18671172329897087 0.11103319159648233 -1.0476923008168688
0.09866558204145451 0.15826376531939476 0.12278508717090866 0.14979505175437582 0.17762613377249872 0.09914594645859337 0.007451001234068651 -0.000609982529308478
0.11720537795442074 0.03892880297113624 0.18628530118796446 0.10856143440822463 0.03594978314172786 0.02793029122386868 0.10328366849132428 0.047873455087992296
-0.0026172155476198535 0.033861480803359066 0.08369894313605951 0.17859849630712962 0.13337043071190868 0.12529880974416235 0.05978803216408259 0.026594083108951314
-0.04921711755720548 0.06163592236012593 -0.302661970521858 0.1605616803406909 -0.06490875440700077 0.11919486734497717 0.08845851031691668 0.2259628573866117
0.04337926529779334 -0.47243414158921326 0.026502359572092366 0.0225955641834198 0.024776660379228307 0.17491656911077694 0.22349843677823575 0.045186567115488
-0.11971432641612235 -0.09115546146270634 0.04212847663234123 0.0046249009736469135 0.19229275589468747 -0.198173365611038 -0.05298433707596745 -0.09128532415953207
0.024014541465135316 0.027090382589634452 -0.43714099227164255 0.03670523037187954 0.1264921672091605 0.10208118055589258 0.017060299210807903 0.020271982745801668
0.03783786829766265 0.01942994552483063 -0.018039458760837658 0.05082754431374971 -0.026582236301081526 0.04081683913999524 0.01795094625077754 0.07623418082301224
0.09153965546818789 -0.19424957370630136 -0.09502458599555953 0.5251057703725699 -0.06341006827633343 0.8227992661912574 0.7386554055942798 -0.06453487610567647
-0.12943786045401456 -0.06400700250796806 0.1955606070876675 0.2826454542721598 -0.002956012640298471 0.14819621877352293 -0.11800313265803547 0.23656066022366773
0.10854004861334275 0.3107856677568609 -0.08327564440488287 -0.039213872415069996 -0.39606459864238525 -0.02164217026240525 -0.12024111271828718 -0.09844026364738119
-0.13249665966737362 -0.05508252069719823 0.025277294599004796 0.33212497882080727 0.4627358174665424 -0.07646722612849889 -0.45436415937234814 -0.04368327932224977
0.5128279376447291 -0.6575999978916727 0.7506553965066325 0.03379852686383341 0.03522143888373008 0.0102845530382794 0.033282376044273455 0.06224341096864047
0.1392336651974594 0.015336373369059058 0.023742928273803473 0.04634444252219313 -0.0003694645329197435 -0.02056271019005671 0.03946146003705703 0.21347548066621658
0.022813041946070936 -0.06977325579090173 -0.27877382626341574 0.010362659629740074 0.02058391580697785 -0.27327683755536636 0.2226524361727747 -0.2541324306119977
0.4566268342886163 0.40617691541956896 0.0058494172606722164 0.013923971317431843 -0.2327531369148536 0.06183026649157577 0.09260295747821877 -0.23377606737498782
-0.014802477460824862 0.021306838351455307 0.08998633964881325 0.0736177048942927 0.14245561691720413 0.1515887760969658 0.07709077699186455 -0.711487677193134
0.05569119147752416 0.3810628705633031 0.5095465531598691 0.12062668439144629 0.13741911691248068 0.0686446842274594 -0.37155636751315896 -0.1405635459795722
0.08877931882323536 0.09126090560161626 0.14230725332438418 -0.40430287816154564 -0.3380001866983635 -0.0920669943441221 0.08163941518786416 -0.1613114507235894
-2.185591130330999 -0.14276707869352442 0.4120934960271262 0.5059515248899776 0.006812293516229397 0.046820665501657574 -0.14746287181150747 -0.06089531783120962
0.01431689247354208 -0.143898395725316 0.18930701284472998 0.06046707877428222 -0.2907262979302648 0.11538993071464025 0.09914739255143291 0.05184521250418528

gc.2.bias f8 [17]
00000000: f422 4941 bb44 b73f cb2a 9524 6396 b83f
00000010: 2d41 4d43 ded2 eebf ba67 f8a1 f5de b93f
00000020: 22a6 2d88 49eb d03f ee7b 554c ed3c d13f
00000030: 65d2 efb7 54bd 883f 2cc1 edd6 0a67 943f
00000040: 1b37 7c06 573d ad3f 1364 ae89 1231 aa3f
00000050: f82b 0e61 d007 d6bf 27c2 c4df ab57 b13f
00000060: 1f95 3ecf 1346 afbf c4c5 ca7c 8d0d 8abf
00000070: d1b6 07e6 5f01 88bf 766c a478 479b 90bf
00000080: a666 3980 f488 a0bf
0.09089250892533213 0.09604472773677768 -0.9632407488334472 0.1010583420215018 0.2643607931009645 0.2693436856697521 0.012079870093637266 0.01992432534046988
0.05710861162343247 0.051155642802037125 -0.3442269275480494 0.06774400914287836 -0.06108152298774371 -0.012721162196018272 -0.01172137184854752 -0.016217343080921563
-0.03229488435017673

bn.0.weight f8 [17]
00000000: a8f2 989f 3ab2 e53f b121 0f25 75a5 ec3f
00000010: 3a7d 96c1 69b5 e93f 97e1 c64c e0cd e73f
00000020: d6df c0ae ce28 e93f 0606 dc6c 7d8d f23f
00000030: ee49 984c 02c8 e43f cbce 3e10 396f e83f
00000040: 7e8d fe8b 9ae1 f13f 4267 368e 458f ec3f
00000050: 82de 0399 52eb e73f 850a e51e 24e4 f33f
00000060: 8b1b ce17 13e5 f83f 948c 0b19 6a5d e93f
00000070: f1a1 84de c4d7 e73f 433b cc14 1bfb f13f
00000080: 6608 80e0 af26 e33f
0.6780064694535968 0.8951974605379772 0.8033951550495779 0.7438813685940201 0.7862313664581915 1.1595434429476668 0.6494151588433945 0.7635770146648267
1.1175790279893074 0.8924892213428637 0.7474759090973324 1.2431985098670861 1.5559264116179488 0.7926531304514293 0.74508899174276 1.1238051235593083
0.5984725365417602

bn.0.bias f8 [17]
00000000: 1d76 e35b 3510 e2bf c641 1f16 ce37 cabf
00000010: 83d4 0c84 913a a7bf cf15 0486 3996 dcbf
00000020: c92c 2e4a 4a5a b3bf c4b8 e7ff 4333 ddbf
00000030: 8ef1 c7c9 87a6 c43f 9451 9753 0a4f d2bf
00000040: 322b 2fcc 44b7 ccbf aea7 05b9 bf76 82bf
00000050: 2ca2 8c14 23c3 e0bf a0ae a6ba 344d afbf
00000060: 2fde 24fb 703c d23f 19be ed11 5a0d d2bf
00000070: 89a6 a3d7 07e3 d7bf 9fff 09be 2bb6 cbbf
00000080: 7337 c235 7103 dabf
-0.5644785685250927 -0.2048280342119268 -0.04536871659221566 -0.4466689881085956 -0.07559646903080187 -0.4562540053438051 0.16133210518445334 -0.2860742393798088
-0.2243429181092665 -0.009015558084417421 -0.5238204385141834 -0.061135909828718527 0.28493904615195026 -0.28206493140075534 -0.3732318502285144 -0.21649691371203247
-0.4064600968348408

bn.1.weight f8 [17]
00000000: 8aa0 be8e e568 f73f a270 21fe 7c9e f63f
00000010: 6b33 2cb1 6c9b ed3f 3524 e792 9ba1 f13f
00000020: 3215 caab 4873 e73f a35f 9705 e96f e73f
00000030: c7f2 04ca 2fa6 c63f ed6f d9fd c39c d33f
00000040: 1298 d29f 1286 e63f f5e1 0582 42f5 f83f
00000050: 6730 f58f e22f e23f 97fb e4cf 198c db3f
00000060: 4077 d75d 4792 ef3f d001 5ae8 04c6 e23f
00000070: fef9 726e 4591 ff3f 08cb 2618 6594 e93f
00000080: 0ee9 1180 39d3 0440
1.463109548183669 1.4136934210755858 0.9252227268603809 1.101955007399977 0.732822738195557 0.7324109181599748 0.17694661487793992 0.30644321241356814
0.7038663026366996 1.5598778800032254 0.5683453380274955 0.43042607595628496 0.9866062958569515 0.5866722620121951 1.9729666056078936 0.799364611788719
2.603137016817647

bn.1.bias f8 [17]
00000000: 3486 02b7 9d13 c1bf eb9e 88b4 0cec 973f
00000010: 4254 6a06 3eda 8d3f 76ed e066 b85a 8d3f
00000020: 04a1 9d15 baa8 c63f 44b5 177b 5eba d83f
00000030: d102 e450 c21b d6bf c421 d64c 1577 e4bf
00000040: 25f2 0464 f990 d5bf 41af 4491 0dd3 803f
00000050: 8cea 75f8 5dcc e1bf 03d2 1b9e 3c11 e4bf
00000060: b707 10dc 52c6 853f 9f91 af01 b9f6 8a3f
00000070: ef99 ab04 c01a d6bf b3c1 5b03 2d81 79bf
00000080: 850c 1e45 0f73 a13f
-0.1334111350634416 0.023361395377064758 0.01457642037466134 0.014333191527944971 0.1770241361184689 0.3863750650478617 -0.34544427775840086 -0.6395365238868682
-0.33697352187644675 0.008215051646935147 -0.5561971523996632 -0.6271041000423455 0.010632178631570939 0.013165898670146002 -0.3453826947792597 -0.006226707298751344
0.03408096045225143

bn.2.weight f8 [17]
00000000: dcc0 80e7 f600 e93f b1b8 20bb 83f5 eb3f
00000010: 3209 5e7b a19d ca3f 79e1 b636 a0f3 ea3f
00000020: bfc0 ae9c 144f d53f 8600 f39b 2d42 d33f
00000030: 3e81 a51e b98c e93f 02bb 382f d8c4 e93f
00000040: cb09 2c36 2b91 eb3f d0e5 bc77 43a9 e93f
00000050: c8ea b0e4 32f8 ea3f 4fb1 9a54 d44f eb3f
00000060: 7f58 755d 241e e63f 228a 70ad 2991 ea3f
00000070: 0211 4821 e43e e13f 95a0 a98c a0f4 eb3f
00000080: 4fd6 ff69 d517 e73f
0.7813677331487514 0.8737200407829474 0.20793550990863136 0.8422394817962832 0.33295169163740107 0.3009141943875949 0.7984281157078283 0.8052788660332626
0.8614708002135613 0.8019120539312841 0.8427977053282456 0.8534948017527685 0.6911794495924964 0.8302200686924304 0.5389271402387126 0.8736117121998342
0.7216593809413981

bn.2.bias f8 [17]
00000000: 170e 9128 f46b bebf 7ab7 326e 72f5 a7bf
00000010: 889e 5e47 b5bb b93f 7abf 8509 3c20 a0bf
00000020: 4401 2a13 de30 e4bf bac4 ad0e 0d26 e0bf
00000030: f549 bbe0 9acf 8bbf 78a4 66d4 7068 b2bf
00000040: bebe ccb0 ca67 a5bf c3a6 7bd1 09d5 b2bf
00000050: f8df a6ca 255d c5bf 0d22 1d4d 256a adbf
00000060: 3588 8cb0 4bd7 d4bf a564 eed4 105e b2bf
00000070: 2e65 b2b2 66dc b9bf c906 b06e e91d c2bf
00000080: c9bf 1cb4 b937 d5bf
-0.11883474340816523 -0.046794486953657136 0.10052044861242326 -0.031495929872902687 -0.6309652685450051 -0.5046448980994207 -0.013579568846954418 -0.07190613923616407
-0.04180749328804499 -0.07356320728618031 -0.16690513987646205 -0.057450452483468785 -0.3256406044112084 -0.07174782942310516 -0.10101930487362118 -0.14153783707302228
-0.33152620877353606

fc.weight f8 [1, 17]
00000000: bbbf 6405 b19b a03f 87ea e100 7eca ac3f
00000010: 412b 9e8f 8a27 7dbf d69a c86c 9efb b13f
00000020: f8ab 33ed 4dad 80bf 9ac6 6b71 6d70 7ebf
00000030: 757c b84b fdb4 a23f 2f59 424d 92ad a03f
00000040: dbbe 3c86 6d75 ae3f 817d 503a 8d5a a4bf
00000050: f816 f92f 3f56 aabf f39e 1e07 14cc af3f
00000060: 12a3 6d3a 7d5e 933f e38e 4ad1 4d89 a03f
00000070: b2c5 893d 3852 a3bf 0985 0736 f8b9 b03f
00000080: 1c24 fa64 0fd9 95bf
0.0324378317912983 0.05623239289066811 -0.007117787603315774 0.07024564891672055 -0.008143051911664742 -0.007431437980572797 0.03653708981823282 0.03257424538712638
0.0594896532405735 -0.03975335442396056 -0.05143926106079094 0.06210386835965478 0.01891513508909088 0.032297546194312486 -0.03773666144560241 0.06533767050816065
-0.021335831201700114

fc.bias f8 [1]
00000000: 2d75 f1d6 4f52 b03f
0.06375597951542451
