Learning Models/LSTM/models/finra-net.pth (torch, 6095 bytes, 7 tensors)

rnn.weight_ih_l0 f4 [32, 17]
00000000: 1fb9 debe 81e0 acbe c12f 4c3e 1be4 6dbe
00000010: fb3b 583e 8785 0c3d 43dc 9abe f857 41be
00000020: d39c ddbe 7c56 ecbe e66c 353c 46b2 6bbe
00000030: ba16 cdbe 0c97 6cbe cb8c 01be 9d00 763e
00000040: 1250 c5bb 8356 1e3e d62a 0d3d 0e62 32be
00000050: fea2 cdbd 313a 04be 3a88 633e 63c0 8abe
00000060: 00c5 8cbe 5c9c 393e 8fdc 52be f34d 7fbe
00000070: 8ba7 88bc 429f 28be 5fc7 7ebe e788 323e
00000080: 9bde cb3e c408 e0bd 82ff 093d a877 28be
00000090: 6c19 c7be 31c9 89bc 8da2 cfbe 98fc 98bc
000000a0: bbdb 3fbe fb22 a13d 44e1 793e 8a4f 6cbe
000000b0: c572 19be c674 7abe 2291 50be d4f2 18bb
000000c0: 32bd 0bbd d9d6 ff3d 11f7 c2bd c263 26be
000000d0: 427c 82be 6158 8ebc d0bd 49bb a7a1 a23e
000000e0: 0b8c 86bb ef7b 14bf 3de7 06be b58a 4ebd
000000f0: ce77 bebe ca98 583d 487b 89be 69c5 ff3d
00000100: 5f28 f33d 6c40 f73e 4d73 09bf cb01 6fbf
00000110: beb3 8a3e 6cc4 b0bd a31c 69be e3f6 b93d
00000120: 7e8b 82bc 0e8b 9abd 42bb 8f3e 247b 86be
00000130: e94b da3c 4d2d ac3e 77ed 8ebe 616e 5ebe
00000140: 25b1 7e3e b3cd f23d 86cd 13be b610 443f
00000150: fe73 cf3e 6250 30bf 7312 903e 4dfb 433e
00000160: 0740 5c3e 8ae5 4c3c 8a17 90bd cecc 80be
00000170: a459 a03d 8ad1 723d 36f0 873d c75d 4f3e
00000180: 42de a7be 1b5a 8cbe aaa8 0bbf ecc8 dabe
00000190: 0205 8c3f 2f1d 1c3f c734 c43d becc 6dbe
000001a0: 52c7 95be 8f14 0abe f3f1 2e3d 593d 043e
000001b0: e591 d6be 2b9f b8bc aacb 463d c1ab b4be
000001c0: 78ff 80be 1d3a eebe 00e1 95bd 005b 023e
000001d0: 5d8d 86be 8877 15be 6ae3 5abe eaf6 33be
000001e0: 1367 4b3e 6105 9c3e b594 a4bd 3bd2 1d3e
000001f0: f1eb f0bb 37b5 89bd 6065 c3be db87 85be
00000200: 7feb be3d 656b c4bd 1278 883e 3145 8abe
00000210: a114 6b3e 6dbf 97be a2e6 793e 6ded a03d
00000220: faf7 53ba e595 ff3d 0764 d63e 17c2 8c3e
00000230: 16e6 34be 2138 50bd d17b 8fbc 3103 33be
00000240: 832e 8f3e 568c 8d3e 5c9f 12bc 52c7 c2bc
00000250: 88b3 89be 6cb2 6e3e a3c4 bdbe 72f8 20be
00000260: ab41 7d3e cf8a 943e 873e 443e 8cd4 e43d
00000270: e70e 9cbd b5b1 e3bc 1f2d 1d3e a1e7 063e
00000280: f764 7fbe 7b3f 77be 3027 44be e180 e7bd
00000290: 3525 a23e 8546 a53c fcbb 24be 7a61 c03d
000002a0: 8e6a 89be 74aa 733d 85e2 813e f4ce 553e
000002b0: d316 103e 920a 65bd 8e97 64be 4082 7fbe
000002c0: 5a30 523e f026 bb3d 4685 72be be5a 143e
000002d0: a4ef 9ebe 5a4a 9c3d 4575 703e c4fd 96be
000002e0: 49e0 58be 5b6a a6bd 0337 2ebe 5796 673f
000002f0: 1327 703e a592 0ebe acef 843e 74cd c1bd
00000300: 9b60 2f3e a861 9b3e ac2a 5cbe c396 33be
00000310: ef79 4f3f 5c39 cc3e afb9 3c3e a5b7 113d
00000320: f136 033e 9a12 11c0 acfb adbe c55a 403d
00000330: cfbc 613e 8473 70bc cc02 18be d322 9fbe
00000340: 864f dcbd 7c22 a4bc 0301 923d 7c55 69be
00000350: 54e3 c0bd 6485 5fbc ac74 b53e 4cde 48be
00000360: 96eb 0a3e 1e96 8cbe d5d9 9e3e 8219 76be
00000370: ddd2 b8be 9789 e03c 2bc2 4bbe ff87 333e
00000380: c9a7 a2be 4940 e63d f0fb 8dbe 9b52 c6bd
00000390: dcfa b3bc e077 c43d a852 27be 566b 6e3e
000003a0: 0596 743e 3403 24bd 09c4 b5be 5a34 30bf
000003b0: f6aa 183e 38de 223e 7264 053d 47a9 d2bd
000003c0: 66bb a0be e9ad bdbe fcfb 473e 36cd d9bd
000003d0: 2761 353e 537a 89be e6c9 3cbe b294 80be
000003e0: bdb3 a8be c048 d6be 8c84 443e ac42 8bbe
000003f0: 7585 033e 680c 353d cc53 9fbe 6e4f 883c
-0.4350061 -0.33765033 0.19940092 -0.23231547 0.2111663 0.03430703 -0.3024617 -0.18881214
-0.4328371 -0.46159732 0.011073327 -0.23017225 -0.40056401 -0.23104495 -0.12651365 0.24023671
-0.006021508 0.15462689 0.03446468 -0.17420217 -0.10040854 -0.12912823 0.22219935 -0.27099904
-0.2749405 0.18126053 -0.20591949 -0.24932079 -0.016681453 -0.16467002 -0.24880742 0.17435037
0.39818272 -0.10939172 0.033690937 -0.16451895 -0.38886583 -0.016819568 -0.40553704 -0.018675134
-0.18736164 0.07868 0.24402338 -0.23077217 -0.14985187 -0.24458608 -0.20367864 -0.0023338096
-0.034115978 0.12492151 -0.095197804 -0.16248992 -0.25485426 -0.017376127 -0.0030783303 0.31763956
-0.00410605 -0.5800161 -0.13174148 -0.05042525 -0.3720078 0.052880086 -0.2685187 0.12488825
0.118729346 0.48291337 -0.5369156 -0.9336211 0.27090257 -0.086312145 -0.2276483 0.09080293
-0.015935656 -0.07546054 0.28072554 -0.26265824 0.026647525 0.33628312 -0.27915546 -0.21721794
0.24872263 0.1185564 -0.1443387 0.76588 0.40518183 -0.68872654 0.28139076 0.19138832
0.215088 0.012505898 -0.0703574 -0.25156254 0.078295976 0.059281863 0.066376135 0.20250617
-0.32786757 -0.27412495 -0.54554236 -0.42731416 1.0939028 0.6098203 0.09580379 -0.23222634
-0.29253632 -0.13484405 0.04271121 0.12914027 -0.41908184 -0.022536835 0.048534073 -0.35287288
-0.25194907 -0.46528712 -0.07318306 0.12730026 -0.26279727 -0.14596379 -0.21375814 -0.17574659
0.19863538 0.30472854 -0.08036176 0.15412228 -0.007352345 -0.06724017 -0.3816328 -0.26080212
0.09322261 -0.095907964 0.26654106 -0.27005914 0.22957088 -0.29638234 0.24404386 0.078577854
-0.00080859626 0.12479762 0.4187319 0.2749183 -0.17665896 -0.05083478 -0.017515095 -0.17481686
0.27965173 0.2764613 -0.008949127 -0.023776684 -0.26894784 0.2331025 -0.37064084 -0.15719774
0.24732082 0.29012153 0.19164477 0.111733526 -0.0762003 -0.027794698 0.15349244 0.13174297
-0.24940859 -0.2414531 -0.19155574 -0.113038786 0.31669012 0.020175228 -0.16087335 0.09393592
-0.26839107 0.05948873 0.25368133 0.20879728 0.14071207 -0.055918284 -0.22323439 -0.2495203
0.20526257 0.09138286 -0.23683652 0.1448774 -0.31042206 0.07631369 0.23482235 -0.29490483
-0.21179308 -0.081257544 -0.17013173 0.90463775 0.23452406 -0.13923128 0.25964105 -0.09463015
0.17126696 0.30347943 -0.21500653 -0.1753798 0.8104543 0.39887512 0.18430208 0.035575528
0.12813927 -2.2667603 -0.33981073 0.046961565 0.22044681 -0.014675979 -0.14844817 -0.31081256
-0.107573554 -0.020035975 0.07129099 -0.22786516 -0.094183594 -0.013642643 0.35440576 -0.1961605
0.13566431 -0.2745828 0.31025568 -0.24033168 -0.36098376 0.027409358 -0.19898288 0.17532347
-0.31768635 0.1124273 -0.27731276 -0.096837245 -0.021970205 0.09593177 -0.16340125 0.23283133
0.23885353 -0.040042117 -0.35501125 -0.6882988 0.14908966 0.15905082 0.032566495 -0.10286193
-0.31392974 -0.37046745 0.19529718 -0.10634844 0.17712842 -0.26851138 -0.18436393 -0.25113446
-0.3294963 -0.4185238 0.19191188 -0.27199304 0.12843879 0.044201285 -0.3111862 0.016639438

rnn.weight_hh_l0 f4 [32, 8]
00000000: 30d4 483f 7af7 4abe 6c75 5cbe 583c 0dbf
00000010: e0e9 b2be 0b96 583d 9d9f 913e f409 553f
00000020: dc11 6a3d 141d e23d e156 b53d b646 273d
00000030: 6437 a5be e937 383e b126 993e 9142 bd3d
00000040: 501b 4c3e dcd9 24bc 29ca a83e 6d84 5abe
00000050: 0507 56be a155 d63e baf3 52be d026 2a3c
00000060: 6ac5 d7be c6a2 e53d 37d9 0dbd 3fab 22bf
00000070: 8180 763e 55ea 9dbd df46 403f 0412 69bf
00000080: 106f 063e 1a3b 0e3e 04f8 aebe 04dc 5f3f
00000090: 3f77 7ebe 2fc6 393e 39b5 c53e 960d 723d
000000a0: bb55 60be b29a dbbb 3afd 91be e1db 473b
000000b0: 788b 123e 842f 0f3d d604 383f 7a17 ed3d
000000c0: d93d 1bbe c6de 063e cc0b a5bc 3889 5f3e
000000d0: 7d0d b43d 56ff f03e f0fb 85be 417a d53e
000000e0: 0457 433e 5d20 adbe 48a7 cabe e043 193f
000000f0: 2c33 a3bd 8b04 a6be 4839 84ba eee8 5b3c
00000100: c08e 543f ce72 9b3e a182 97be 0262 4cbe
00000110: 2fe8 93bd 4b35 903e 8f64 84bb b91d 143f
00000120: e9cb 25be c216 00be 93bd 60be c06b 4ebe
00000130: 0f75 a3be 7c85 debd e3a4 953c da44 d03d
00000140: 1cd9 a93c 5e70 33be f08b 7f3c 6d07 be3c
00000150: 3e5f d3be f437 81be 5c96 ef3d a297 8dba
00000160: d029 bcbe a972 3b3e fee5 d63e f0ec b23f
00000170: 8689 c43e 59e0 1bbe ce84 813f 362e 7bbf
00000180: a128 1c3c 94ed 5cbe 6b93 d7bc 4621 a3bd
00000190: 353e 0ebe 9a58 a23e 30b4 373c 0b08 1abe
000001a0: b9f5 36be 001d 66bd 018b 99be d642 963c
000001b0: 0ecd d3bd 6745 513d 9c12 d1bd fe11 243e
000001c0: 7706 84be 8c6c 263e 98ef bd3d 5f7c c83e
000001d0: df07 b73d 8840 63be 1fa5 bebe 3121 7f3e
000001e0: e3b0 26bf d6ad ddbd a11f d2be 6b75 fa3e
000001f0: a985 453e 15ef a03e 0dd8 e93d 06b6 053e
00000200: 9bc6 89bc 1dda 9fbe 2f5e b6be 7b77 64be
00000210: a23b 1f3e 7994 4b3c 5eb5 88be bd61 a23e
00000220: 902a e33d c78c ffbd f159 2b3e 623a e1bd
00000230: 3537 8b3e 3fbc 083e dc5d aabe 8797 92be
00000240: d066 8bbe 46e8 bdbe e6ee 213e 2f5c 95bd
00000250: f2a0 d5bd a6ae b7bd 854d 383e d24a 22be
00000260: 7fe7 0abf cc29 95be dd5c 8f3e 9d6f 2cbe
00000270: a940 8f3e 101f 07be f401 113d 6bcc 5ebe
00000280: ceb8 d9be faae 17be 5fd9 e53d f939 ff3e
00000290: 1f54 f6be 4599 cfbc 0e24 afbe 34d3 ce3b
000002a0: f19e b33e daaf 563e 4d8f 47be d014 f9be
000002b0: a12f 963e c5d2 d8bc c790 093e 0063 21be
000002c0: 5a4d 88bc b62d b63e 9def 3dbd 089b bb3d
000002d0: ecbe 43be b06e 8bbe 9313 8abc 756f b73e
000002e0: bfaa 163f 80f3 9cbe 79e2 3a3e 622b a2bf
000002f0: 83c3 653e 2534 9d3b 6de7 87be ed5e 05be
00000300: 9242 e23e d12a b13e c90b 0dbd 29fd 16bf
00000310: 6037 cbbd 8262 d33e b36e e0be 8b11 a73e
00000320: 5273 9cbe b4dd c1bd 9f39 493d 6763 70bd
00000330: 8e8e c4be a0bf 87be ff38 c8bd ac00 083e
00000340: 9aef c2bd ed42 bb3e 644c 34be a387 15be
00000350: 1d20 963d f7c7 87be c50b 3cbc dfd8 d83e
00000360: aad9 093f c1f5 febe c18d a7bd ae5c fd3d
00000370: 5306 ec3d dd6f b83e 4d27 db3b ad25 ee3e
00000380: 0ded b8bd d017 513d c435 433e 9e3d c63e
00000390: ba95 1c3e c2c0 56bc d9a7 46be 7b0d 23be
000003a0: 6084 f3bd c17c 183e ce2d 053e f405 823e
000003b0: 987f 9ebe 088c bdbd 39d2 ad3e 24af 6b3e
000003c0: 1e67 8cbe 9def ec3e 2350 fa3d 9622 26bb
000003d0: 1b8c 03bf 0c06 eb3d 52c7 483e c45c 173d
000003e0: 0808 323e bbb7 633e 4e35 82be 612b 153f
000003f0: 2a44 b83d 6ce2 713e e898 8c3e e491 563e
0.7844877 -0.19820967 -0.21529168 -0.551702 -0.34944057 0.052877467 0.28442088 0.8321831
0.05714594 0.110407025 0.088544615 0.04083892 -0.32268822 0.17990078 0.29912332 0.09241212
0.19932294 -0.010061707 0.32966736 -0.21339579 -0.20901115 0.41862205 -0.20600787 0.01038523
-0.42142802 0.11212687 -0.03463098 -0.6354255 0.24072458 -0.07710711 0.7510814 -0.91043115
0.13128304 0.13889733 -0.34173596 0.8744509 -0.24850176 0.18142007 0.38614824 0.059094988
-0.21907704 -0.0067017907 -0.2851351 0.0030496048 0.14311016 0.034957424 0.7188238 0.115767434
-0.15160312 0.13170919 -0.020147227 0.21829689 0.08791635 0.47069806 -0.26168776 0.41694835
0.19076163 -0.33813754 -0.3958075 0.59869194 -0.07968745 -0.3242534 -0.0010087872 0.013422234
0.8303032 0.30361027 -0.2959185 -0.19959262 -0.0722202 0.2816566 -0.004040308 0.57857853
-0.16191067 -0.12508681 -0.21947317 -0.20158291 -0.31925246 -0.10865304 0.0182671 0.101693824
0.020733409 -0.17523333 0.015597329 0.0231969 -0.41283602 -0.25238 0.11698601 -0.0010802636
-0.3675065 0.18305458 0.41972345 1.3978558 0.38386172 -0.152223 1.0118654 -0.9811739
0.009531171 -0.21575004 -0.026315412 -0.07965331 -0.13890918 0.31708223 0.011212394 -0.1504213
-0.17867173 -0.05618 -0.29988864 0.018342417 -0.103418455 0.051091578 -0.102086276 0.16022488
-0.25786182 0.16252345 0.092742145 0.39157388 0.08937048 -0.22192585 -0.37235352 0.24915005
-0.6511366 -0.10824172 -0.41039756 0.48917708 0.19289269 0.31432405 0.114181615 0.13057718
-0.016818335 -0.31221095 -0.3561873 -0.22311203 0.15550092 0.012425535 -0.26700872 0.31715193
0.110921025 -0.12478023 0.16733529 -0.10997464 0.27190557 0.1335306 -0.33274734 -0.2863123
-0.27226877 -0.37091273 0.15813789 -0.07292973 -0.104310885 -0.089688584 0.17998321 -0.15848854
-0.54259485 -0.2913345 0.28000537 -0.16839452 0.2797902 -0.13195443 0.035402253 -0.21757667
-0.42523807 -0.14812842 0.11223101 0.49848917 -0.48111054 -0.02534164 -0.34207195 0.0063117985
0.350822 0.2096552 -0.19488259 -0.4864869 0.29333213 -0.02646769 0.13434134 -0.15760422
-0.016638447 0.3558175 -0.04637109 0.09160429 -0.191158 -0.27232885 -0.016855037 0.35827222
0.5885429 -0.30654526 0.18250455 -1.2669489 0.22437863 0.004797476 -0.2654375 -0.13024493
0.44191414 0.3460298 -0.034435067 -0.5898004 -0.09922671 0.41286093 -0.43834457 0.32630572
-0.30556732 -0.09466115 0.049127217 -0.058688547 -0.3839001 -0.26513386 -0.09776496 0.13281506
-0.095183566 0.36574498 -0.17607266 -0.14602523 0.07330344 -0.2651975 -0.011477415 0.4235296
0.53847754 -0.4979687 -0.08181334 0.12371193 0.11524644 0.36022845 0.0066880346 0.4651312
-0.09029589 0.0510481 0.19063479 0.38718885 0.15291491 -0.0131074805 -0.19399966 -0.15923111
-0.11890483 0.1489134 0.13005754 0.25395167 -0.3095672 -0.092552245 0.3394945 0.2301603
-0.27422422 0.4627656 0.12222316 -0.0025350205 -0.5138566 0.11475763 0.19607285 0.036953703
0.17385876 0.22238056 -0.25431293 0.58269316 0.08997376 0.2362153 0.27460408 0.2095409

rnn.bias_ih_l0 f4 [32]
00000000: 67d3 283e 81d6 ba3c 1e7b 3abc c9e4 1ebf
00000010: 2b63 a93c 055b 703c c10a 7cbe 087c 3cbe
00000020: 95eb adbd 938f 823d 41d7 08be 016d 05bf
00000030: 6bd4 4dbd f894 82be c4cd a0be cd13 a7bd
00000040: 7583 eab9 ae77 b7bd b513 0abe 6828 d8bd
00000050: 615e 563e faae 4a3d 5246 10be d664 783d
00000060: 2711 fe3c 14ee 713e 5386 03be b9af fabd
00000070: ccb9 383e 1805 973e c567 8cbd 732c 45bd
0.16486894 0.022807362 -0.0113818925 -0.6206785 0.02067717 0.014670138 -0.24613477 -0.18406689
-0.08492199 0.06375041 -0.13363363 -0.5211945 -0.050251406 -0.2550428 -0.31406987 -0.081580736
-0.000447299 -0.08958374 -0.1348408 -0.10554582 0.2093444 0.049483277 -0.14089325 0.06064304
0.031014038 0.23625976 -0.1284421 -0.12240548 0.18039626 0.29496074 -0.0685573 -0.048138093

rnn.bias_hh_l0 f4 [32]
00000000: 0e0d fa3d 499b 91bb 1e6a 86be 80a3 debd
00000010: 2943 2abe 4c0f f3be aeb7 a6be 3f62 93bd
00000020: 2be0 d73e ccce 81bd 5e2b 47be ba69 e8be
00000030: e069 c4be 98fd dc3d 7643 883e 4847 7ebe
00000040: 2172 b23e b7cb 4f3c 59f6 8cbd 03a9 cc3e
00000050: 0105 4cbe 1c5d ee3c 587b 9fbe 9e19 193e
00000060: 2b17 18be 2e8e ac3e 9f53 9f3d 81ff 8c3e
00000070: ff2f 8a3e 07d4 b4bd 770b f83c 2587 c03e
0.12209521 -0.0044435603 -0.26252836 -0.10871029 -0.16627182 -0.47472608 -0.3256201 -0.07196473
0.42163214 -0.063382715 -0.19450137 -0.45393163 -0.38362026 0.10790557 0.2661397 -0.24831879
0.34852698 0.012682847 -0.068829246 0.39972696 -0.19923784 0.029097132 -0.3114879 0.14951178
-0.14852588 0.33702224 0.07779621 0.27538684 0.26989743 -0.088295035 0.030278904 0.37603107

reg.0.weight f4 [8, 8]
00000000: 16ec 95be 9576 76be 096a 2f3e 490f 043c
00000010: 74d1 3bbe ed18 6dbe cce9 023e 2da0 1f3e
00000020: 7272 253e b3a8 fe3d 61f1 0cbe 45dd 84be
00000030: 4471 073e 1989 91be 7552 b3bd aaa0 693e
00000040: d07a 933d d287 f93d 6849 47be 90f9 d33d
00000050: 3fb1 0f3e 6716 403e aa3f 963d 0fc1 9c3d
00000060: 4ad0 a13e f076 803e d0ec 42be 6ead adbb
00000070: 73d0 1bbe 127c 90bd 9080 993d 3074 cf3d
00000080: a2a1 223e 82d0 65be fd2f 893c fe8a f0bd
00000090: 4811 0d3e 1651 99be 8fa5 41be 9d37 5f3e
000000a0: b687 c13e 2c4f 18bd 7d3f 3abe 6451 0f3e
000000b0: 9248 3dbe c74f a63e 8797 aebd f341 07be
000000c0: 03b2 953e 9d58 8b3e bc9c c5be 07ca 2ebd
000000d0: 0002 dcbd 8f5d 41bd 91c0 333e b7b8 a1be
000000e0: 3a33 34be 519b fc3d e93f 80be 7bff 283e
000000f0: 26ef b4be f8ea f63d ffeb 313e 240f 363e
-0.29281682 -0.24068673 0.17130293 0.008060285 -0.18341619 -0.2315404 0.12784499 0.15588446
0.16156939 0.124345206 -0.13763954 -0.25950065 0.13226801 -0.2842491 -0.08755962 0.22815195
0.07201159 0.12184109 -0.19461596 0.10350335 0.14032458 0.18758546 0.07336362 0.076540105
0.31604224 0.25090742 -0.1903565 -0.0053002154 -0.15216236 -0.070549145 0.074952245 0.10129583
0.1588197 -0.2244282 0.016746515 -0.11745261 0.13776124 -0.29944676 -0.18910812 0.21798559
0.37798852 -0.03718488 -0.18188281 0.13995892 -0.18484715 0.3248274 -0.08524995 -0.13208751
0.29237375 0.27216044 -0.3859614 -0.042673137 -0.10742569 -0.047208365 0.17553927 -0.3158624
-0.17597666 0.12334312 -0.2504876 0.16503708 -0.35338706 0.120565355 0.17375182 0.17779213

reg.0.bias f4 [8]
00000000: 1294 c1be f88a 623e 6489 64be ef6a 45bd
00000010: 594a 3b3d 0c4b 3e3e 5bff f33d e328 23be
-0.3780828 0.22123325 -0.22318035 -0.048197683 0.0457252 0.18583316 0.119139396 -0.15933566

reg.2.weight f4 [1, 8]
00000000: e8f9 93be af6c 3e3e b141 9bbe 396e 1fbe
00000010: f90d 8a3d 6d2c 41bd 78a8 013e 5db6 0dbe
-0.289016 0.18596147 -0.30323556 -0.1556939 0.06740946 -0.04716151 0.12661922 -0.13839097
