Learning Models/LSTM/models/mr-net.pth (torch, 6095 bytes, 7 tensors)

rnn.weight_ih_l0 f4 [32, 17]
-0.009604083 0.06178066 0.045983467 -0.120125435 -0.12436052 -0.34047922 0.27310818 0.2592955
-0.0912746 0.15650083 0.19521658 -0.23616558 0.11328539 -0.36595944 -0.43336323 -0.15382731
0.19411173 0.06076313 -0.44247413 0.014022789 0.19408989 -0.45212984 -0.026498202 -0.2620445
-0.51659775 -0.11992191 0.3570291 0.13723704 -0.26018676 0.1722218 -0.23311532 1.8611839
-0.01621665 -0.19469775 -0.3496145 -0.4595864 -0.56076896 -0.26121166 -0.33925864 -0.27569833
-0.38259652 -0.60464215 -0.47947583 0.2819007 -0.62576246 -0.6174929 -0.5075339 -0.34444314
0.964312 -0.167259 -0.5980842 -0.1384336 0.29096133 -0.3461968 -0.3859793 -0.22159337
0.21796024 0.047967136 0.16169102 0.062375393 -0.31452876 0.16954683 0.06665255 -0.26471063
0.26466605 -0.16118768 -0.40084195 0.30310977 -0.24755049 0.30261812 0.12670869 -0.003498133
-0.16816682 -0.35786062 -0.086788975 -0.092326306 -0.34803617 -0.15406454 0.257393 -0.07701243
-0.28180382 -0.34389636 0.2462052 0.28462964 -0.22840649 0.21715991 0.07788083 -0.18149424
0.22804663 0.2866464 -0.086119644 -0.11579346 -0.12331821 0.16509116 -0.29263154 0.10293333
-0.19008441 0.13117935 -0.097923815 -0.18520421 -0.011342787 -0.014518076 0.22366223 -0.18822935
-0.18015485 -0.26790214 -0.55933064 -0.43481943 -0.534011 -0.41362414 0.07248902 -0.18668517
-0.0430457 -0.23429391 -0.37162352 0.044041827 1.8957953 0.8307673 -0.52322847 0.009719797
-0.07181695 0.14353694 0.15887903 -0.091974445 0.24055392 -0.15995325 0.052875113 0.020478886
-0.12170335 -0.10622685 -0.19712801 0.024816439 0.13748522 0.0019468386 0.8281576 0.19342044
-0.3202816 0.11078781 -0.21586397 0.24338469 -0.39497107 -0.22347677 -0.24015282 -0.18583277
-0.061426762 -0.07028604 -0.26539776 0.11906454 -0.10932757 -0.18941675 0.32950723 0.23369758
0.21035093 0.94142354 0.1974589 0.10277213 0.04924951 -0.37433687 0.10832251 -0.12734255
-0.65884817 -0.06512754 1.3149986 -0.040648047 -0.36122108 -0.57178706 0.079386845 -1.6141136
2.002071 -0.4255549 0.041929256 0.42237636 0.33716506 0.3736983 0.29125714 0.3865561
0.30762357 0.14791231 0.06076861 0.0945926 0.24191737 0.22150894 0.34959644 0.42035455
0.5312926 -0.2729029 0.25842825 0.14479429 -0.29373306 0.1958054 -0.35746107 -0.098790914
-0.17421573 -0.25298008 -0.24698335 0.03247967 0.19171444 0.261768 -0.12880492 -0.1776231
-0.1593661 0.29336902 -0.18256691 -0.12222181 0.19275981 -0.19883537 0.23275888 0.17674646
-0.36754894 0.07212905 -0.2933692 -0.18966135 -0.024432302 0.029766854 0.16317946 0.2650963
-0.17513715 0.08087007 0.79746455 0.087404825 0.036066793 -0.21395376 0.028725373 0.26491588
-0.2500007 -0.19900548 -0.25852674 -0.34001914 0.3584872 0.25593603 -0.3301297 0.21892157
-0.046940047 -0.22301649 0.09744599 -0.023078334 0.106292784 -0.37527937 -0.48361742 -0.16740878
-0.50081116 -0.1591716 -0.3420631 -0.1506724 0.023947615 0.20744468 -0.06410046 -0.6069489
0.08311792 -0.14839989 0.17193887 0.0507951 5.668998 0.4146894 -0.41337755 -0.16045743
00000000: 725a 1dbc b80d 7d3d 2959 3c3d 5304 f6bd
00000010: bab0 febd 4b53 aebe d6d4 8b3e 61c2 843e
00000020: 2dee babd c141 203e dbe6 473e 64d5 71be
00000030: 2c02 e83d 095f bbbe c9e1 ddbe e884 1dbe
00000040: 3ac5 463e c3e2 783d f88b e2be d7bf 653c
00000050: 80bf 463e 907d e7be c212 d9bc b22a 86be
00000060: c03f 04bf 9e99 f5bd 85cc b63e de87 0c3e
00000070: 3337 85be e95a 303e c8b5 6ebe 463b ee3f
00000080: c8d8 84bc d95e 47be ac00 b3be e94e ebbe
00000090: 8e8e 0fbf 89bd 85be 4fb3 adbe 5528 8dbe
000000a0: b1e3 c3be d4c9 1abf db7d f5be 4a55 903e
000000b0: f831 20bf 0414 1ebf beed 01bf da5a b0be
000000c0: 27dd 763f f145 2bbe 0c1c 19bf 8ac1 0dbe
000000d0: e2f8 943e b540 b1be 149f c5be 5fe9 62be
000000e0: f830 5f3e 3079 443d 5592 253e 577d 7f3d
000000f0: ea09 a1be af9d 2d3e 2281 883d 2788 87be
00000100: 4f82 873e 620e 25be 283b cdbe 3431 9b3e
00000110: e07d 7dbe c3f0 9a3e ecbf 013e ef40 65bb
00000120: ec33 2cbe 8239 b7be 6bbe b1bd 9315 bdbd
00000130: cc31 b2be 18c3 1dbe 04c9 833e b1b8 9dbd
00000140: 9748 90be 2f13 b0be 371d 7c3e faba 913e
00000150: 64e3 69be 2b5f 5e3e fc7f 9f3d a0d9 39be
00000160: 0e85 693e 51c3 923e 7f5f b0bd 1f25 edbd
00000170: 428e fcbd a80d 293e cdd3 95be b6ce d23d
00000180: 7da5 42be e153 063e 488c c8bd 2ca6 3dbe
00000190: 19d7 39bc 39dd 6dbc b607 653e 32bf 40be
000001a0: 837a 38be 782a 89be 4b30 0fbf a7a0 debe
000001b0: f2b4 08bf 8bc6 d3be 2075 943d 662a 3fbe
000001c0: b050 30bd beea 6fbe 7045 bebe 3465 343d
000001d0: 6ca9 f23f 2aad 543f 4df2 05bf c93f 1f3c
000001e0: c414 93bd 59fb 123e 2fb1 223e 195d bcbd
000001f0: c453 763e c9ca 23be 9393 583d 56c3 a73c
00000200: 9b3f f9bd 768d d9bd eddb 49be d84b cb3c
00000210: edc8 0c3e 102d ff3a 2302 543f 0210 463e
00000220: f3fb a3be b8e4 e23d 720b 5dbe d639 793e
00000230: a639 cabe 18d7 64be 9fea 75be f24a 3ebe
00000240: a19a 7bbd 21f2 8fbd 37e2 87be 1cd8 f33d
00000250: 22e7 dfbd 77f6 41be 2cb5 a83e 6b4e 6f3e
00000260: 3c66 573e 2201 713f aa32 4a3e 327a d23d
00000270: dbb9 493d 15a9 bfbe 31d8 dd3d 1666 02be
00000280: 46aa 28bf 9661 85bd e051 a83f 917e 26bd
00000290: f8f1 b8be a360 12bf 9295 a23d 469b cebf
000002a0: ee21 0040 55e2 d9be 03be 2b3d b741 d83e
000002b0: e6a0 ac3e 6255 bf3e a81f 953e aeea c53e
000002c0: d680 9d3e 5376 173e 82e8 783d c4b9 c13d
000002d0: 30b9 773e 3dd3 623e 4efe b23e b638 d73e
000002e0: cb02 083f eeb9 8bbe b550 843e f444 143e
000002f0: 2e64 96be 3681 483e 2305 b7be e452 cabd
00000300: 9c65 32be 9b86 81be 34e9 7cbe 6709 053d
00000310: ca50 443e 7506 863e 70e5 03be d4e2 35be
00000320: de30 23be 7734 963e d2f2 3abe 6e4f fabd
00000330: d462 453e 809b 4bbe 5858 6e3e 06fd 343e
00000340: 602f bcbe 65b8 933d 7d34 96be 9636 42be
00000350: 4026 c8bc 9ed9 f33c 8418 273e b4ba 873e
00000360: 2757 33be 359f a53d a326 4c3f 4d01 b33d
00000370: c6ba 133d b216 5bbe 7951 eb3c 0ea3 873e
00000380: 1700 80be 18c8 4bbe 9e5d 84be fd16 aebe
00000390: a28b b73e 0c0a 833e c306 a9be fa2c 603e
000003a0: 3544 40bd 6f5e 64be c391 c73d c60e bdbc
000003b0: 08b0 d93d 9e24 c0be b49c f7be 356d 2bbe
000003c0: 2935 00bf e1fd 22be e522 afbe de49 1abe
000003d0: ca2d c43c 616c 543e 1a47 83bd 0161 1bbf
000003e0: ba39 aa3d 24f6 17be be10 303e 860e 503d
000003f0: 6e68 b540 2b52 d43e 39a6 d3be f44e 24be

rnn.weight_hh_l0 f4 [32, 8]
0.19950603 0.0365632 -0.3205375 -0.2921277 -0.042165056 -0.38514304 0.0054045515 -0.30900106
0.37251246 0.3142046 -0.09711072 0.028648918 -0.06010165 0.026525827 1.0021455 0.12944517
0.11786501 -0.5664827 0.13174146 -0.19180441 -0.12421041 -0.3043095 -0.3857782 -0.15034612
-0.38957763 0.16083719 0.15416625 -0.18006079 -0.04925662 0.19052844 -0.24976486 0.32599398
-0.030777743 -0.25445533 -0.11738262 -0.2063997 0.13340081 0.18402168 0.14880283 0.30102074
-0.18919855 0.033503484 0.20788747 -0.32509065 -0.19161776 -0.21500167 -0.14785731 -0.04853261
-0.51930714 2.911423 -0.21505769 0.6213986 0.033544276 0.045626774 -2.118385 -0.78253525
-0.01690078 -0.24173641 -0.21455278 0.18623906 -0.2203716 0.16529636 0.3807083 -0.17906913
0.22932218 -0.2677173 -0.017683994 -0.05466356 -0.0063679633 0.2565348 -0.28611365 0.27989963
-0.072896294 0.6983646 0.22768593 -0.30662155 -0.1094401 -0.2452131 2.089565 0.5891195
-0.119983144 1.2153076 0.7376672 0.25577068 -0.33916786 0.45792288 -0.59877 0.80263317
0.28967324 -0.22834969 0.101718925 0.29273537 0.27508244 0.28274938 0.01600658 -0.16911028
0.24581462 -0.275533 0.027062446 0.3164301 0.08191894 -0.28939554 0.21857221 -0.21557723
0.06310362 0.30891058 -0.13507292 0.16643037 0.09662998 0.19348904 -0.3144922 0.0904442
-0.29771826 0.76832986 0.36553702 0.20254385 0.30773088 -0.15261354 -2.349905 0.08693346
-0.35572776 0.4015489 0.1405547 0.04235044 0.23041287 0.2307133 -0.11943245 -0.059691757
0.28488448 0.06330121 -0.20258324 -0.05276342 -0.035036106 -0.27421656 0.16837904 0.06256758
0.21394467 0.2743982 -0.28289902 -0.3042818 -0.058121357 -0.22633061 0.16860475 -0.30920184
-0.5344319 0.14287007 0.70050967 -0.171673 0.41625756 -0.2062326 -1.6341157 0.86495084
-0.20140882 -0.06436649 -0.12143226 0.20046651 -0.12982097 0.17972527 0.19076112 0.10205549
-0.080039635 0.19671607 0.28185824 -0.18985417 -0.03246531 0.09445335 0.085431755 0.30196047
0.26085836 -0.4320707 0.06605999 -0.10546107 0.31718248 -0.21282434 0.37884307 -0.010239095
-0.30137965 1.2295886 -0.44908762 0.15231405 0.07923687 -0.03151129 0.59872866 -0.012395839
-0.2847999 -0.16981883 -0.12774578 0.22848068 0.1088284 0.33380303 -0.32632378 -0.12949182
-0.18789221 0.17088725 -0.31156993 -0.12297574 -0.01932129 0.30990696 0.034054536 0.36511716
0.18741299 0.069080815 0.4826026 0.05577943 -0.31489393 -0.051559128 1.3039289 0.033805203
-0.2230984 -0.4418396 0.09748779 -0.29909983 0.28142646 -0.16951077 -0.37360042 0.34289306
-0.095833115 -0.19149724 -0.28973445 0.15559928 -0.26257023 0.056034297 0.20360543 -0.12114517
-0.08723263 -0.18412785 0.15843163 0.34754574 0.27118817 0.2416898 0.21487668 0.029302094
0.14967804 0.024366466 0.17303771 0.20377077 -0.11928379 -0.3823868 0.16169366 0.014058809
-0.29957733 2.7063003 -0.19707635 0.22280616 0.035823856 -0.013380221 -3.3483827 -0.44614798
-0.020350294 -0.14582355 -0.28904822 0.019967198 -0.24353582 0.034377646 -0.23242027 -0.25532886
00000000: 4f4b 4c3e 4bc3 153d 7e1d a4be c391 95be
00000010: 44b5 2cbd 7831 c5be aa18 b13b 6335 9ebe
00000020: f4b9 be3e 6ddf a03e fce1 c6bd 23b1 ea3c
00000030: 262d 76bd b14c d93c 4e46 803f 468d 043e
00000040: 3663 f13d 0305 11bf 3ce7 063e 6068 44be
00000050: 0762 febd 74ce 9bbe b884 c5be 55f4 19be
00000060: b876 c7be 81b2 243e c2dd 1d3e db61 38be
00000070: 4fc1 49bd e319 433e 5cc2 7fbe afe8 a63e
00000080: 9b21 fcbc f847 82be 4d66 f0bd 715a 53be
00000090: 399a 083e 2e70 3c3e c55f 183e 641f 9a3e
000000a0: 44bd 41be f33a 093d 74e0 543e 4872 a6be
000000b0: 7237 44be 6629 5cbe e867 17be 21ca 46bd
000000c0: 50f1 04bf c154 3a40 1538 5cbe fb13 1f3f
000000d0: b965 093d 24e3 3a3d 9f93 07c0 3b54 48bf
000000e0: 8173 8abc c089 77be b9b3 5bbe 74b5 3e3e
000000f0: 18a9 61be 7343 293e 33ec c23e e65d 37be
00000100: 6fd3 6a3e 3e12 89be 06de 90bc e6e6 5fbd
00000110: 59aa d0bb 8858 833e 7d7d 92be 014f 8f3e
00000120: a74a 95bd 06c8 323f 8026 693e 80fd 9cbe
00000130: 2222 e0bd 2519 7bbe 6fbb 0540 89d0 163f
00000140: b9b9 f5bd 338f 9b3f c2d7 3c3f 60f4 823e
00000150: 69a7 adbe de74 ea3e fe48 19bf 5e79 4d3f
00000160: 0d50 943e 80d4 69be 0352 d03d 69e1 953e
00000170: 9bd7 8c3e 87c4 903e 3b20 833c 3f2b 2dbe
00000180: d4b6 7b3e a912 8dbe 10b2 dd3c 2003 a23e
00000190: 1ec5 a73d a72b 94be 65d1 5f3e 47c0 5cbe
000001a0: 793c 813d 8729 9e3e 8e50 0abe b96c 2a3e
000001b0: f0e5 c53d fe21 463e 1f05 a1be cf3a b93d
000001c0: 876e 98be 44b1 443f ab27 bb3e a867 4f3e
000001d0: e78e 9d3e b946 1cbe d864 16c0 2b0a b23d
000001e0: f321 b6be d197 cd3e 92ed 0f3e a877 2d3d
000001f0: 5af1 6b3e 1b40 6c3e 0099 f4bd 587f 74bd
00000200: 61dc 913e 11a4 813d fb71 4fbe 751e 58bd
00000210: 0582 0fbd 1d66 8cbe 8e6b 2c3e 6e23 803d
00000220: 5014 5b3e ec7d 8c3e 24d8 90be d3ca 9bbe
00000230: a910 6ebd 36c3 67be b9a6 2c3e b44f 9ebe
00000240: 87d0 08bf 884c 123e 9a54 333f 0ccb 2fbe
00000250: b61f d53e a42e 53be b42a d1bf 6b6d 5d3f
00000260: 1d3e 4ebe 94d2 83bd 7ab1 f8bd 1847 4d3e
00000270: caef 04be e709 383e e256 433e 7802 d13d
00000280: d2eb a3bd f06f 493e b94f 903e 2269 42be
00000290: 58fa 04bd c270 c13d d8f6 ae3d 909a 9a3e
000002a0: 3a8f 853e 5f38 ddbe 764a 873d f9fb d7bd
000002b0: be65 a23e a0ee 59be b8f7 c13e e1c1 27bc
000002c0: 6f4e 9abe 2963 9d3f d0ee e5be 37f8 1b3e
000002d0: f146 a23d fc11 01bd 4846 193f eb17 4bbc
000002e0: 4bd1 91be fde4 2dbe cacf 02be d7f6 693e
000002f0: 6de1 de3d 3be8 aa3e e913 a7be 8199 04be
00000300: d166 40be 11fd 2e3e 1886 9fbe b4da fbbd
00000310: af47 9ebc 20ac 9e3e c57c 0b3d a3f0 ba3e
00000320: 31e9 3f3e 3e7a 8d3d b017 f73e f978 643d
00000330: c739 a1be aa2f 53bd 24e7 a63f 5377 0a3d
00000340: e873 64be cd38 e2be aea7 c73d 9d23 99be
00000350: 2117 903e 3b94 2dbe 8e48 bfbe ae8f af3e
00000360: 2744 c4bd da17 44be 1358 94be 6b55 1f3e
00000370: 9b6f 86be 3884 653d f17d 503e f51a f8bd
00000380: 05a7 b2bd 038c 3cbe e73b 223e 84f1 b13e
00000390: 2dd9 8a3e 887d 773e a208 5c3e f20a f03c
000003a0: 3345 193e 2f9c c73c cc30 313e 49a9 503e
000003b0: 0f4b f4bd 34c8 c3be 0693 253e eb56 663c
000003c0: 3362 99be 0634 2d40 62ce 49be 4c27 643e
000003d0: 09bc 123d b738 5bbc e74b 56c0 826d e4be
000003e0: a9b5 a6bc c552 15be 21fe 93be 4092 a33c
000003f0: 7461 79be 93cf 0c3d 94ff 6dbe 77ba 82be

rnn.bias_ih_l0 f4 [32]
-0.34315324 -0.065778464 -0.058035217 -0.2773691 0.10506069 -0.17149357 -0.5332857 -0.1481459
0.016872486 -0.20943488 0.7259009 -0.36952642 -0.26711136 -0.38186583 -0.01716071 -0.19036768
-0.3175223 -0.050759334 0.05588634 -0.06939217 -0.33881083 0.048084002 -0.12169936 8.113118e-05
0.23847876 0.23611233 -0.22639726 0.031779632 -0.3135429 -0.06546463 0.19786811 -0.34821966
00000000: c8b1 afbe dcb6 86bd 56b6 6dbd 5303 8ebe
00000010: 0f2a d73d 039c 2fbe 6985 08bf 8fb3 17be
00000020: 2b38 8a3c 1976 56be a4d4 393f 9132 bdbe
00000030: d2c2 88be eb83 c3be 9e94 8cbc bfef 42be
00000040: 4892 a2be 05e9 4fbd 13e9 643d 7b1d 8ebd
00000050: 9d78 adbe bbf3 443d 843d f9bd f824 aa38
00000060: c733 743e 6ec7 713e afd4 67be 5c2b 023d
00000070: b288 a0be 5212 86bd f09d 4a3e d949 b2be

rnn.bias_hh_l0 f4 [32]
0.16415845 -0.3717222 -0.3536906 -0.21541937 -0.11500313 -0.11469292 -0.049771648 0.14635389
-0.21027151 0.18124245 0.8210818 0.118175074 -0.38074923 0.1318822 -0.14799884 -0.4213318
0.28769097 0.3191102 0.022801021 0.2837472 -0.19696791 0.22119218 0.039444935 0.07059118
-0.30976197 -0.13261628 -0.17991047 0.036233317 -0.3746108 0.20007122 -0.16230315 -0.003440228
00000000: 2719 283e 5f52 bebe ef16 b5be e596 5cbe
00000010: c386 ebbd 1fe4 eabd 5bdd 4bbd cbdd 153e
00000020: 6a51 57be 9f97 393e 6b32 523f c605 f23d
00000030: 90f1 c2be 210c 073e 028d 17be cdb8 d7be
00000040: 3b4c 933e 6a62 a33e 35c9 ba3c 5047 913e
00000050: f5b1 49be 3480 623e 0391 213d 1c92 903d
00000060: 1f99 9ebe 90cc 07be 733a 38be 6369 143d
00000070: fdcc bfbe 78df 4c3e cc32 26be 7375 61bb

reg.0.weight f4 [8, 8]
0.06528694 0.14928314 -0.31298766 0.11351407 -0.021673953 -0.120160006 0.11336898 0.079837315
-0.22749275 -0.14384964 0.17669395 -0.12808734 0.03224283 0.1399635 -0.35312012 0.07859109
-0.021066617 -0.24435592 0.32926178 -0.23914991 -0.3170568 0.14811966 0.08492087 -0.0071336706
-0.28968 -0.27072552 -0.19196162 0.14041527 0.13409223 -0.18555339 0.0671222 -0.02116022
-0.24218348 -0.15503635 -0.21781726 0.08915675 -0.31850436 -0.17168783 0.21339487 -0.03876594
-0.12353207 -0.02978535 0.008952122 -0.07047326 0.33108708 0.35598895 -0.009522304 -0.08659003
0.11220844 -0.43779144 0.09866848 0.03126332 -0.0127533795 0.064460844 -0.30215046 -0.396746
0.1873066 0.25766483 0.022900114 -0.09482794 -0.17606537 -0.081574515 -0.0807627 -0.108227305
00000000: 29b5 853d aedd 183e eb3f a0be 117a e83d
00000010: 938d b1bc 7316 f6bd ff2d e83d bf81 a33d
00000020: dcf3 68be 524d 13be 42ef 343e 5429 03be
00000030: 0f11 043d 9752 0f3e 29cc b4be 5ef4 a03d
00000040: e693 acbc 7038 7abe 0095 a83e b7e3 74be
00000050: 4555 a2be aeac 173e feea ad3d 91c1 e9bb
00000060: f050 94be 899c 8abe 9691 44be 05c9 0f3e
00000070: 794f 093e b501 3ebe 5d77 893d 3358 adbc
00000080: f2fe 77be d9c1 1ebe 7d0b 5fbe d097 b63d
00000090: 0113 a3be efce 2fbe 2f84 5a3e 09c9 1ebd
000000a0: 62fe fcbd 6800 f4bc ecab 123c 4954 90bd
000000b0: 3f84 a93e 2f44 b63e 7003 1cbc 1d56 b1bd
000000c0: 8acd e53d 3326 e0be b312 ca3d f80d 003d
000000d0: 8df3 50bc 0c04 843d 77b3 9abe 4b22 cbbe
000000e0: 4dcd 3f3e a5ec 833e 0599 bb3c 2735 c2bd
000000f0: 7b4a 34be 8a10 a7bd ea66 a5bd 47a6 ddbd

reg.0.bias f4 [8]
0.20516779 0.2946423 -0.28697827 0.107205294 0.30521086 0.06610322 0.17906578 -0.0015172879
00000000: 8117 523e 5bdb 963e d1ee 92be 738e db3d
00000010: 9944 9c3e 2061 873d 055d 373e bcdf c6ba

reg.2.weight f4 [1, 8]
-0.13780299 -0.34080303 -0.13893905 -0.14639042 0.22776967 0.19516975 -0.07557664 -0.13719988
00000000: 3a1c 0dbe bc7d aebe 0a46 0ebe 5fe7 15be
00000010: 743c 693e 94da 473e edc7 9abd 207e 0cbe
