Learning Models/LSTM/models/SLAppV-net.pth (torch, 6095 bytes, 7 tensors)

rnn.weight_ih_l0 f4 [32, 17]
-0.11326205 -0.1855996 -0.018108394 0.03628537 0.18666497 0.050286517 -0.02192524 0.09552782
-0.018946333 0.7264711 0.09159282 -0.28274402 -0.35857573 0.028125511 0.4752573 0.38104108
0.42225128 0.015875883 0.13469781 -0.16780813 -0.12968859 -0.023904322 0.22336212 0.10005805
0.18277413 -0.20639813 0.030898016 -0.13776368 0.22092742 0.06478102 -0.15026377 0.0037401754
-0.18612145 -0.042198114 -0.28223705 -0.09818134 0.27947927 0.0962361 -0.3737861 0.17287101
0.19940099 -0.2593452 -0.15689364 0.06945063 0.28031197 0.28102875 0.020946562 -0.20938252
0.09427112 0.29977828 -0.064844355 0.22166152 0.0012233428 -0.13357529 -0.5263189 -0.46676663
-0.45367187 -0.16928415 -0.50341684 -0.3385838 -0.30519736 -0.15302306 -0.12080677 -0.40030885
0.015669946 -0.26403508 1.2072521 -0.43522933 -0.15497293 0.19905438 0.20620632 -0.15275727
-0.22207211 0.25218287 0.024354352 0.17642322 0.1271107 0.7560833 0.39749086 0.091325335
-0.023257168 0.16234554 0.15597287 0.13053368 0.2084605 0.23549816 0.022391751 -0.18631326
0.2256155 -0.047136012 -0.0015091932 0.22484657 0.43739864 0.011715664 -0.07163459 0.14180666
0.32622927 -0.38005567 -0.23269027 0.18750572 -0.3953899 0.22048637 0.11565268 0.23144679
-0.044801936 -0.2777792 0.2944369 -0.23360698 0.07593468 0.23597811 0.12391275 -0.087806806
-0.27192113 -0.07827423 -0.27042732 0.08236543 -0.28940278 -0.07005756 -0.2393532 -0.002296648
0.1992787 -0.30363867 -0.07934399 -0.36003098 -0.11952553 0.11424102 -0.61262923 -0.32510367
0.27419958 -0.06163702 -0.41954505 0.22902489 -0.24438274 0.503765 0.29872835 0.082277365
0.2728299 0.10301007 0.52561796 0.13874483 0.24308236 0.4587722 0.12658134 -0.010563457
0.40838537 0.46565917 -0.102083996 0.27386218 0.0035929952 -0.24064186 0.2745418 0.59465826
0.2585916 0.22459207 0.22994074 0.4172874 0.08642216 -0.15073371 0.17384847 -0.30790204
0.37581062 -0.37377623 0.24806736 -0.13685663 0.044491153 -0.3114779 0.24243294 0.17055912
-0.025830025 0.6294562 -0.23288117 0.09115712 -0.19545566 -0.06878841 0.06948334 0.24959917
0.054379027 0.118907996 -0.30289215 0.062470358 0.25007367 0.07545636 0.21586518 0.29106367
0.5547838 0.089562945 0.17574207 0.5815663 0.41895917 0.08495546 0.45597312 0.09317506
0.54240113 0.52974546 -0.10338708 0.28274557 0.42329708 0.02287185 0.1162184 0.16263145
0.33586565 0.21432836 -0.45534638 0.027268453 0.23105362 -0.1523696 -0.29127848 0.12765922
0.27733114 0.3086924 -0.2406898 -0.035311453 0.22848026 -0.08694778 -0.2591378 -0.20525926
0.19827917 -0.25646317 0.6032756 0.4829229 0.17495985 0.24386728 0.36369842 0.059099108
0.09481571 0.29197195 -0.26427585 0.05069067 0.28795302 0.08457648 0.10947072 -0.17415679
-0.19474287 -0.1234847 0.22595003 -0.53555673 -0.6194647 0.15290624 -0.24351321 0.16473338
-0.18455455 0.2656401 0.16377297 0.18534902 -0.019063063 -0.2810311 0.13018863 -0.18585385
-0.29857832 0.2960791 0.09328765 0.31408677 -0.10656212 0.21990794 -0.041923795 0.049855117
00000000: eff5 e7bd d20d 3ebe 0e58 94bc f89f 143d
00000010: 1a25 3f3e 3cf9 4d3d 909c b3bc 17a4 c33d
00000020: 5735 9bbc 03fa 393f 0495 bb3d d3c3 90be
00000030: 3d97 b7be 7967 e63c ed54 f33e d117 c33e
00000040: 5231 d83e 240e 823c 39ee 093e e5d5 2bbe
00000050: 16cd 04be ffd2 c3bc 0ab9 643e 3ceb cc3d
00000060: 2429 3b3e 085a 53be d61d fd3c ec11 0dbe
00000070: cc3a 623e e9ab 843d bfde 19be bb1d 753b
00000080: 9f96 3ebe eed7 2cbd 6081 90be 4c13 c9bd
00000090: e817 8f3e 6f17 c53d e460 bfbe 1905 313e
000000a0: c62f 4c3e e5c8 84be baa8 20be 223c 8e3d
000000b0: 0d85 8f3e 00e3 8f3e 2098 ab3c 5f68 56be
000000c0: 3811 c13d 8a7c 993e 1ecd 84bd 3dfb 623e
000000d0: 9358 a03a f6c7 08be d6bc 06bf 09fc eebe
000000e0: ae47 e8be d358 2dbe eddf 00bf db5a adbe
000000f0: d442 9cbe 14b2 1cbe 8a69 f7bd 48f5 ccbe
00000100: 425e 803c 9b2f 87be 3d87 9a3f 61d6 debe
00000110: 39b1 1ebe e9d4 4b3e c027 533e 676c 1cbe
00000120: df66 63be 1d1e 813e c782 c73c 4aa8 343e
00000130: 4f29 023e ad8e 413f ec83 cb3e c708 bb3d
00000140: d185 bebc e93d 263e 5ab7 1f3e 9faa 053e
00000150: ab76 553e 6e26 713e e86e b73c e7c8 3ebe
00000160: c007 673e b111 41bd 1fd0 c5ba 2e3e 663e
00000170: b7f2 df3e 0ef3 3f3c 28b5 92bd c435 113e
00000180: 8607 a73e a896 c2be 5c46 6ebe 8001 403e
00000190: 8c70 cabe 2ec7 613e 50db ec3d 6300 6d3e
000001a0: 3c82 37bd 1339 8ebe 6fc0 963e ab36 6fbe
000001b0: a483 9b3d 3fa4 713e f8c5 fd3d 0ed4 b3bd
000001c0: 3f39 8bbe 3d4e a0bd 7375 8abe 35af a83d
000001d0: 9a2c 94be 577a 8fbd 0119 75be 5c83 16bb
000001e0: b70f 4c3e 8776 9bbe 1a7f a2bd fb55 b8be
000001f0: cdc9 f4bd 32f7 e93d 45d5 1cbf fd73 a6be
00000200: e363 8c3e 1a77 7cbd 9cce d6be 8085 6a3e
00000210: 783f 7abe bef6 003f ecf2 983e 0981 a83d
00000220: 5cb0 8b3e f2f6 d23d e68e 063f 2013 0e3e
00000230: 95ea 783e 31e4 ea3e 8a9e 013e 5a12 2dbc
00000240: e317 d13e e16a ee3e 6a11 d1bd aa37 8c3e
00000250: 7578 6b3b d26a 76be be90 8c3e 863b 183f
00000260: 1e66 843e 77fb 653e 9675 6b3e b2a6 d53e
00000270: 1afe b03d f059 1abe 5505 323e 56a5 9dbe
00000280: 406a c03e 995f bfbe 5f05 7e3e 2524 0cbe
00000290: 5b3c 363d 087a 9fbe 5740 783e 0da7 2e3e
000002a0: 7d99 d3bc 0b24 213f 6778 6ebe 96b0 ba3d
000002b0: 8725 48be f0e0 8cbd 484d 8e3d ed96 7f3e
000002c0: 8bbc 5e3d 0986 f33d ae14 9bbe ebe0 7f3d
000002d0: a809 803e dd88 9a3d c30b 5d3e 4c06 953e
000002e0: 5006 0e3f c76c b73d bbf5 333e 87e1 143f
000002f0: d181 d63e 21fd ad3d 4f75 e93e 91d2 be3d
00000300: cdda 0a3f 669d 073f 9bbc d3bd 07c4 903e
00000310: 65ba d83e bf5d bb3c ea03 ee3d dc88 263e
00000320: 95f6 ab3e e578 5b3e 2923 e9be 1762 df3c
00000330: 5299 6c3e c706 1cbe 7422 95be 19b9 023e
00000340: 59fe 8d3e ee0c 9e3e 6377 76be bea2 10bd
00000350: bbf6 693e ad11 b2bd b6ad 84be 7c2f 52be
00000360: b209 4b3e 244f 83be 4570 1a3f ac41 f73e
00000370: ad28 333e 58b8 793e ae36 ba3e e811 723d
00000380: bd2e c23d 597d 953e 2a4f 87be 05a1 4f3d
00000390: 946e 933e 6f36 ad3d 2f32 e03d 2856 32be
000003a0: ad6a 47be 8ce5 fcbd 725f 673e 3f1a 09bf
000003b0: 3d95 1ebf 7493 1c3e 875b 79be deaf 283e
000003c0: defb 3cbe fb01 883e 1ab4 273e 22cc 3d3e
000003d0: 242a 9cbc 4fe3 8fbe 2b50 053e 7950 3ebe
000003e0: 42df 98be ae97 973e 980d bf3d fbcf a03e
000003f0: 3e3d dabd 8c2f 613e 49b8 2bbd e134 4c3d

rnn.weight_hh_l0 f4 [32, 8]
0.08142879 -0.16065797 -0.17425424 -0.10409977 0.9503699 0.43573582 0.25216952 -0.30521637
0.23293695 0.17045718 0.22724822 0.48964828 -0.19296393 -0.01298168 0.0041148667 -0.4031772
0.036624435 0.30533075 0.17646064 0.53781027 0.064089164 -0.07571343 0.27956185 -0.23223846
-0.19128083 -0.17549466 -0.0011906967 1.3723559 -0.60860026 -0.44577327 -0.22100864 1.7155193
-0.226049 0.066535085 -0.15942645 0.7416405 -0.37521988 0.2595667 0.011654041 0.26619864
0.12924504 -0.24589649 0.20962062 -0.37106714 -0.109718144 0.19622338 -3.0608498e-07 -0.15745014
0.01974394 -0.36787575 -0.13296047 0.80741763 -0.34780848 -0.15965614 -0.3783394 0.87177324
0.22963092 -0.16577771 0.089094974 0.12932126 0.8093663 0.6472703 -0.1585223 -0.455288
-0.19051315 0.24640112 -0.3416143 0.009524319 0.57233244 -0.016232375 0.18677521 0.46937144
0.38017058 0.35938546 -0.092661604 0.17953074 0.11562485 0.26046583 0.30101994 -0.22145954
-0.16283467 0.08010463 -0.017175708 0.23787309 0.157809 0.44695 -0.271004 -0.37154827
0.31704217 -0.77683216 0.8718718 1.1552857 -0.46375647 0.13526486 -0.53185356 0.49577752
-0.09274282 -0.0550325 0.40802512 0.93322784 0.18861242 0.35319966 -0.3435244 -0.10038596
0.23364227 -0.28895319 -0.30899557 -0.43900433 0.4877513 0.080723986 0.25070038 -1.1195992
-0.02989459 0.063037746 -0.03047024 0.63088816 -0.13823465 -0.21593823 -0.7154641 0.2688021
0.16170645 0.34525502 0.11750856 -0.1849023 0.7055911 0.4041428 0.12612416 0.03653145
-0.090922296 -0.0075887274 0.18268348 0.25086367 0.3197876 0.13447398 -0.24247865 0.39684483
-0.33626276 -0.30458423 -0.037411697 -0.18514043 0.11040706 0.24010678 0.5452719 -0.22338311
-0.28105524 -0.20261513 0.03440677 0.6311372 0.38706076 0.22666879 -0.23946124 -0.09390812
0.24212483 0.0179286 0.13576993 0.41922846 -0.16562253 0.07347322 -0.35285068 0.32342064
0.31773603 -0.028367769 -0.22759204 -0.22951803 0.65502733 0.3890342 0.628989 -0.024826555
-0.077701814 0.25495082 0.16643022 -0.17076313 0.23626427 -0.25407663 0.056662425 -0.3914249
-0.109369345 -0.12558849 -0.26691407 -0.50956285 0.21690378 -0.30691242 0.03779296 -0.90431553
-0.23497455 0.0064945477 0.41084182 0.47862804 -0.181737 0.34870514 -0.32915697 -0.091487706
0.485017 -0.42138663 -0.457157 -0.23752806 0.23346794 0.26066977 0.33240527 0.5859675
0.18773955 0.25699532 0.06973117 -0.24326907 0.34346262 0.32835814 0.4331686 -0.09598839
-0.07346012 0.15780851 0.17486848 0.2881333 0.078943275 -0.10753004 0.1430487 0.017473632
0.04796299 -0.33236355 0.6030682 1.0147738 -0.4931893 -0.24762931 -0.40632716 0.89249283
0.29303157 0.3838597 0.09438659 0.7235627 0.09841351 0.15562558 -0.23832299 -0.1714826
-0.21221685 0.19366352 -0.30070832 -0.060366645 0.6219845 0.2264908 0.44168973 0.21578552
0.003064489 -0.23320286 0.28783375 0.6690905 0.25197896 -0.1141998 -0.2358296 -0.24529566
0.48506847 -0.17679694 -0.03763823 -0.17977661 0.5212516 0.62424976 0.07048233 0.19037583
00000000: 23c4 a63d 8683 24be b46f 32be 4332 d5bd
00000010: 714b 733f c418 df3e 5d1c 813e 5245 9cbe
00000020: 0687 6e3e 548c 2e3e c2b3 683e 2eb3 fa3e
00000030: 5698 45be 1db1 54bc 01d6 863b 3e6d cebe
00000040: 8103 163d 5054 9c3e 19b2 343e efad 093f
00000050: 2e41 833d a50f 9bbd bb22 8f3e ebcf 6dbe
00000060: 1fdf 43be dfb4 33be 2711 9cba 5ca9 af3f
00000070: 3acd 1bbf 653c e4be 1750 62be 2396 db3f
00000080: 6479 67be 8c43 883d b040 23be 27dc 3d3f
00000090: d21c c0be ede5 843e 97f0 3e3c 304b 883e
000000a0: d058 043e 4acc 7bbe caa6 563e 83fc bdbe
000000b0: e8b3 e0bd c8ee 483e 0054 a4b4 9c3a 21be
000000c0: 0bbe a13c 365a bcbe ca26 08be ecb2 4e3f
000000d0: f413 b2be e67c 23be b4b5 c1be 882c 5f3f
000000e0: 5e24 6b3e a2c1 29be 6d77 b63d cb6c 043e
000000f0: a132 4f3f 82b3 253f ab53 22be 821b e9be
00000100: e115 43be 9350 7c3e 12e8 aebe e40b 1c3c
00000110: 6184 123f c2f9 84bc 0042 3f3e 7451 f03e
00000120: b8a5 c23e 5f01 b83e 5ec5 bdbd e8d6 373e
00000130: b9cc ec3d c75b 853e 491f 9a3e 4ac6 62be
00000140: 22be 26be e50d a43d 12b4 8cbc 0195 733e
00000150: af98 213e a1d6 e43e 09c1 8abe 933b bebe
00000160: 5a53 a23e 79de 46bf fe32 5f3f 67e0 933f
00000170: 7d71 edbe df82 0a3e 8e27 08bf 8dd6 fd3e
00000180: f3ef bdbd c269 61bd abe8 d03e 05e8 6e3f
00000190: 9d23 413e 96d6 b43e 6ee2 afbe 2797 cdbd
000001a0: eb3f 6f3e acf1 93be ab34 9ebe 2dc5 e0be
000001b0: 8aba f93e 9e52 a53d cd5b 803e 074f 8fbf
000001c0: 80e5 f4bc ef19 813d ba9c f9bc e381 213f
000001d0: 628d 0dbe e91e 5dbe a828 37bf 6ea0 893e
000001e0: 6096 253e 44c5 b03e 54a8 f03d 0757 3dbe
000001f0: 9ea1 343f ceeb ce3e b126 013e 00a2 153d
00000200: 7835 babd dcaa f8bb 6111 3b3e 3471 803e
00000210: 33bb a33e 8cb3 093e 534c 78be 3f2f cb3e
00000220: a22a acbe 77f2 9bbe 023d 19bd 7495 3dbe
00000230: 191d e23d 8dde 753e f096 0b3f 8bbe 64be
00000240: 79e6 8fbe 577a 4fbe 1dee 0c3d 3592 213f
00000250: d42c c63e dd1b 683e 5435 75be e752 c0bd
00000260: 92ef 773e 00df 923c 4607 0b3e 1da5 d63e
00000270: f498 29be 2179 963d d8a8 b4be 6497 a53e
00000280: 4cae a23e 8663 e8bc e30d 69be c606 6bbe
00000290: dfaf 273f 7e2f c73e 6c05 213f 0f61 cbbc
000002a0: 2122 9fbd ea88 823e af6c 2a3e 88dc 2ebe
000002b0: 43ef 713e 5516 82be dc16 683d d868 c8be
000002c0: 09fd dfbd 459a 00be f6a8 88be b672 02bf
000002d0: 061c 5e3e a023 9dbe cacc 1a3d 3981 67bf
000002e0: 2b9d 70be 37d0 d43b dc59 d23e bc0e f53e
000002f0: 4419 3abe 7b89 b23e 4387 a8be e85d bbbd
00000300: 2654 f83e fdbf d7be 7b10 eabe 8e3a 73be
00000310: 3812 6f3e 8276 853e 0631 aa3e f701 163f
00000320: cc3e 403e e494 833e 37cf 8e3d 871b 79be
00000330: 55da af3e 8f1e a83e 46c8 dd3e 9095 c4bd
00000340: 4272 96bd 8e98 213e b910 333e 3586 933e
00000350: 03ad a13d b638 dcbd 5c7b 123e dd24 8f3c
00000360: d774 443d 8e2b aabe ad62 1a3f 1ce4 813f
00000370: 4f83 fcbe 8a92 7dbe 1d0a d0be 697a 643f
00000380: 3c08 963e 4289 c43e c24d c13d 683b 393f
00000390: 068d c93d 505c 1f3e f10a 74be 2299 2fbe
000003a0: 604f 59be bb4f 463e 71f6 99be 0443 77bd
000003b0: 603a 1f3f 34ed 673e 2825 e23e e1f6 5c3e
000003c0: 98d5 483b bbcc 6ebe f25e 933e 8449 2b3f
000003d0: 6303 813e 96e1 e9bd 517d 71be c92e 7bbe
000003e0: e55a f83e 420a 35be 8b2a 1abd 5c17 38be
000003f0: bf70 053f d5ce 1f3f 0a59 903d e2f1 423e

rnn.bias_ih_l0 f4 [32]
-0.10656797 0.25814945 0.082985274 -0.43522048 0.16196953 -0.115100704 0.3124586 -0.09132164
0.13429517 0.24662803 0.4301127 0.6635244 -0.24528088 -0.11904285 0.45078054 -0.27405083
0.12886348 -0.059832722 -0.2281743 0.27725157 -0.20228854 0.1527537 -0.033746228 -0.35202697
-0.020627404 0.062314905 0.08506708 -0.07680497 0.11033771 -0.23876807 0.13574992 0.26298058
00000000: 4f40 dabd 2a2c 843e 2ff4 a93d 38d5 debe
00000010: 57db 253e ebb9 ebbd 93fa 9f3e d706 bbbd
00000020: ac84 093e 0f8c 7c3e bb37 dc3e bcdc 293f
00000030: e92a 7bbe bdcc f3bd b5cc e63e 6450 8cbe
00000040: caf4 033e 2813 75bd 86a6 69be ebf3 8d3e
00000050: ba24 4fbe 776b 1c3e 7c39 0abd e13c b4be
00000060: cdfa a8bc ea3d 7f3d a637 ae3d ed4b 9dbd
00000070: bdf8 e13d 9e7f 74be 0702 0b3e 64a5 863e

rnn.bias_hh_l0 f4 [32]
-0.018123014 -0.111283146 -0.04894792 -0.1721584 0.33480495 0.36824444 0.035219744 0.26669437
-0.01684406 -0.07286788 0.17426959 0.36339486 -0.18565586 0.19477184 -0.06482278 -0.11778656
-0.06997573 0.10828254 0.2501607 -0.09148012 0.1706201 0.27489114 0.013412716 -0.23409455
-0.30908352 -0.23102765 -0.09708915 0.20669015 -0.32318848 -0.27474806 0.19119972 0.43171823
00000000: b776 94bc 6be8 e3bd 9d7d 48bd 4b4a 30be
00000010: 8e6b ab3e 898a bc3e 9442 103d 2a8c 883e
00000020: 8efc 89bc c13b 95bd ba73 323e e40e ba3e
00000030: 921c 3ebe 4572 473e cec1 84bd 143a f1bd
00000040: 6f4f 8fbd 3dc3 dd3d 1015 803e ee59 bbbd
00000050: 09b7 2e3e 88be 8c3e 02c1 5b3c 7bb6 6fbe
00000060: 3240 9ebe 8392 6cbe add6 c6bd 95a6 533e
00000070: f678 a5be c7ab 8cbe dcc9 433e 2c0a dd3e

reg.0.weight f4 [8, 8]
0.14490764 0.106073014 0.27778652 0.04474682 -0.2308415 -0.28786898 0.23537533 0.0848813
-0.02484803 -0.30982667 -0.20370023 -0.03827705 -0.23095529 0.08087281 0.30625364 -0.17419502
0.2602543 -0.009553007 0.3551226 -0.17681664 0.043388795 0.03359215 0.3090326 0.2724022
-0.06387314 -0.41234565 0.19189663 0.01696871 -0.200946 0.02401665 0.16954392 0.31630155
0.05866554 -0.17506084 -0.12056691 0.25644118 0.16386877 -0.18459558 -0.3748005 -0.15895651
0.17267045 0.04917625 0.25723097 0.118527025 0.13713107 -0.096759595 0.080023065 -0.29446095
0.105807215 0.31607828 0.2763676 -0.14873834 -0.25048217 0.036630694 0.2438043 0.051495414
0.40615228 -0.26045844 0.18683 -0.25951934 -0.18981895 -0.1877858 0.0007714174 -0.02416294
00000000: ab62 143e cf3c d93d 093a 8e3e 7148 373d
00000010: b761 6cbe 9063 93be 3b06 713e 3fd6 ad3d
00000020: 198e cbbc 9aa1 9ebe cb96 50be 65c8 1cbd
00000030: 8b7f 6cbe a5a0 a53d 47cd 9c3e 2e60 32be
00000040: 0d40 853e 3784 1cbc a1d2 b53e 6c0f 35be
00000050: 73b8 313d ec97 093d 8539 9e3e 4d78 8b3e
00000060: eccf 82bd f81e d3be 8d80 443e f701 8b3c
00000070: cac4 4dbe 91be c43c ec9c 2d3e 47f2 a13e
00000080: 474b 703d 2643 33be c9eb f6bd 424c 833e
00000090: 37cd 273e a006 3dbe dae5 bfbe 7fc5 22be
000000a0: 86d0 303e 096d 493d c7b3 833e 4cbe f23d
000000b0: 166c 0c3e e529 c6bd 22e3 a33d 96c3 96be
000000c0: 74b1 d83d 03d5 a13e 0e80 8d3e dd4e 18be
000000d0: 333f 80be 110a 163d d6a7 793e dbec 523d
000000e0: 31f3 cf3e cf5a 85be 5d50 3f3e b8df 84be
000000f0: e65f 42be ec4a 40be f238 4a3a 5cf1 c5bc

reg.0.bias f4 [8]
0.21707617 0.13372208 0.2119054 -0.23844612 -0.24566542 -0.11611216 -0.22053364 0.23705651
00000000: 3749 5e3e 71ee 083e bbfd 583e 382b 74be
00000010: b78f 7bbe 36cc edbd 92d3 61be f1be 723e

reg.2.weight f4 [1, 8]
-0.34014717 -0.05104545 -0.01870432 0.014605145 0.08862367 0.20959441 0.264747 -0.29759967
00000000: c527 aebe 0915 51bd cd39 99bc 6b4a 6f3c
00000010: 5480 b53d eb9f 563e eb8c 873e fc5e 98be
