Learning Models/LSTM/models/SLApp-net.pth (torch, 6095 bytes, 7 tensors)

rnn.weight_ih_l0 f4 [32, 17]
000000 c0 39 e6 be ff ec 98 bd 49 c6 29 bd 7e 18 c1 3c
       -0.44965935 -0.074670784 -0.041448865 0.02357125
000010 3a 03 a9 3d 26 93 43 bd f8 6d e3 bd 2b 2e 04 3d
       0.082525685 -0.047747754 -0.11104959 0.03227059
000020 80 34 ed be ba 34 0d bc 83 00 da bc 1f cd dc be
       -0.46329117 -0.008618528 -0.026611572 -0.43125245
000030 2d b2 e7 bd fa fa 9c 3c 78 dd 4a be 10 75 59 3d
       -0.11313281 0.019162644 -0.19811046 0.053090155
000040 e1 6e ab bd 23 4b 7d 3e d7 3c 29 be 80 8b ff 3d
       -0.08370758 0.24735694 -0.16527115 0.124777794
000050 13 e4 08 be e7 db 86 3e b7 ba a2 be a3 ad df bd
       -0.13368253 0.26339647 -0.31783077 -0.109217905
000060 7f 37 0b 3e 84 79 c8 be 93 4e 18 be 6f d1 81 3e
       0.13595389 -0.3915521 -0.14873724 0.25355098
000070 c7 00 5c be fe bc da be e5 0a 06 3d 00 32 a9 3c
       -0.21484672 -0.42722315 0.032725234 0.020653725
000080 e1 cb 5a be 6e 98 85 3e ee d4 31 3f e9 41 f4 3d
       -0.21366836 0.26092857 0.6946553 0.11926634
000090 88 6f 7f be 45 f9 ec 3d 71 8c d8 be a8 06 2f be
       -0.2494489 0.11570982 -0.42294648 -0.17092383
0000a0 8c 0f 01 bf a2 1f d0 bc 56 21 d5 be 18 0a 45 3f
       -0.5041435 -0.025405709 -0.41626996 0.76968527
0000b0 65 e0 e4 be 0d 6f 41 be d5 94 df be e9 1b eb be
       -0.4470245 -0.18890019 -0.43668237 -0.4591973
0000c0 f3 b1 24 3b 71 4b 54 3d 6d 64 0b 3f 72 f8 81 3e
       0.002513048 0.05182976 0.5445011 0.2538486
0000d0 4f 80 2f 3e 3c dd 7c be 38 c3 8b bd 06 f6 ba 3e
       0.1713879 -0.24693769 -0.068243444 0.36515826
0000e0 71 65 83 3d 7b d3 0e 3e ba 7c 96 3e 4c a7 29 3e
       0.06415833 0.13947861 0.29392034 0.16567725
0000f0 5b c5 27 3d 3f b7 c3 3e 64 4f 44 be 5a 9f 0b 3e
       0.040959697 0.38225743 -0.1917091 0.13635007
000100 09 29 a3 3d e2 3e 79 3d 90 d5 ce 3e b3 a8 a0 3e
       0.07966811 0.060850985 0.4039731 0.31378707
000110 26 d8 60 bd aa aa ae be 11 d3 99 3e b8 18 f4 bd
       -0.054893635 -0.3411458 0.30043843 -0.11918777
000120 e3 ea 98 3e 63 dc 8f 3e 1f 51 c1 3e d8 c9 87 bd
       0.29866704 0.2809783 0.37757203 -0.066302955
000130 3a c9 7a 3e ae 10 69 3e 52 67 d7 bb c2 08 21 3e
       0.24490824 0.22760269 -0.006573596 0.15725997
000140 0d 07 49 bd de fd 02 be 39 42 83 3d 7b 27 c3 bc
       -0.04907899 -0.12792155 0.06409115 -0.023822537
000150 59 0a aa 3d 16 42 bb be a3 eb 4e be f4 00 c5 bd
       0.08302755 -0.36573857 -0.20207076 -0.096193224
000160 92 b1 cd be fc 24 dc bc 4c 5b 62 be f4 a7 22 be
       -0.40174538 -0.026873104 -0.2210514 -0.15884382
000170 a3 e9 d0 bd 2b df 3e be 75 f7 49 be fc 7f f3 3c
       -0.10200813 -0.1863982 -0.19723304 0.029724114
000180 46 08 66 be 23 25 d3 be 62 fe d9 ba e9 9d 86 be
       -0.22464094 -0.4123927 -0.0016631598 -0.2629235
000190 ef 52 1d 3d d4 68 97 3c d8 c0 04 be 23 5e 9e be
       0.03840917 0.018482603 -0.12964189 -0.30931196
0001a0 cf 8c 97 be aa 0a 13 3e e4 83 6f 3e 11 04 fe bd
       -0.29599616 0.14359537 0.23390156 -0.12403119
0001b0 96 5c 43 bd a5 fd bc be c1 89 9f 3e 86 8b 2a bd
       -0.04769572 -0.36912265 0.31159785 -0.041636966
0001c0 55 bc 32 bc 48 c9 7f be 5b a6 53 bd b4 d4 99 be
       -0.01090916 -0.24979126 -0.05167232 -0.30045092
0001d0 21 26 7a 3e 10 9a 20 3e 0a c6 ca be 05 28 23 be
       0.24428608 0.1568377 -0.39604217 -0.15933235
0001e0 47 3c 8c be 85 fd d9 3b 18 30 1e be 65 08 56 3c
       -0.27389738 0.0066525363 -0.15448034 0.013063525
0001f0 c7 95 1a be 6a eb 56 3e eb 22 4d 3d 46 37 73 be
       -0.15096198 0.20988241 0.05008213 -0.23751554
000200 ce a5 96 be fc c9 0d 3c 0b 49 b4 be 81 33 b7 be
       -0.29423374 0.008654114 -0.35211977 -0.35781482
000210 3a eb f9 be f6 cb 23 3d b1 89 4f be dd 2b 40 be
       -0.48812276 0.039989434 -0.20267369 -0.18766733
000220 5c 37 da be a3 ff bc 3d 85 29 ce bd 2e e8 84 be
       -0.4262036 0.09228446 -0.10066513 -0.2595839
000230 8f 28 50 be ff b5 3c be be 49 b3 be cc 8a 1b 3e
       -0.20327972 -0.18428801 -0.35017198 0.15189666
000240 49 55 43 be 53 05 df be 8f ee a3 be 06 0e 7d 3e
       -0.19075502 -0.4355875 -0.32017943 0.24712381
000250 d4 5e d2 be f9 3a 83 3d 50 58 0d be 22 ac 49 3e
       -0.41087973 0.064077325 -0.1380322 0.1969457
000260 3a 41 94 be 58 ac 8b 3d 51 3e 8d bd 0f 5a 99 be
       -0.28956014 0.06819981 -0.068966515 -0.29951522
000270 59 1b 08 3e fd 40 19 3e 1d dd e8 3d 82 14 79 3e
       0.13291682 0.14966197 0.11370299 0.2432423
000280 24 c3 78 bd 6a 12 0a be 43 c8 85 be bc 3f 4d be
       -0.060732976 -0.13483587 -0.2612935 -0.20043844
000290 16 d4 44 be 32 2c c1 be 9a 34 be bd 00 95 a4 bd
       -0.1922153 -0.3772903 -0.09287377 -0.08036232
0002a0 06 d8 dc bd e6 42 4e 3e d4 b6 9b 3e 69 74 2b 3e
       -0.10783391 0.20142707 0.30412924 0.16743626
0002b0 1a 6e 1b 3e 6e 42 c8 3e 0e da 2a 3f 88 dc 0e 3f
       0.15178719 0.39113182 0.66738975 0.55805254
0002c0 7d 37 f7 3e 0a 8e f9 3e 1f a2 1a 3e f2 9f e8 3d
       0.48284522 0.4874118 0.15100907 0.11358632
0002d0 76 76 9a 3e 97 21 c5 3e 40 0f 1a 3e 1e 26 ce 3e
       0.30168504 0.3850219 0.1504488 0.40263456
0002e0 02 9b 1c 3d ed 54 36 3e 43 ac f3 3e 58 88 ae 3e
       0.038233764 0.17805834 0.47592363 0.34088397
0002f0 1b dc 97 3e 78 8b ac bd c0 d8 66 3e 60 67 8d 3e
       0.29660115 -0.08425039 0.22543621 0.2761793
000300 8b a4 5e be cd b8 1e be 49 a5 b5 3e d1 25 87 3c
       -0.21742456 -0.15500183 0.35477665 0.016497524
000310 ea 6f a2 3e 0f 89 81 3e 1d af 76 bd 99 ae d8 3e
       0.3172601 0.2529988 -0.060225595 0.42320707
000320 ae 73 89 3e 24 3b 1e bc 2a 44 a5 3d bd 98 ea 3e
       0.2684607 -0.009657655 0.08069642 0.45819655
000330 7d 23 9f 3d 43 82 1f 3e 22 2d 5c be 16 85 8d be
       0.07770441 0.15577035 -0.21501592 -0.276406
000340 99 f1 68 3c b5 f8 7c be 99 f8 3b bc 29 16 ad bb
       0.014217758 -0.24704249 -0.0114728445 -0.0052821827
000350 06 3e e8 3d 15 7e 5f 3d ad 39 b0 3d 8e dc a2 be
       0.11339955 0.0545636 0.08604751 -0.31808895
000360 0f 26 33 3e e1 66 a7 be 4f 16 a5 be 0a a3 f1 bd
       0.17494987 -0.32695678 -0.32243583 -0.11798675
000370 05 e2 45 be 1e 73 97 3d b6 f1 e3 be ff 65 89 bd
       -0.19324501 0.07395004 -0.44520348 -0.06708907
000380 2e fb cc bc e2 d3 b4 be 9e dc 44 3e b9 28 93 be
       -0.025022116 -0.35317904 0.19224784 -0.28742006
000390 dc f9 aa be bc 9e c3 bc 7a e3 9b bd ef 68 84 3d
       -0.33393753 -0.023879401 -0.07611747 0.06465327
0003a0 e4 29 2c bd 14 b4 39 3e 9d 3e 22 be 07 d0 a3 3c
       -0.042032138 0.181351 -0.15844198 0.019996656
0003b0 2f bd 04 be 1a 38 c5 be 9b 77 b8 3d aa 00 5d 3e
       -0.12962793 -0.38519365 0.09007188 0.21582285
0003c0 43 c4 89 be 23 e5 a9 be 5d 35 76 3d 3c 93 b2 be
       -0.26907548 -0.3318263 0.060109485 -0.34877956
0003d0 34 57 b8 be b9 35 80 3e bf 42 72 be 45 33 84 be
       -0.3600403 0.25040987 -0.23658274 -0.25820366
0003e0 f2 89 4f 3e 3b 43 1a be 2b 24 1d 3e 2d da 74 bc
       0.20267466 -0.15064709 0.15345828 -0.014944595
0003f0 33 08 e3 3c 8b 92 6e 3d 3e 09 cd bb 94 0e d8 be
       0.02771387 0.058245223 -0.0062572053 -0.42198622

rnn.weight_hh_l0 f4 [32, 8]
000000 4e 38 ae 3e fa 21 96 3e 5e 08 26 3e fc c8 71 3d
       0.34027332 0.29322797 0.1621413 0.059029564
000010 e6 a3 a7 3e 9a 69 43 bd 9e 07 fc 3d e6 99 b3 be
       0.32742232 -0.04770813 0.1230614 -0.35078353
000020 8b 21 83 be ee 34 c0 3e 4e a5 a5 be fc 36 96 be
       -0.2561153 0.37540382 -0.3235268 -0.29338825
000030 91 84 47 3e 57 8a 9a 3e c4 3d 1e be 5d 92 27 3e
       0.19484164 0.3018367 -0.15453249 0.16364427
000040 2e 2e 38 3e d9 e1 28 3f f6 68 19 40 8c 11 b0 be
       0.17986366 0.65969616 2.3970313 -0.34388387
000050 8f 22 59 c0 e7 20 17 bd 78 72 f2 be 1d 2f 69 be
       -3.3927343 -0.036896612 -0.47352958 -0.22771879
000060 27 d6 e4 3d a5 72 cd be 3d d3 8b bd 3d 14 af 3e
       0.11173659 -0.4012653 -0.068274 0.34195128
000070 02 fe c1 be 95 c0 68 be 4f 81 0c 3e c1 f6 bc be
       -0.37889105 -0.22729714 0.13721202 -0.36907008
000080 84 12 70 3e 9f 52 2c 3e 30 9d b9 3f 41 e5 9c bd
       0.23444563 0.16828392 1.4501095 -0.07660914
000090 4c 7e 3f be 57 f5 24 be 65 d7 4b be 42 36 2a 3e
       -0.18700522 -0.16109215 -0.19906385 0.1662226
0000a0 48 d7 81 be 94 d7 3e be 75 3f b4 3e 45 5e 53 be
       -0.2535956 -0.18636924 0.35204664 -0.2064143
0000b0 7b 47 be be ed 31 69 be b5 3c e3 3c 89 72 43 3e
       -0.3716391 -0.22772951 0.027738908 0.1908666
0000c0 79 8e 95 3e d9 2f 57 3d f9 12 6f 3e 3d 1c 91 3e
       0.2921026 0.052535865 0.23347081 0.28341857
0000d0 05 23 31 3d 03 6e 90 be d3 a1 ae be 1d a5 53 3e
       0.043246288 -0.28208932 -0.34107837 0.20668454
0000e0 61 a3 74 3d ca 6c 6a 3e 97 02 59 3d d0 0d 17 3e
       0.059726123 0.22893062 0.052980985 0.14751363
0000f0 f5 fa 3b 3e b7 ed 98 3d 90 0c be be df 7b 00 3d
       0.18357451 0.074672155 -0.3711896 0.031368133
000100 9b 61 fe bd 0d 55 09 3e ab a0 c8 3d fb d7 52 3d
       -0.124209605 0.1341135 0.0979627 0.051475506
000110 84 b1 ba be ca 7c 17 3e a2 7e f1 bd 46 d8 b7 be
       -0.3646356 0.14793697 -0.117917314 -0.3590719
000120 89 80 87 be 12 4a 41 bc 19 6e f4 bc 2f 5d 52 be
       -0.26465252 -0.011797445 -0.029837655 -0.20543359
000130 f9 4a b9 3e ec cb c4 3e 04 99 5f be c6 e0 20 be
       0.36190012 0.3843683 -0.21835715 -0.15710744
000140 d2 67 45 3e 0a 26 da be c9 fd 9b 3f c4 7e c3 3d
       0.19277886 -0.42607147 1.2186824 0.09545663
000150 e4 30 19 bf 26 d1 0a 3e e4 50 1d be 74 86 85 3e
       -0.59840226 0.13556346 -0.15362889 0.26079142
000160 17 05 01 3e 0a c0 78 3d 03 45 98 3e 21 f8 35 3e
       0.12599598 0.060730018 0.29740152 0.17770435
000170 7e 3e 2e bf 46 4f 0b be 59 5e ce 3d 96 2a fa bd
       -0.68064106 -0.13604459 0.10076589 -0.12215154
000180 c0 e2 9f be ae 49 64 3e 81 de 38 3f c7 fc 6d 3e
       -0.31227684 0.22293732 0.72214514 0.23240958
000190 3c 1b 06 3f c5 3b 0c 3e 50 a9 10 3d 34 ab 6b be
       0.52385306 0.13694675 0.03531772 -0.23014528
0001a0 30 35 d6 bd 3b f6 ce bd 40 a5 11 be 41 d2 ee be
       -0.104593635 -0.101055585 -0.14223194 -0.46644786
0001b0 c9 d6 6e 3e 37 57 04 be 41 ca 95 be 49 d1 a8 be
       0.23324122 -0.12923895 -0.2925587 -0.32972172
0001c0 41 5a a9 bd dc 1b 73 3e 4b fe 67 3e 92 e7 2c 3e
       -0.08269168 0.23741096 0.22655599 0.16885212
0001d0 56 11 4b 3e 35 bb 3e bd 6e 2b cc be 93 db d7 be
       0.19830832 -0.046565253 -0.39876884 -0.4215971
0001e0 89 fe c8 3e 52 ce 5d 3e 01 f7 b4 3b 09 27 3a be
       0.39256695 0.21660736 0.005522609 -0.18178953
0001f0 0d c8 90 bc 42 11 ef bc b8 72 41 3e 31 71 87 3e
       -0.017673517 -0.029183034 0.18891418 0.26453546
000200 ae c7 60 be 46 f7 3d 3d 33 38 1e bb 93 8a 1c be
       -0.21951172 0.046378396 -0.0024142384 -0.15287237
000210 86 aa de 3b 29 40 a1 3e eb 84 9b be 5f 18 bd 3e
       0.0067952303 0.31494263 -0.30374846 0.36932656
000220 8a 68 7e 3e bb d2 9d be cd e4 b9 bc 34 1d 93 be
       0.24844566 -0.30824837 -0.022692109 -0.28733218
000230 d3 c7 45 be 65 01 a3 be 4c df 10 bd 70 54 ce 3c
       -0.19314508 -0.31837 -0.035369202 0.025186747
000240 68 ff ab bd 85 5c c9 be 65 a5 36 3e ff 15 33 3f
       -0.08398324 -0.393284 0.1783653 0.6995544
000250 60 43 0f be 73 8a b5 3e ff 80 b4 bc 24 a0 4c 3e
       -0.13990545 0.3545719 -0.022034166 0.19982964
000260 d8 2b 8d bc 81 d9 6b 3e 10 43 06 3d e7 a8 39 3e
       -0.01723282 0.2303219 0.0327788 0.18130837
000270 17 cb 22 3b 32 6c d0 be 18 f4 aa 3e 5a 1b e9 3d
       0.002484029 -0.40707546 0.33389354 0.1138217
000280 77 71 23 be 7f 4f 34 be 81 55 87 bf f7 2a 89 3e
       -0.15961252 -0.1760845 -1.0572969 0.26790592
000290 df 44 73 3f 0c fb 1f be 01 9d 9f bd 6a bb da 3c
       0.95026964 -0.1562311 -0.07793618 0.026700694
0002a0 78 51 cb bd 95 47 7e 3e 8f 54 1b be 0f e9 2b 3e
       -0.09927648 0.24831994 -0.15168975 0.16788124
0002b0 dc 46 41 3e c4 1e 94 bd ec 27 48 3e f7 66 07 3e
       0.18874687 -0.072324306 0.19546479 0.13222872
0002c0 c2 db 2f 3e 11 a7 c8 be b6 92 51 be 0e 19 92 3e
       0.17173675 -0.39189962 -0.20466122 0.2853474
0002d0 8b b2 51 3d 6c 4e 25 3e 23 80 5a 3d f1 05 92 3b
       0.051195662 0.16143197 0.053344857 0.0044562747
0002e0 01 74 80 3e e2 32 fc 3d 8f ea cb 3c 65 9b 50 3e
       0.25088504 0.123143926 0.02489212 0.20371778
0002f0 b8 5f 96 3e 04 9e e6 bc 57 50 99 3e c9 44 e8 bc
       0.29369903 -0.02815152 0.29944107 -0.028353112
000300 10 2f b0 3e bb 84 fb 3e 08 6b 8f 3e d4 ac d4 3d
       0.34410906 0.49124703 0.28011346 0.10384527
000310 68 aa 9a be 5f 12 6c be 4f 25 61 bd f1 4c b0 3d
       -0.30208135 -0.23053883 -0.05496722 0.086084254
000320 f7 82 69 3c 70 d2 c0 3e d5 26 88 be 02 9f a2 3d
       0.014252416 0.3766055 -0.26592126 0.079404846
000330 a3 62 1b be 44 2c 88 3e 36 b6 64 be f8 bb 9e 3e
       -0.15174346 0.26596272 -0.22335133 0.31002784
000340 34 62 37 bf 22 45 25 3e 2f 8e aa 3f 66 83 27 3e
       -0.7163422 0.16139653 1.3324641 0.16358718
000350 5a 93 ef bf c2 b2 a1 be 55 71 56 3c a2 3c d2 be
       -1.8716843 -0.31581694 0.013088544 -0.41061884
000360 00 6f 00 be 6b 8e 66 3e 9d 6b 15 bd 98 76 a3 3e
       -0.12542343 0.22515266 -0.03647958 0.31926417
000370 ef d2 a8 3e 9d 69 56 3e 53 ec 91 3e 71 97 38 3d
       0.3297343 0.20938726 0.28500614 0.0450663
000380 5e c0 99 3d 6a 65 4a be 08 56 ab 3f 6f 07 f4 3d
       0.07507394 -0.19765249 1.338563 0.1191548
000390 04 d5 d1 be cc 2f 8b 3e 29 5b 27 bf 35 84 84 be
       -0.4098283 0.27184904 -0.65373474 -0.25882116
0003a0 c0 aa 0a bd 01 c0 36 be b4 52 45 be 05 90 a1 be
       -0.033854246 -0.17846681 -0.1926983 -0.3155519
0003b0 5e c2 ec bd 41 07 8a 3c 36 d3 a0 be d7 a8 bc bd
       -0.1156051 0.016849162 -0.3141114 -0.09211891
0003c0 98 80 84 be be 91 70 3e 4d 78 a8 3e 4e 79 c0 3d
       -0.2587936 0.23493096 0.32904282 0.09398137
0003d0 d2 4b 4c be ba 94 88 be 6d 4c 78 3e d5 bf 42 3d
       -0.19950798 -0.2667597 0.24247904 0.047546227
0003e0 11 00 24 3d b6 98 28 bd 83 98 69 3b 05 3d ea bd
       0.040039126 -0.04116126 0.0035643883 -0.1143742
0003f0 40 5c 95 be 93 d4 3a 3e b7 d0 10 3e e6 5f 99 3e
       -0.29171944 0.18245153 0.14142118 0.29955977

rnn.bias_ih_l0 f4 [32]
000000 96 a6 5d be 09 04 36 be 64 a1 c6 be 4e da d1 3d
       -0.21645579 -0.17774977 -0.38795006 0.102467164
000010 fc 34 54 be c2 37 51 bd c2 f6 a4 bd cc 1c 26 3e
       -0.20723337 -0.051078565 -0.08054878 0.16221923
000020 e6 d3 43 3d ed fe c8 be 20 e1 27 3f 2e a8 fd 3d
       0.047809504 -0.39256993 0.6557789 0.12385593
000030 ff 58 c0 3e f2 c4 f0 bd 2c 7f 39 be 17 8f c9 be
       0.375679 -0.11756314 -0.18114918 -0.3936698
000040 f7 cb 53 be 78 c8 17 bc 39 2c 1b 3e d4 2b 86 3d
       -0.20683275 -0.009264104 0.15153588 0.06551328
000050 1f 6d 91 3e 63 c7 d5 3e 75 22 6b bd 2a 9f 34 3e
       0.28403565 0.41753682 -0.057405908 0.17638841
000060 77 87 86 be 89 f6 85 3d a9 ff ba 3e 72 fd bf 3d
       -0.26275226 0.065411635 0.36523178 0.09374513
000070 2e be 55 3d 50 c8 d7 bd f1 14 b2 be 0c 2b de be
       0.052183323 -0.105362535 -0.34781602 -0.43392217

rnn.bias_hh_l0 f4 [32]
000000 89 8a 1d be fa df ce bd 97 12 6d bf 9d 2f c3 3e
       -0.15384878 -0.10101314 -0.9260649 0.38122264
000010 6e c9 41 bc 6a aa fd 3d 00 c9 17 be 98 17 3c 3d
       -0.01182781 0.123860195 -0.14822769 0.04592094
000020 c8 9c 81 3d 41 82 61 bd 82 26 3a 3f c8 07 39 bd
       0.06328732 -0.05505586 0.7271501 -0.045173436
000030 8c 5c 6a be 92 96 42 bd dc 2a 92 be 27 9c 84 3d
       -0.22886866 -0.047506876 -0.28548324 0.06475096
000040 22 fc 16 3e 84 65 80 be cd 1b 84 3e 37 18 15 be
       0.14744619 -0.2507745 0.2580246 -0.14560018
000050 40 d5 26 3e 8c 05 57 be 03 a4 21 3e 24 02 90 be
       0.16292286 -0.2099821 0.15785222 -0.28126633
000060 31 de 0a bd 28 ec 86 be c2 cb 8d 3d 07 9e 7d be
       -0.033903304 -0.26352048 0.06923629 -0.24767314
000070 98 57 87 be d8 35 b6 3d c0 e7 83 3e 05 cf 06 3e
       -0.26434016 0.08896989 0.2576275 0.13164909

reg.0.weight f4 [8, 8]
000000 9d 3e 8f be 32 1a 6d be 38 66 fc bc f9 26 b9 3d
       -0.27977458 -0.23154524 -0.03081046 0.090406366
000010 b8 3a 60 3e f8 5b c4 3e 6b 8e 29 3d 50 99 80 3c
       0.218974 0.38351417 0.041395586 0.015698105
000020 e7 9b b0 be 08 38 15 be 36 f3 a2 be 30 57 5b be
       -0.34493944 -0.14572155 -0.3182618 -0.21419978
000030 7d 91 39 be 27 6f ef bc 3a c9 aa bb 7d 33 47 3e
       -0.18121906 -0.029227806 -0.0052119764 0.19453235
000040 84 61 59 3e ab 12 a6 be 23 0b a2 3d c9 ab af be
       0.21228606 -0.32436118 0.079122804 -0.3431075
000050 84 74 86 be 37 ae c5 3d eb 33 a0 be 37 21 30 be
       -0.2626077 0.096523695 -0.3128961 -0.1720017
000060 cd b3 84 3e bb f3 61 be b5 77 56 3e c1 e2 49 3e
       0.25918427 -0.22065632 0.20944102 0.19715406
000070 c5 37 1a 3e c1 49 43 3d f5 0a 88 be 9f 48 55 3d
       0.15060337 0.04767776 -0.2657086 0.05207121
000080 46 0c 0c be ab 6b 09 be 51 c2 d0 bc 92 30 fa 3c
       -0.13676557 -0.13419978 -0.025483282 0.030540738
000090 38 11 0b be da e1 dc 3c 4a 33 13 be 3e 22 2d 3e
       -0.13580787 0.026963163 -0.14375034 0.16907594
0000a0 0d 18 8d 3e 9b 52 53 be e1 7c 91 be 58 ee 24 3e
       0.27557412 -0.2063698 -0.28415588 0.16106546
0000b0 a2 54 c2 be 08 e8 65 3d 60 c3 a0 3c 86 ba 61 3e
       -0.37955195 0.056129485 0.019624412 0.2204381
0000c0 78 c4 43 3e dd 22 10 3e aa ee 12 3c 4c 17 92 bd
       0.19117916 0.140758 0.008968035 -0.0713335
0000d0 01 1f e9 bd e8 57 8e be 90 db 16 be 01 d5 7b 3c
       -0.11382867 -0.27801442 -0.14732194 0.015370608
0000e0 79 77 4b be 35 54 b9 bc bc e0 1b bd ec 74 95 3e
       -0.19869794 -0.02262316 -0.03805612 0.29190767
0000f0 72 82 81 bd cc d5 86 3e 89 05 96 bb bc 3c 46 bd
       -0.063237086 0.2633499 -0.0045782966 -0.048397765

reg.0.bias f4 [8]
000000 43 37 34 be fa b1 25 be 9d 38 af 3d fb 20 65 be
       -0.17599206 -0.16181174 0.0855572 -0.22375862
000010 f8 08 0f bd 7b 61 4e be 29 77 6e 3e cd b7 ac 3e
       -0.034920663 -0.20154373 0.23287643 0.3373398

reg.2.weight f4 [1, 8]
000000 a2 f7 9b 3e 67 24 3d 3e 07 9c 57 bd 57 c4 7b 3e
       0.30462366 0.18470918 -0.052639034 0.24586616
000010 65 99 04 bd 50 a9 7b bb 01 89 6e 3e 3d e7 68 be
       -0.03237285 -0.0038400479 0.2329445 -0.2274446
