Learning Models/LSTM/models/sn-net.pth (torch, 6095 bytes, 7 tensors)

rnn.weight_ih_l0 f4 [32, 17]
0	0x3da5579d	0.080733515
1	0x3e567b2e	0.20945427
2	0x3edb1b8e	0.4279446
3	0xbd2b0619	-0.041753862
4	0x3e082c78	0.13298213
5	0x3e03634b	0.12830846
6	0x3ee0d374	0.43911326
7	0x3e89da24	0.2692424
8	0x3ed6e4e8	0.41971517
9	0xbdf35a78	-0.1188249
10	0x3da3b564	0.07993582
11	0x3e9ab1c0	0.30213737
12	0x3ebe9223	0.37220868
13	0x3ddc8f51	0.10769523
14	0x3f48e722	0.7847768
15	0x3e33cc4d	0.17558403
16	0xbe30f93d	-0.17282577
17	0x3eaef07a	0.34167844
18	0xbdcee314	-0.101019055
19	0x3e99e207	0.30055258
20	0x3e9d208a	0.30688888
21	0x3e83fb7e	0.2577781
22	0xbe403467	-0.1876999
23	0x3e6fa129	0.23401321
24	0x3f221ff3	0.6333
25	0x3c89fefe	0.016845223
26	0xbd15dfee	-0.03659051
27	0x3ef873db	0.4852589
28	0xbde8be05	-0.11364368
29	0x3f037411	0.5134898
30	0x3e25c491	0.16188265
31	0x3f7b387b	0.9813306
32	0xbd05d0a8	-0.032669693
33	0x3e714b00	0.23563766
34	0xbf14319d	-0.57888204
35	0x3dcb5331	0.09927977
36	0xbe531f29	-0.20617355
37	0xbe7338ca	-0.23752132
38	0xbf184f5a	-0.5949608
39	0xbf1040c3	-0.5634882
40	0xbd0426c0	-0.032263517
41	0xbea6c898	-0.32574916
42	0xbefcfaf9	-0.49410227
43	0x3e51ddcf	0.2049477
44	0x3e103f5f	0.14086674
45	0x3d378c19	0.044811342
46	0xbeb57eff	-0.35448453
47	0x3d9458e8	0.0724352
48	0xbf82c19a	-1.0215333
49	0xbf25ce71	-0.6476813
50	0x3e441020	0.19146776
51	0x3e89d005	0.2691652
52	0x3e52bd22	0.20579961
53	0x3f02e229	0.51126343
54	0x3eae39c8	0.3402846
55	0x3e2f36d1	0.17110755
56	0x3e1cfd5e	0.15331027
57	0x3ddf533f	0.1090455
58	0x3f2d4a5c	0.6769159
59	0x3edb4a17	0.42829964
60	0xbd2a9deb	-0.04165451
61	0xbcbd93cc	-0.023141764
62	0x3ce8ea64	0.028432079
63	0x3d1e2672	0.038610883
64	0x3d01e4e9	0.031712446
65	0x3f45b8fc	0.7723539
66	0x3efafd5c	0.49021423
67	0x3f1348ac	0.57532763
68	0xbf3ac123	-0.72950953
69	0xbdf1fb05	-0.11815456
70	0xbef30fcb	-0.47472987
71	0xbe7bf0d3	-0.24603586
72	0x3ec9d3d6	0.3941943
73	0x3ec4f6b1	0.3846946
74	0xbe4256aa	-0.18978372
75	0x3d1fd843	0.039024603
76	0xbe97449a	-0.29544526
77	0xbdbd52f4	-0.09244338
78	0x3f315b07	0.6927952
79	0x3e001185	0.12506683
80	0x3d0b955e	0.034077995
81	0xbee782cd	-0.4521698
82	0x3f12a14a	0.5727736
83	0xbf462d06	-0.7741245
84	0x3fe69a46	1.801583
85	0x3ea7ff9e	0.32812208
86	0x3d20f3bc	0.039294943
87	0x3d3431d7	0.043992843
88	0xbc8c281f	-0.017108975
89	0xbde253c1	-0.11051131
90	0xbe0f3bf8	-0.1398772
91	0xbd7dee4c	-0.061994836
92	0x3ea8faf5	0.33003965
93	0x3d17c037	0.037048545
94	0x3e7a7d5a	0.2446188
95	0x3db73fd6	0.089477226
96	0x3d813224	0.06308392
97	0xbdc230a4	-0.09481934
98	0xbe6f66f0	-0.23379111
99	0x3f5b37c5	0.8563197
100	0xbf03a68f	-0.51426023
101	0x3e0070cb	0.12543027
102	0xbe35c889	-0.1775228
103	0x3ee60ebc	0.44933116
104	0x3e04eff1	0.12982155
105	0xbe059bbe	-0.13047692
106	0x3db5af57	0.08871334
107	0x3e4b436a	0.19849935
108	0x3eb3934e	0.35073322
109	0x3e80d4ff	0.25162503
110	0x3d1eb1c5	0.038743753
111	0xbe25b08b	-0.16180627
112	0x3eb3f5f4	0.35148585
113	0xbe41f458	-0.18940866
114	0xbd9631eb	-0.0733374
115	0x3e827e4f	0.2548699
116	0x3ded5624	0.11588696
117	0xbe1db7f4	-0.15402204
118	0x3ec5ff53	0.3867136
119	0x3ea5edb5	0.3240792
120	0xbd89d26a	-0.067295864
121	0x3e07a3f4	0.13246137
122	0xbe3555b8	-0.1770848
123	0x3eb6d0e6	0.35706252
124	0x3e9fa77b	0.31182465
125	0x3e9ebf9d	0.31005564
126	0x3e9b2225	0.30299488
127	0x3e4431f9	0.19159688
128	0x3ea2e3ce	0.31814426
129	0x3ee3bad9	0.4447849
130	0xbd950ed4	-0.07278219
131	0x3e32a081	0.1744404
132	0xbbe61fbb	-0.0070228255
133	0xbfe27871	-1.7693006
134	0x3ee05bf5	0.43820158
135	0x3c77b107	0.01511789
136	0xbeadc56a	-0.33939677
137	0xbe4e9a4f	-0.20176052
138	0x3db9838a	0.09058292
139	0xbe337691	-0.17525698
140	0xbe89aa51	-0.26887754
141	0x3d15e79d	0.036597837
142	0x3e43ec74	0.19133168
143	0x3e3a01fb	0.18164818
144	0xbe52099f	-0.20511483
145	0x3e93c9d2	0.28864914
146	0x3c74538f	0.0149125
147	0x3e7d145e	0.247148
148	0x3ea00ae0	0.31258297
149	0x3e241fb5	0.1602772
150	0x3f5a4670	0.8526373
151	0xbe15f983	-0.14645962
152	0x3eb5ac65	0.3548309
153	0xbe21cee4	-0.15801579
154	0x3dd31ae9	0.10307867
155	0x3ea9d99d	0.33173838
156	0x3d29c888	0.041451007
157	0xbe55a20c	-0.20862597
158	0xbe491d93	-0.19640188
159	0xbe95ca8a	-0.29256088
160	0x3ec1ce8c	0.37852895
161	0xbe83c79b	-0.25738224
162	0xbe7ee3e7	-0.24891625
163	0xbe6fb425	-0.23408563
164	0x3e9c5aa6	0.3053791
165	0x3e584c87	0.21122943
166	0x3e949b7b	0.29024872
167	0xbfc5da31	-1.5457212
168	0xbea83ad7	-0.3285739
169	0xbe3a6fae	-0.18206665
170	0xbdc8f5df	-0.09812521
171	0x3f06551f	0.52473634
172	0x3f203c3c	0.6259191
173	0x3f04d2cc	0.5188415
174	0x3f329051	0.6975146
175	0x3deae9b9	0.1147036
176	0x3ecdb5ca	0.40177757
177	0x3ee42134	0.44556582
178	0x3e97640b	0.29568514
179	0x3ed12536	0.40848702
180	0x3f0206a2	0.5079137
181	0xbd84474b	-0.064589106
182	0x3eb4cee7	0.35314104
183	0x3eeb7008	0.4598391
184	0xbf6bcc1b	-0.92108315
185	0xbf2967fe	-0.66174304
186	0x3df99f40	0.12188578
187	0xbcc323e5	-0.023820827
188	0x3ee3474f	0.44390342
189	0x3ef50205	0.47853103
190	0x3ea94d4a	0.3306678
191	0x3e564c41	0.20927526
192	0x3ef0611f	0.46949098
193	0x3bd0c7ba	0.0063714655
194	0x3f8e9b44	1.1141133
195	0x3e52bb75	0.20579322
196	0xbe15baca	-0.14622036
197	0x3eae76ae	0.3407492
198	0x3f11cd46	0.5695385
199	0x3f0b3b3c	0.5438726
200	0x3e890ede	0.26769155
201	0x3f9f5e61	1.2450677
202	0x3f1b46c0	0.6065483
203	0x3ee56f15	0.4481131
204	0x3ef18721	0.47173408
205	0x3e6869cc	0.22696608
206	0x3e818753	0.25298557
207	0x3efe9a55	0.4972712
208	0x3ee459b1	0.4459968
209	0x3ef934ee	0.48673195
210	0x3de2705c	0.11056587
211	0x3f12da6a	0.57364523
212	0x3e44b8f6	0.19211182
213	0x3f164b0f	0.5870828
214	0x3e7c8d41	0.24663259
215	0x3f1f2a02	0.62173474
216	0x3ec86c43	0.39145097
217	0x3ecf1279	0.4044378
218	0x3f9bad41	1.2162248
219	0xbf9deed1	-1.2338506
220	0x3ed7816c	0.4209093
221	0x3e5747dc	0.21023506
222	0x3e3c3104	0.18378073
223	0xbe57f89c	-0.2109093
224	0xbe423394	-0.18964988
225	0x3e2cd1cb	0.16876905
226	0xbead5dd0	-0.33860636
227	0xbe059a22	-0.13047078
228	0x3d924c09	0.07143409
229	0x3e33d852	0.17562988
230	0x3dca378f	0.09873878
231	0x3e5be0e5	0.21472509
232	0xbd968cbb	-0.07351061
233	0xbe753a5c	-0.23948044
234	0xbd3e5c62	-0.046474822
235	0x3f089312	0.5334941
236	0xbe657bf5	-0.22410567
237	0xbe89f987	-0.26948187
238	0x3e836100	0.25659943
239	0x3eaeed77	0.34165546
240	0x3e318371	0.17335297
241	0xbc920aaa	-0.01782735
242	0x3e0dbd1c	0.13841671
243	0x3eb74f95	0.35802904
244	0x3c83d8b6	0.016094547
245	0x3ec7ea77	0.3904607
246	0x3df057c5	0.11735491
247	0xbdd3b4bf	-0.10337209
248	0x3d330fa6	0.043716095
249	0x3e46fc92	0.19432285
250	0xbcc0a634	-0.023516752
251	0x3ed3acfa	0.41342908
252	0xbd9535ba	-0.07285638
253	0x3e0c9567	0.13728867
254	0x3e864806	0.26226825
255	0x3ed6f56e	0.41984123

rnn.weight_hh_l0 f4 [32, 8]
0	0x3ee1e1e9	0.44117668
1	0x3ef64e8c	0.48106802
2	0x3de1fada	0.11034174
3	0xbea036be	-0.31291765
4	0xbe510899	-0.20413436
5	0xbcbfb0d4	-0.023399748
6	0x3c046af7	0.008082143
7	0xbe7e95ef	-0.24861883
8	0x3dcfe3b2	0.10150851
9	0x3cdde726	0.02708776
10	0x3e4df586	0.20113191
11	0x3e980528	0.29691434
12	0xbd37df86	-0.044890903
13	0x3ddeab1c	0.1087248
14	0xbdef662f	-0.11689412
15	0x3dee729c	0.11642954
16	0xbe7b78ef	-0.24557851
17	0x3f883e1b	1.0643953
18	0x3f19b9e6	0.60049284
19	0x3f9b77fd	1.2145993
20	0xbfa46bdd	-1.2845417
21	0x3f2d5860	0.67712975
22	0xbf045da3	-0.5170538
23	0xbd03b18f	-0.032151755
24	0x3ec54f50	0.38537073
25	0xbde1ed30	-0.11031568
26	0x3f12f813	0.5740978
27	0xbe5e2156	-0.21692404
28	0x3f5cd687	0.8626484
29	0xbe9fc5fd	-0.3120574
30	0x3ebfb385	0.3744165
31	0x3efb9fc4	0.4914533
32	0x3d1c6de7	0.03819075
33	0x409c4f72	4.884698
34	0x3f80cda7	1.006276
35	0xbd2525f0	-0.040319383
36	0x3f8e4947	1.1116112
37	0x3ebf5995	0.37373033
38	0x3e19118b	0.14948098
39	0xbe6403f5	-0.22267134
40	0xbcb40ad4	-0.02197782
41	0xbbf92b3b	-0.0076040304
42	0xbe1b5644	-0.15169626
43	0x3e186ed4	0.14886028
44	0x3f067375	0.52519923
45	0xbdb7389d	-0.08946345
46	0x3dba6c77	0.09102719
47	0xbecc7bf9	-0.39938334
48	0x3f06f12e	0.5271176
49	0x3e191025	0.14947565
50	0x3ecfe16e	0.40601677
51	0xbd7828a2	-0.060585625
52	0xbd84246c	-0.064522594
53	0x3e90bb33	0.28267822
54	0x3eb3d021	0.35119727
55	0x3da6fcb3	0.08153667
56	0x3e57c5ea	0.21071592
57	0xbcacf457	-0.021112604
58	0xbe48b842	-0.19601539
59	0xbe5fe258	-0.21863687
60	0xbe7fb21e	-0.2497029
61	0xbe30e9d8	-0.17276704
62	0x3e85a71d	0.2610406
63	0xbe607acd	-0.21921845
64	0x3e684baa	0.22685114
65	0x3e572446	0.21009931
66	0x3dfc677d	0.12324426
67	0x3e1fd8fa	0.15610114
68	0xbe84682b	-0.25860724
69	0xbe7d8e0e	-0.24761221
70	0x3e3ed3a8	0.18635428
71	0x3eaa147e	0.3321876
72	0x3e94ce88	0.2906382
73	0x3ec77e37	0.38963482
74	0x3e1c25e9	0.15248837
75	0x3f0d3f00	0.55174255
76	0xbeb94720	-0.36187077
77	0xbddcb1d6	-0.10776107
78	0x3ed9c912	0.42536217
79	0x3cff002f	0.031128017
80	0x3f6b1b97	0.91838974
81	0xbde2edec	-0.11080536
82	0x3faf4aff	1.3694762
83	0xbf05534b	-0.5208022
84	0x3dee7d79	0.11645026
85	0xbef7bab3	-0.48384628
86	0x3fa3a4d4	1.2784677
87	0x3f8be40e	1.0928972
88	0xbc9a87e9	-0.018863635
89	0x3e857f4f	0.2607369
90	0x3e027809	0.12741102
91	0xbe9c95fc	-0.3058318
92	0x3f725d04	0.9467318
93	0xbe870727	-0.26372644
94	0x3ebfe688	0.3748057
95	0x3dfa097c	0.1220884
96	0x3f450756	0.7696432
97	0xbfc90402	-1.5704348
98	0x3f964c3a	1.1742013
99	0xbfc3eeb3	-1.530722
100	0x3f55f074	0.8357003
101	0xbfa195ac	-1.2623801
102	0x3e10ca39	0.14139642
103	0xbce77894	-0.028255738
104	0xba9eb90d	-0.0012109593
105	0x3e3ca824	0.18423516
106	0xbeba4f3e	-0.36388582
107	0xbd486ab6	-0.048929892
108	0xbdc064b5	-0.09394208
109	0xbdafff76	-0.08593647
110	0xbeb13438	-0.34610152
111	0x3e1d7f7d	0.15380664
112	0x3ef0e1de	0.47047323
113	0x3c819d73	0.015822148
114	0x3e44365a	0.19161358
115	0xbe97dd04	-0.2966081
116	0x3e17feec	0.14843339
117	0x3e28dd37	0.16490637
118	0x3dbba888	0.09163004
119	0x3dc7fc33	0.097649
120	0x3ee922d5	0.45534387
121	0xbec1ee73	-0.37877235
122	0xbeaf2a57	-0.3421199
123	0xbbf23f8c	-0.0073928293
124	0xbea3453a	-0.31888753
125	0xbdb76428	-0.0895465
126	0xbd67bced	-0.056576658
127	0xbdf023a7	-0.1172555
128	0x3d62141c	0.05519496
129	0x3ea93444	0.33047688
130	0xbc84e919	-0.01622443
131	0xbd540360	-0.05176103
132	0x3e80a7e8	0.25128102
133	0xbe870b23	-0.26375684
134	0x3b154257	0.0022775137
135	0x3ee0db32	0.43917233
136	0x3e8ec724	0.27886307
137	0x3e387c77	0.1801623
138	0xbea884a0	-0.32913685
139	0x3f41bee6	0.7568191
140	0xbeb75605	-0.35807815
141	0xbc9b2a43	-0.01894105
142	0x3ee61792	0.44939858
143	0x3e67795b	0.22604887
144	0x3eb759be	0.35810655
145	0x3eb3395c	0.350047
146	0x3ed3fbd7	0.41403076
147	0x3f161fe1	0.58642393
148	0xbedf233a	-0.43581563
149	0xbe1d72e6	-0.15375862
150	0x3e717927	0.23581372
151	0x3e29a29f	0.16565941
152	0x3e9f972c	0.31170022
153	0x3e0953b8	0.13410842
154	0xbf079789	-0.529656
155	0x3f7099bb	0.93984574
156	0xbf673415	-0.90313846
157	0x3ea59ac8	0.3234465
158	0xbdc1dd60	-0.09466052
159	0x3e84d52b	0.25943884
160	0x3da27f76	0.079344675
161	0xbf857b25	-1.0428206
162	0x3ed5e854	0.41778815
163	0xbeb35934	-0.35028994
164	0x3f1c1a9c	0.609781
165	0xbd07aaa1	-0.03312171
166	0x3ea7796d	0.32709828
167	0xbe8a5594	-0.27018416
168	0xbe81247d	-0.2522315
169	0xbcc99853	-0.024608767
170	0x3db84c55	0.08998934
171	0x3e8d78ef	0.27631328
172	0xbeb96788	-0.362118
173	0x3e53861e	0.2065663
174	0xbe180dc1	-0.14848997
175	0x3d499f07	0.049223926
176	0x3e1284a1	0.14308406
177	0xbcfc8d0a	-0.030828971
178	0x3ea05760	0.31316662
179	0xbe45162a	-0.19246736
180	0xbea6c2c4	-0.3257047
181	0x3ddd2870	0.107987285
182	0x3ed8c0fb	0.42334732
183	0x3ee58dd7	0.44834778
184	0xbd2a2f72	-0.041549154
185	0xbef1a6f6	-0.47197694
186	0xbe37425d	-0.1789641
187	0x3ee0101d	0.43762293
188	0xbf062da0	-0.5241337
189	0x3e174240	0.14771366
190	0x3db012d0	0.08597338
191	0x3e78cafe	0.24296185
192	0x3d5aafba	0.053390242
193	0xbde044f4	-0.10950652
194	0x3e4b3693	0.19845037
195	0x3e66fc77	0.22557245
196	0xbe758370	-0.2397592
197	0x3e168140	0.14697742
198	0x3ec1d12c	0.37854898
199	0x3e617460	0.2201705
200	0x3b2ed464	0.0026676888
201	0x3f47ea30	0.78091717
202	0x3e69ec4b	0.22844045
203	0x3ecc6fe2	0.3992911
204	0x3dd832e9	0.10556585
205	0x3e3b183e	0.18270966
206	0x3d621201	0.05519295
207	0x3d9f0eb0	0.07766473
208	0xbd85148c	-0.0649806
209	0x3f6567c4	0.8961146
210	0xbd79f962	-0.061028846
211	0xbe9d1925	-0.30683246
212	0x3f18dde1	0.5971356
213	0xbec4ce1d	-0.38438502
214	0xbe5b9608	-0.21443951
215	0xbdb6024b	-0.08887156
216	0x3f1a8f98	0.60375357
217	0x3f0a13ce	0.5393647
218	0xbc900f7a	-0.017585505
219	0xbf0e7a2d	-0.55655175
220	0x3e8abed1	0.27098706
221	0xbf18fb6c	-0.5975864
222	0x3f1bd117	0.6086592
223	0x3ec1b4c5	0.3783323
224	0x3e12ce6b	0.14336555
225	0x3eaf365c	0.3422116
226	0x3e01443f	0.1262369
227	0xbf0c15f8	-0.5472102
228	0x3f3a224c	0.7270858
229	0xbec7a674	-0.3899418
230	0x3eca7996	0.39545888
231	0x3eef72e6	0.46767348
232	0x3ddc485e	0.107559904
233	0x3c942827	0.018085552
234	0xbe225a9e	-0.1585488
235	0xbdaa2e88	-0.083096564
236	0x3ece247f	0.4026222
237	0x3ea7f5eb	0.32804808
238	0xbed34ee6	-0.41271132
239	0xbe640085	-0.22265823
240	0x3e0e9e12	0.13927487
241	0xbec6c11e	-0.38819212
242	0x3e9d1f80	0.30688095
243	0xbe5e03b0	-0.21681094
244	0x3effd98c	0.49970663
245	0x3dca6e70	0.098843455
246	0xbe09afef	-0.1344602
247	0x3ecebdcd	0.40379182
248	0x3e5da0b7	0.21643339
249	0x3e4aee34	0.1981743
250	0xbe543cd7	-0.20726334
251	0x3e3b509b	0.18292467
252	0xbebf944f	-0.37417838
253	0x3e6912ee	0.22761127
254	0xbcb92607	-0.02260114
255	0x3dd640b5	0.10461561

rnn.bias_ih_l0 f4 [32]
0	0x3e767773	0.24069004
1	0x3d66e84b	0.056373876
2	0xbe2cbe2c	-0.1686942
3	0x3e97b5ee	0.2963099
4	0x3eda4f18	0.4263847
5	0xbeb01714	-0.34392607
6	0x3df9406d	0.12170491
7	0xbe097f8f	-0.13427566
8	0x3e9d8ce9	0.30771568
9	0x3ec7a5d0	0.38993692
10	0x3fa8054a	1.3126614
11	0x3eb026ad	0.34404507
12	0x3ec6d32b	0.38832983
13	0xbc080c24	-0.008303676
14	0x3e9aec45	0.30258384
15	0x3e5c8755	0.21536
16	0x3cd88d3b	0.026434531
17	0x3df77bdf	0.120841734
18	0x3e1dbd4c	0.15404242
19	0xbd091288	-0.03346494
20	0xbe0336ab	-0.12813823
21	0xbebe6d0a	-0.37192565
22	0x3ea6acaf	0.32553622
23	0x3ea4b791	0.321713
24	0x3ef341eb	0.4751123
25	0x3ccffbba	0.025388587
26	0xbde68172	-0.112551585
27	0x3f1eeee5	0.62083274
28	0xbcb63ffa	-0.022247303
29	0xbec680b6	-0.38770074
30	0x3f01206c	0.50440097
31	0x3d10569d	0.03523885

rnn.bias_hh_l0 f4 [32]
0	0x3e79a063	0.24377589
1	0x3eafa392	0.34304482
2	0xbf25006a	-0.64453757
3	0x3ef76636	0.48320168
4	0x3ed57fe0	0.41699123
5	0x3e62d2ef	0.22150777
6	0x3dc161a5	0.09442452
7	0xbdcf711f	-0.10128998
8	0x3e9c5ac0	0.30537987
9	0x3b0aa836	0.002115739
10	0x3faae5e2	1.3351405
11	0x3e2708b9	0.16311921
12	0x3f4dace6	0.8034195
13	0x3d43b39b	0.047778707
14	0x3f003860	0.5008602
15	0x3dd741c0	0.10510588
16	0x3ebe12ae	0.37123626
17	0x3ed26825	0.4109508
18	0x3e6f167c	0.23348421
19	0x3e0f81cb	0.14014356
20	0xbd182f62	-0.037154563
21	0x3dfe3349	0.124121256
22	0xbbdcb512	-0.0067354525
23	0xbc16c63a	-0.009202534
24	0x3ef413b7	0.4767129
25	0x3e960eb4	0.29308093
26	0x3e7ec23a	0.24878779
27	0xbcd3b014	-0.025840797
28	0x3f12ef0e	0.5739602
29	0xbeb9a301	-0.36257175
30	0x3eadf75b	0.3397778
31	0x3e41873c	0.18899244

reg.0.weight f4 [8, 8]
0	0xbdfc8218	-0.12329501
1	0xbdc93aa1	-0.09825636
2	0xbd217e2c	-0.039426968
3	0xbe1e3637	-0.15450369
4	0x3ce14c0d	0.027502084
5	0xbe5dbef4	-0.21654874
6	0x3dffc52f	0.12488782
7	0x3e585a64	0.21128231
8	0x3e21e2f9	0.1580924
9	0x3e53081d	0.20608564
10	0x3ea76399	0.32693174
11	0xbe10bf71	-0.14135529
12	0xbe256071	-0.1615007
13	0x3d520c37	0.05128118
14	0x3db3383c	0.0875096
15	0xbe615793	-0.22006063
16	0xbe39cd0f	-0.1814463
17	0x3d77bad6	0.060480915
18	0x3d0dae97	0.03459033
19	0x3de08140	0.109621525
20	0x3da29fb4	0.07940617
21	0xbe2bb68b	-0.16768853
22	0x3df3853e	0.11890648
23	0xbe88e1bc	-0.26734722
24	0xbe8edd73	-0.27903327
25	0xbe78c1f3	-0.24292736
26	0xbcc650ef	-0.024208514
27	0x3cf173fd	0.029474253
28	0xbe310070	-0.17285323
29	0xbe865f83	-0.26244745
30	0x3e0f020d	0.13965626
31	0xbcc098c3	-0.023510342
32	0xbe982cff	-0.2972183
33	0xbd57a252	-0.052645035
34	0x3d824acd	0.06361923
35	0x3d098334	0.03357239
36	0x3e2298c4	0.15878588
37	0x3d8f48ca	0.06996305
38	0xbe14d1ec	-0.14533204
39	0x3e579984	0.21054655
40	0xbe621d10	-0.22081399
41	0x3e9ebc9e	0.31003278
42	0xbdcaa6ff	-0.09895133
43	0xbe2a6d02	-0.16643146
44	0xbe6f798a	-0.23386207
45	0x3da22711	0.079176076
46	0xbe80a0a5	-0.25122562
47	0x3c7c3f2d	0.015395922
48	0x3e86bb56	0.263148
49	0x3dc35951	0.0953852
50	0xbcaf9826	-0.021434855
51	0xbe992788	-0.29912972
52	0x3e655b0f	0.22398017
53	0x3deb1e19	0.1148035
54	0x3e4aac06	0.19792184
55	0x3dd559df	0.10417532
56	0x3df6b7f7	0.12046807
57	0x3dc402ff	0.09570884
58	0xbf0bb067	-0.54566044
59	0xbe023bc4	-0.12718111
60	0x3e31d16e	0.17365047
61	0x3d4102b4	0.04712172
62	0xbbe142b5	-0.006874407
63	0xbc754e9c	-0.014972355

reg.0.bias f4 [8]
0	0xbe0bef57	-0.1366552
1	0xbed33f86	-0.41259402
2	0x3df87e1b	0.12133428
3	0x3e56e868	0.20987093
4	0xbea9b450	-0.3314538
5	0xbdced0a2	-0.10098387
6	0xbd47dad4	-0.048792675
7	0x3dcb22c4	0.099187404

reg.2.weight f4 [1, 8]
0	0x3c26e003	0.0101852445
1	0xbdc174be	-0.09446095
2	0xbc77f5da	-0.015134299
3	0xbbfaf169	-0.007658173
4	0xbe79d917	-0.2439922
5	0xbd90bd1a	-0.07067318
6	0x3d844100	0.0645771
7	0x3dfe404e	0.12414609
